intent_classifier/intent_classifier.model (torch, 72722 bytes, 8 tensors)

fc1.weight f4 [64, 256]
00000000: 2a72 bf3e c280 75be c240 d33c c290 b1be
00000010: 7b1c e7be d6a6 86bd a7fb 483e 4611 ccbd
00000020: c389 953c 68cd a9bd 638c 84bd dce9 ffbd
00000030: c577 26be 8f45 963d d26e ce3c d9a1 3cbe
00000040: e87c 9d3d a0c2 7c3b 519d 933e a62e 713d
00000050: ebd8 273e 8519 a53d 7b0e 803e 9c67 8f3e
00000060: face 2ebd 910a d6bd 2f53 8d3d 7d0c 903e
00000070: 37de 46be 9c87 383e 0c74 943d 62e1 5abe
00000080: 7a20 ebbd 3c59 d2bd 469a 803d 9b98 1dbe
00000090: 833f cfbd da5b 923d 2ec6 8dbe 0c73 a4be
000000a0: de5a 0abd 1f1c bc3d 6f48 003e 099d 40be
000000b0: e0a0 49bd c918 2f3e e787 8e3e 637c b33b
000000c0: 2164 80bc cf02 83bd 8608 c93d 1545 d93d
000000d0: 304b 4abd 852a 4c3e 43a9 afbc 6804 0cbe
000000e0: 5ee6 503d 7078 953d 9e35 74be c83e 92bd
000000f0: 9bb1 6dbd 5286 71be 2e88 91be 2ee1 903c
00000100: 0738 37be 1141 55be a047 653e edcf 153d
00000110: d3d6 ad3d 1ced 8ebd 4ebe e2bd c4df a03d
00000120: 7ab6 ab3c 62ca 39be 7ec7 5fbe 127d db3d
00000130: a6fd bb3c 7eb7 e13c 774b 093c 6420 b7bc
00000140: 4c6a a43e bf99 5bbb 77e3 56bd b338 60bc
00000150: 86ef 9c3a 09dd 653e 85cd 7a3d 50ad 43be
00000160: 2ac0 8cbc 5ac2 a43e ac67 3f3e de05 8dbd
00000170: 2b4a 943d 0984 d73d 7b6e 083c 16fa 22bc
00000180: 3ea1 5d3d 8329 a1be dc62 f93d fd3e 903e
00000190: 4af8 d23d 2f69 36be a437 933d 36de 983d
000001a0: 2480 2abe 888d 3cbd 1951 193e bc75 3abe
000001b0: 141e b3bd ac16 e9bc 5a3e ce3d dc34 be3c
000001c0: c4f6 4ebe 9500 d7be fb44 23be c6c1 b4bd
000001d0: 7fb4 aabe 3e4e 9a3e 0133 583d 3bf7 01bd
000001e0: 83be 52be fd58 afbe b9d7 04be fa35 6b3d
000001f0: 789b 0bbd e605 cc3d 0382 07bd 5b1f 35be
00000200: 7157 8abd b901 a0bc 3bd1 bbbd 3d0c febd
00000210: 37bb 48be 51a9 a2bc 7836 00be 6a33 abbb
00000220: 17f0 97bd 32c4 11be 7d50 34be 1fca 3fbe
00000230: 2b50 803e e46d e83e 2334 a33d 054e 863d
00000240: 70b0 003e ac62 d9bd aed0 87bd 4e6e 9bbd
00000250: 41a9 1e3e 6ed0 c83b 9fcf 35be d57c 16be
00000260: da25 abbd 1327 453e 6e55 be3d a4cd 613e
00000270: fe4f 2fbd 4fca ddbc 844d 183e 589d 51be
00000280: 76a6 053c e1a5 92be 7803 53be efa9 9cbb
00000290: 0a58 5f3e 438c 293d 8c27 9c3d 0fdd 66bd
000002a0: 3ba0 823d 9196 08bd 1fb0 73bc 3a6a 53bd
000002b0: a493 4fbd 1f25 223e 07e6 1bbe 05b3 8d3e
000002c0: c1a3 b33c c823 93bd 1e25 d53c 5b70 43bc
000002d0: 061a 8ebc ad4d 323e a560 393e 2a54 b2bc
000002e0: f0a5 56be c288 cabd 7428 9e3c 1aa7 813e
000002f0: 9594 6f3e 9412 893d fc10 6f3d 0a63 923e
00000300: c816 553e dae5 223d ede3 8bbe de9c 523e
00000310: c234 a93d 4391 113d 2784 9a3d 247d afbd
00000320: 79bd 1b3e 077f 3ebe fe86 2bbc 4e2c 133e
00000330: ffc1 41bb bb14 733d 856b 323e 1ca9 0c3e
00000340: fd30 8dbd a0e1 073e e02f bfbd 1572 a43d
00000350: 9b68 13bd d275 f23d 649d 0abe 260a 163e
00000360: 3f13 8dbe cbd1 4fbe 840e 6c3d e6e0 8b3d
00000370: c893 94be 3482 b4bd 5c8d 78bd 222b 5c3e
00000380: 40c7 4f3e 19eb 80bd afb8 2b3e 8b5f 373e
00000390: 6c2f c43c 99c0 a5bd 8325 fd3d c7a4 c03d
000003a0: 300c 85bd 5c65 a3bd 213f 4abe c30a 0d3e
000003b0: f443 5bbe cc12 b93d aacb 10be 57c2 8cbe
000003c0: 884b c1bc b792 e13d 43c6 513e 6971 6bbe
000003d0: 5c17 b23a 9b48 383e 0f2f 533e 20c6 b2be
000003e0: d311 c0bd 1278 78be e47e 8f3c 426b 983d
000003f0: 6b9d a83e aa97 a03e 7fd2 163e 33ad 8a3d
0.37391788 -0.23974898 0.025787715 -0.34680754 -0.45138916 -0.0657479 0.19627248 -0.09964232
0.018254166 -0.08291131 -0.06472089 -0.12495777 -0.16256626 0.07337486 0.025199328 -0.18421115
0.076898396 0.0038568154 0.2883096 0.058882378 0.16391341 0.08061508 0.25011048 0.28008735
-0.042677857 -0.10451234 0.06900632 0.28134528 -0.19420706 0.18020481 0.07248697 -0.21375039
-0.11480804 -0.10270926 0.06279425 -0.15390246 -0.10119536 0.071464255 -0.27690262 -0.32119024
-0.033778064 0.09185051 0.12527631 -0.18809904 -0.049225688 0.17099299 0.2783806 0.0054774745
-0.015672745 -0.0639702 0.09816079 0.106088795 -0.04938811 0.19938095 -0.021443015 -0.13673556
0.051000945 0.07298362 -0.23848578 -0.07140881 -0.058030706 -0.23586395 -0.2842421 0.017685499
-0.17892466 -0.20825602 0.22390604 0.036575247 0.0848824 -0.06978819 -0.11071454 0.0785518
0.020961035 -0.18143609 -0.21853444 0.10717215 0.022948097 0.027553316 0.008379809 -0.022354312
0.32112348 -0.0033508388 -0.05246302 -0.013685393 0.0011973239 0.224476 0.061231155 -0.19109082
-0.017181475 0.32179528 0.18691891 -0.06885885 0.07240709 0.105232306 0.008327122 -0.00994732
0.05410885 -0.31476983 0.12177059 0.28173056 0.10301264 -0.17813562 0.07188347 0.074642584
-0.16650444 -0.046033412 0.14972343 -0.18208975 -0.08745971 -0.028453194 0.10070486 0.023218565
-0.20211321 -0.41992632 -0.15944283 -0.08826022 -0.33340833 0.3013782 0.052783016 -0.031729918
-0.20580487 -0.3424758 -0.12972917 0.057424523 -0.034083813 0.099620625 -0.033082973 -0.17687742
-0.067549594 -0.019532071 -0.09170767 -0.12404678 -0.19602667 -0.019856127 -0.12520778 -0.005224635
-0.074188404 -0.14234999 -0.17608829 -0.18729447 0.25061163 0.4539634 0.07968929 0.0655785
0.12567306 -0.10614523 -0.06631599 -0.07589398 0.15494253 0.0061283624 -0.17754982 -0.14696057
-0.08356829 0.19253187 0.09293638 0.22051102 -0.042800896 -0.027074007 0.1487332 -0.20470178
0.008157363 -0.2864218 -0.20606792 -0.004781 0.21810928 0.04139353 0.076247305 -0.05636316
0.06378218 -0.033346716 -0.0148735335 -0.051614977 -0.05067791 0.15834473 -0.15224467 0.27675644
0.02192867 -0.07184559 0.026018675 -0.011928643 -0.017346393 0.17412443 0.18103273 -0.021768648
-0.20961738 -0.09889366 0.019306399 0.253228 0.23396523 0.066929966 0.058365807 0.28591186
0.20809472 0.039769985 -0.2732233 0.20567653 0.08262016 0.035538923 0.07544737 -0.085687906
0.15208997 -0.18603145 -0.010469196 0.1437237 -0.0029565094 0.059345942 0.17423828 0.13736385
-0.068941094 0.13269663 -0.09335303 0.08029572 -0.03598843 0.11838879 -0.13536602 0.14652309
-0.27553746 -0.20294873 0.05763103 0.06830005 -0.29018998 -0.08813897 -0.060681686 0.21500829
0.20290852 -0.06294841 0.1676967 0.1790754 0.023948394 -0.08093376 0.123606704 0.09406429
-0.06496465 -0.07978317 -0.19750644 0.13773637 -0.21412641 0.09036788 -0.14140192 -0.2749202
-0.023595586 0.11014312 0.20485787 -0.22992481 0.0013587284 0.17996447 0.2062342 -0.34916782
-0.093784 -0.24264553 0.01751656 0.07442333 0.329326 0.3136571 0.14728735 0.067713164

fc1.bias f4 [64]
00000000: 5447 91bc ccee f1bc 571a 60bd e3ee e93b
00000010: f367 963b 94f6 2fbd e49f 9f3c 81b9 02bc
00000020: 2a4f 5e3c 2490 23bd 7bf4 8fbc ea9e 0bba
00000030: 590a 983c 5816 fe3c a88a d9bc fe57 bb3c
00000040: fc8e b7bc 4c71 11bd 1113 6d3d c502 4b3d
00000050: a4fb 453d 78aa 07bc 5351 9fbc 3050 e53b
00000060: f67f e33c 52c5 5cbc 5657 eb3c 62af 9e3c
00000070: 806e 083d 5ea4 1f3d 040b 783d be7e f9bc
00000080: aa5f 0ebd 2873 c03c 8443 a6bb 49d9 953c
00000090: c25f 6bbc 5b2d 45bd 8467 053d 4649 4cbd
000000a0: 38f3 dfbc a4c1 59bd d0dc 6ebd ba65 6c3d
000000b0: 47cf 2b3d 8440 c83a 7c52 653d 6a4a 5bbd
000000c0: e064 19bd 5c82 3abc 37d6 04bd 6a89 c1bc
000000d0: fe60 babc 50e7 f3bc 7c4f 66bd 5630 2fbd
000000e0: 2bb3 003d 4417 7cbb 7384 afbc 7ef3 5cbc
000000f0: ec7a 6d3d a263 023d a044 c13c 7b08 1bbc
-0.017734207 -0.029532813 -0.05471262 0.007139073 0.0045900284 -0.042959765 0.019485421 -0.007978798
0.013568679 -0.039932385 -0.017572632 -0.0005326109 0.018559622 0.031016514 -0.026555374 0.022869106
-0.022407047 -0.03550844 0.05787951 0.049563188 0.048335686 -0.008280389 -0.019447958 0.0069980845
0.027770977 -0.013474779 0.028728168 0.019370738 0.033308506 0.038975112 0.06055738 -0.030455943
-0.0347592 0.02349241 -0.0050739665 0.018292086 -0.014366092 -0.048138957 0.032569423 -0.049874566
-0.027337655 -0.053163186 -0.058316052 0.0577142 0.041945722 0.0015278016 0.055986866 -0.053537764
-0.037449718 -0.011383619 -0.032430854 -0.023625094 -0.022751328 -0.029773384 -0.056228146 -0.042770706
0.031420868 -0.0038466016 -0.021425461 -0.013485787 0.057978556 0.0318333 0.023592293 -0.009462471

fc2.weight f4 [11, 64]
00000000: 2f20 3e3f 16c2 403f 9c01 df3e b47d 51be
00000010: e02b 623f c2e2 c53e 8641 c63f 2f6f c63e
00000020: c593 ef3d 09f4 043f f2d2 2f3d 1354 673f
00000030: 1579 b23e 119c 433f 219c 4a3e 61af 883e
00000040: a41d a23f e331 3f3f 1425 ab3f c313 6e3f
00000050: ac9d 2abf aa7e 453f b75d 363f 152d 163f
00000060: 9a2c 483f d9a4 6e3f b3a8 503f cd67 213e
00000070: 84d1 823f 66eb fb3e f928 a4be 603a 363f
00000080: 0edf ae3f 25e5 953f 5cb3 e53e a467 383f
00000090: e510 30bd b6ca 843f 665e a03e 4c49 253e
000000a0: cc17 e73e c5af cbbd 6900 bc3e b2cb a33f
000000b0: f53f 503e e1d2 a53f ca49 b53f 57db 35be
000000c0: 6733 143f 3adf 973e 1c77 e03d 3a79 1d3f
000000d0: aec3 aebf ed57 8a3f 8b27 b33f 5c45 c73e
000000e0: 6d86 a03f ae4a 28be a65b 653f 87b6 223f
000000f0: cc84 b13f 1d34 8c3f 4a4e 9b3d af26 873e
00000100: 7250 9ebd 7c8e 3e3d 3663 6a3e 59a3 3e3f
00000110: 5249 05bf 61b0 223e 795f 25be 5813 bcbe
00000120: 2802 9e3d 4d37 efbc 13e6 bebe fa1c 293d
00000130: 8db4 a33f 5224 b5be 4076 cdbe 9a74 82bd
00000140: 03ab 75be 249b 083d 369f 4b3e a676 7f3d
00000150: dd75 abbe a907 4dbe ff91 05be 9bb4 37be
00000160: 2d35 03bd e778 79be 470d a9be 60d0 1bbf
00000170: 182b 45be f7b1 8fbe ecae f13e 2d67 eb3f
00000180: d694 44be 43f6 96be fa3f 89be 05ed 54be
00000190: c6c4 c3bd 9059 78be d5ec a2be 8d71 493f
000001a0: 5b78 11bd 21cb 91be e1fe 74be 8c6e 29bd
000001b0: d961 3abe 1a84 1abe 4bdc 823e b17e d6be
000001c0: 4089 84be 1ede 17bf bde0 87be f676 50be
000001d0: bec7 8dbe 9293 a53c dbc1 21bd 336c 9dbe
000001e0: 1eca 3ebd 2222 a2be 2346 2c3e 190d d9bd
000001f0: 81d3 ea3d bbb5 23be 3fed 18be 0978 dcbe
00000200: e672 efbe 6985 39bf 7e79 62be 5376 75bd
00000210: e0c5 53bf 60ce efbe 005a c7bb c7b6 583f
00000220: 5769 303d 8e8d 993d ef5d 08be a045 9ebe
00000230: 3e08 87be 478c 18bd e5a3 9b3f 8ee1 52be
00000240: bda8 d0be ae8b 63be 7f3e 64be 28cd 14bb
00000250: e814 2d3c 8313 cbbe 2800 ac3e f6e3 3dbe
00000260: f19d aabc c5e1 db3d 962a abbc 3428 2cbe
00000270: a053 ebbe 3e0a b7be 2d71 983f 943d c9be
00000280: c735 93bd e177 7bbe 5a30 25bf 5db0 c5be
00000290: 2af6 2fbe 147c dfbe 9fb3 6ebf aedb edbe
000002a0: c45e 7bbd d3a4 f0be ccd8 00be 1688 afbd
000002b0: cf5a 33bf 05c7 8bbe 03a3 70be dac0 dd3f
000002c0: adad f9be 81a0 7c3e 3477 d5be 900c 21bf
000002d0: a82c 05bf 0ad2 0cba 5dba 03be 0428 cbbe
000002e0: 2d65 87be c540 243f 642d ccbe 333d 3cbe
000002f0: 9dd7 4dbe 8ed1 58be 327e 2dbf 66ec c5be
00000300: 0c1d 97bd e80e eb3e f310 b9bd 5042 fb3f
00000310: 48d6 d8bd c317 573f 1ece 8bbe 9bfb b1be
00000320: 5bf5 94be a7d1 9fbe 121f 8f3e cc84 e9be
00000330: 2978 cdbe 25d5 443e 0c9d 4f3f f504 c9be
00000340: c5c0 88be be53 c6be 1262 5bbe def2 de3e
00000350: c8c7 ec3e 2d65 1abf 5004 c7bc 333c c93d
00000360: b330 79be f098 5abd 2675 ecbb 3ef0 2abf
00000370: 74dc 58be c69e 89be f7b7 09bf ed47 a0be
00000380: 7960 febe a105 eebe 275a 773e 8536 6abd
00000390: 29b5 ddbe 7fb8 bfbe 0fc5 7fbe 8db4 aebe
000003a0: 40c5 84be 9ff9 c1be 4c0e 10bf 7fc4 78be
000003b0: acf6 87bd 5925 07bf 613a 16bf ad6c e4bd
000003c0: 46d4 56bf d7aa 43be ca22 30bf ef22 afbe
000003d0: 9850 0abf ffad 9cbd e8a0 a9be 3ec0 04bf
000003e0: fe71 ad3c bd52 113f 4043 6dbe 5b74 7bbe
000003f0: 26c5 b3bd 7281 4bbd 7f5a eabe 98e3 0d3e
0.7426786 0.7529615 0.43555915 -0.20458108 0.883482 0.38649565 1.5488746 0.387567
0.11698107 0.5193487 0.042925783 0.9036266 0.34858003 0.76410013 0.19786121 0.26696303
1.2665296 0.74685496 1.337069 0.92998904 -0.6664684 0.771464 0.7123675 0.5866254
0.78193057 0.9322029 0.81507415 0.15762253 1.0220189 0.49203032 -0.3206251 0.71182823
1.3661821 1.1710554 0.44863403 0.72033143 -0.042984862 1.0374362 0.3132202 0.16141242
0.45135343 -0.09945635 0.36719063 1.2796538 0.20336898 1.295498 1.4163144 -0.17759453
0.57890934 0.29662496 0.10960218 0.615131 -1.3653467 1.0808083 1.3996443 0.38920105
1.2541023 -0.16434738 0.8959297 0.63559765 1.3868651 1.0953404 0.07583292 0.263967
-0.077301875 0.046522602 0.22889408 0.74468 -0.52065 0.15887596 -0.16149701 -0.36733508
0.07715255 -0.029201174 -0.37284908 0.0412874 1.2789475 -0.35379273 -0.4012928 -0.06369896
-0.23991017 0.03335108 0.19884953 0.06236901 -0.3348836 -0.20022453 -0.13043974 -0.1793999
-0.032033134 -0.24362527 -0.33017942 -0.6086483 -0.1925472 -0.28065464 0.47203767 1.8390862
-0.19197401 -0.29484758 -0.26806623 -0.20793541 -0.09559016 -0.24252915 -0.31821314 0.7868889
-0.03551517 -0.28475288 -0.23925354 -0.04136519 -0.18201388 -0.15089455 0.25558695 -0.41893533
-0.25885963 -0.593233 -0.2653865 -0.2035788 -0.27691454 0.020211969 -0.039491516 -0.30746612
-0.046579473 -0.31666666 0.1682363 -0.10598201 0.114661224 -0.15987293 -0.14934252 -0.4306033
-0.46767348 -0.7246919 -0.22116658 -0.059927296 -0.8272381 -0.4683714 -0.006083727 0.84653896
0.04306921 0.074977025 -0.13317083 -0.30912495 -0.26373476 -0.037243154 1.2159392 -0.20593855
-0.40753737 -0.22221252 -0.22289465 -0.002270529 0.0105640665 -0.39663324 0.3359387 -0.18543991
-0.020827265 0.107364215 -0.02089433 -0.16812211 -0.45962238 -0.35750002 1.1909539 -0.39304793
-0.071879916 -0.24557449 -0.64526904 -0.38611117 -0.17183748 -0.43649352 -0.9324283 -0.46456665
-0.061369672 -0.4700075 -0.12582701 -0.08570878 -0.7006044 -0.27300277 -0.23499684 1.7324479
-0.48765317 0.24670602 -0.41692507 -0.62909794 -0.52021265 -0.00053718744 -0.1286406 -0.39678967
-0.26444378 0.6416133 -0.3987838 -0.1838272 -0.20101781 -0.21173689 -0.67770684 -0.3865692
-0.07378587 0.4590981 -0.09036436 1.9629612 -0.10587746 0.8402063 -0.27305692 -0.34762272
-0.2909344 -0.3121464 0.27953392 -0.45609128 -0.40130737 0.19221933 0.8109901 -0.39261594
-0.2670957 -0.38735765 -0.2142413 0.43544668 0.4624617 -0.6031063 -0.024294049 0.09825935
-0.24334984 -0.05336851 -0.0072161136 -0.6677283 -0.21177846 -0.26878947 -0.53796333 -0.31304875
-0.49682978 -0.4648867 0.24155484 -0.0571809 -0.43302277 -0.37445447 -0.24977516 -0.34122124
-0.2593174 -0.37885758 -0.56271815 -0.24293707 -0.06638846 -0.52791363 -0.5868283 -0.11153541
-0.83917654 -0.19108139 -0.68803084 -0.3420634 -0.54029226 -0.076503746 -0.33130574 -0.5185584
0.02117252 0.56766874 -0.23170185 -0.24556105 -0.087778375 -0.049683996 -0.45772168 0.13856351

fc2.bias f4 [11]
00000000: 481c 963f ef69 41be 94f4 bf3e c7f0 26be
00000010: d998 60be e200 c9be 3e36 b43e 756e 29be
00000020: 4a3c dabd 8745 08bf ab72 6f3d
1.1727381 -0.18888067 0.37491286 -0.16302787 -0.21933307 -0.39258486 0.35197634 -0.16546042
-0.106560305 -0.5323109 0.058458965

bn1.weight f4 [64]
00000000: ee67 b03f 446e c33f 11c9 803f 4e52 1e40
00000010: 0cb9 963f e203 b73f bc07 ee3f 560f a03f
00000020: 043c de3e f8a6 0140 1ac2 7a3f 6abc bf3f
00000030: 80a7 0440 eaec 883f 3b2d ce3f f0c3 c93f
00000040: 0ebc e53f 7d1e a13f 8b5e d53f eafe a93f
00000050: cc7d 983f a781 ac3f b069 793f d5cd 833f
00000060: aa70 a63f edc9 b13f 58e0 a53f 9c51 a63f
00000070: 2d3e e73f c748 1d3f c5a7 c43f 4437 0840
00000080: 8ea2 e53f f2db cb3f fc14 af3f 098e a63f
00000090: 8ecb a63f 81ae c63f ffbf b93f 6915 ab3f
000000a0: 6048 873f fb3c 1a40 1c0d 943f a040 e23f
000000b0: 0e80 1b40 ba14 db3f a9a3 e03f 59e3 0a40
000000c0: 2397 823f 2e29 5c3f 1216 0540 1cd6 823f
000000d0: be14 e63f 22bb b83f c159 ed3f 071c 903f
000000e0: 4e13 d13f 255e 803f 2ed1 c13f e3a4 9c3f
000000f0: 0d21 ea3f 2ac3 b83f 57f6 0740 701c d33f
1.3781717 1.5268025 1.0061361 2.4737735 1.1775222 1.429806 1.859611 1.250468
0.43405163 2.025816 0.97952425 1.4979374 2.0727234 1.06973 1.6107553 1.576292
1.7948015 1.2587429 1.6669477 1.3280919 1.191339 1.3477067 0.9742689 1.029719
1.3003132 1.3889748 1.2959089 1.2993655 1.806585 0.61439174 1.5363699 2.1283731
1.7940233 1.5926497 1.3678279 1.3012096 1.303087 1.5522004 1.4511718 1.3365909
1.0568962 2.409972 1.1566501 1.7675972 2.4296908 1.71157 1.7549945 2.1701262
1.0202373 0.86000335 2.079472 1.0221591 1.797508 1.4432108 1.8543016 1.1258553
1.6334016 1.0028731 1.5141962 1.223782 1.8291336 1.4434559 2.1244104 1.6493053

bn1.bias f4 [64]
00000000: 0e59 f63e a578 98be 9e79 d4bd 3ce8 1cbe
00000010: 89fe 8bbe a921 cb3d fcda 603f d431 02bd
00000020: c7bb a9be 013e 8b3e 6df0 cebe fceb 6f3e
00000030: 38fc 8b3d c94b 41be fcd7 5a3d f417 423e
00000040: cb7d ab3e 7007 253c 8338 743e 9361 9b3e
00000050: 5066 6ebf 87ed 033e 2e12 36be 352f b53d
00000060: b806 9f3e ee5d ed3d b673 ec3d 8cd1 29bf
00000070: 88b8 de3e 8878 86bd db13 73be b860 e13e
00000080: dad3 0b3f 611d 52be 7183 463e 9942 473e
00000090: d126 6fbe 50c5 9e3e 471e f23d 1758 0d3e
000000a0: 7a54 0ebe 2e2d 1f3f 5c40 2cbb 027c 063f
000000b0: d61f 3f3e 8137 a23e e0b9 123f db65 19be
000000c0: 7648 84bd 6644 50be 7f7d 65be 778e 5b3d
000000d0: 823e a23f 9277 4b3e fbe3 b33e 32ae 2abe
000000e0: a6e7 bc3e 1525 a2be 4703 843e b2c9 183e
000000f0: e286 3a3e 1b86 cc3e 2e0f 653e c7d3 8c3e
0.48114818 -0.29779544 -0.10374759 -0.15322965 -0.27342632 0.099185295 0.87834144 -0.0317858
-0.33151075 0.27195743 -0.40417805 0.23429865 0.06835216 -0.18876566 0.053428635 0.1895445
0.3349441 0.010072574 0.23849683 0.3034788 -0.93124866 0.12883578 -0.17780373 0.08846895
0.31059813 0.11590181 0.115455076 -0.6633537 0.4350016 -0.06565958 -0.23738043 0.44019103
0.54620135 -0.2051902 0.19386078 0.19458999 -0.23354651 0.31009912 0.11822181 0.13803135
-0.13899413 0.62178314 -0.0026283478 0.5253297 0.18664488 0.3168297 0.5731487 -0.14980261
-0.06459133 -0.20338592 -0.22411154 0.053602662 1.2675326 0.19869831 0.35134873 -0.16668013
0.36895484 -0.31668916 0.2578375 0.1492069 0.18215516 0.39946064 0.22369072 0.27505323

bn1.running_mean f4 [64]
00000000: 8956 3e3f 032d 333e 8fc2 7042 6820 053f
00000010: 2de9 03c0 19d5 ef3e f836 0440 5cec abbe
00000020: 494f 8ec0 5bb9 3c3f de3f c3bf 9292 1040
00000030: bc50 403f a025 42c0 02f8 9e3e b558 b33f
00000040: dd47 2c40 32a6 cbbb 2cc9 273f f2ed a63f
00000050: 5d78 04c0 3c5d f03e 1e33 1bc0 5193 223f
00000060: d1f3 8d3f 4a76 6a3f 6189 473f 0df5 debf
00000070: 8c12 dd3f 91c2 d0c1 f5e8 f142 4c3a 4a3f
00000080: 8bc5 d93f 78d8 0cc0 5d19 2640 d24f 973f
00000090: afba 0b40 543d 5d3f 9d5d 413e 3623 af3e
000000a0: d4b9 f1bf 9af2 0d40 2667 903e db9d c13f
000000b0: 92b0 4a3f 6d84 a03f 41b1 d13f d84d ae3e
000000c0: 3265 d2bf 278a 73bf e483 103f 48ad 9cbf
000000d0: f84e 8d40 40f4 0e3f e845 3c3f 5909 68bf
000000e0: aa1f 663f d215 abbd cedc 593f 854b 593f
000000f0: 24f2 603f 6aed d53f f7ba 863f 9e62 fd3e
0.7435079 0.1749764 60.19 0.52002573 -2.061107 0.46842268 2.065855 -0.33578765
-4.4471784 0.7372033 -1.5253866 2.258946 0.7512319 -3.0335464 0.3104859 1.4011446
2.6918862 -0.0062148804 0.6554134 1.3041365 -2.0698464 0.46946132 -2.424995 0.63506037
1.1090032 0.91586745 0.77944 -1.7418534 1.7271285 -26.095003 120.954994 0.78995204
1.701341 -2.2007122 2.595298 1.1821234 2.1832693 0.86421704 0.18883367 0.3420655
-1.8884835 2.2179322 0.28203696 1.5126299 0.79175675 1.2540413 1.6382219 0.34043765
-1.6437132 -0.9513268 0.5645125 -1.2240381 4.4158897 0.55841446 0.7354417 -0.90639263
0.89892066 -0.08353771 0.85102546 0.8488086 0.8786948 1.6713078 1.0525807 0.494893

bn1.running_var f4 [64]
00000000: b52c f63f 76c7 2241 732f bb44 b2c8 4640
00000010: b388 5140 7378 2a40 bc1d 0241 9179 0240
00000020: 5190 1c41 9d9f 1c40 fe6d 2640 beea 9a40
00000030: 358a 0540 c7a4 d740 5ee7 c13f 8e61 6640
00000040: b407 ef40 8347 4c40 d83c 5840 d324 4f40
00000050: 5ae3 3640 54fc b73f f904 7c40 47ae fa3f
00000060: d5fd 4040 9f58 1e40 d7f3 1940 0ee4 4c40
00000070: 0859 7740 cbfc 9343 6b91 bd45 cfbc 8540
00000080: 116d b740 a4a9 dc40 5905 b040 8300 1140
00000090: 97f4 9c40 e451 4640 ea04 603f 4389 9d3f
000000a0: 9005 3f41 b434 ba40 3de7 8e3f 2246 cc40
000000b0: bbb2 1940 8e30 9340 d0f3 a540 495e 2b40
000000c0: 6c38 ac40 ac67 f63f c33e d43f c074 5440
000000d0: 9334 5941 79c3 3a40 005b a540 2b9b eb3f
000000e0: 3ad5 5940 0d59 823f f940 2c40 f4a8 0040
000000f0: c997 6e40 54c2 7640 2a42 d93f 7500 933f
1.9232394 10.1736965 1497.4828 3.1059995 3.2739685 2.6636016 8.132259 2.0386698
9.7852335 2.447242 2.6004634 4.841155 2.0865605 6.7388644 1.5148733 3.5997043
7.4696903 3.1918647 3.3787136 3.2366226 2.8576264 1.437388 3.9378035 1.9584435
3.0154927 2.474159 2.4055078 3.2014194 3.864809 295.97495 6066.1772 4.179298
5.732064 6.895708 5.500653 2.2656562 4.904857 3.0987482 0.875075 1.2307514
11.938858 5.8189335 1.1164318 6.383561 2.4015338 4.599677 5.1860123 2.6776297
5.3818874 1.9250388 1.6581653 3.3196259 13.5753355 2.9181807 5.1673584 1.8406729
3.4036393 1.0183426 2.6914656 2.010312 3.7280142 3.8556108 1.6973317 1.1484514
