intent_classifier/intent_classifier.model (torch, 26961 bytes, 8 tensors)

fc1.weight f4 [64, 64]
0	0x3e658649	0.22414507
1	0x3ec1cd24	0.37851822
2	0xbf5934db	-0.84846276
3	0x3e5f3388	0.21797001
4	0x3ea2bd04	0.31784832
5	0x3e92c7e4	0.2866813
6	0x3eefb13b	0.46814904
7	0x3f082be1	0.53191954
8	0x3dc1bca1	0.09459806
9	0x3eaa3f90	0.3325162
10	0x3ee4505a	0.44592553
11	0xbf1badbb	-0.60811967
12	0xbe81e657	-0.25371048
13	0x3e2b0abf	0.16703318
14	0x3e1fda5f	0.15610646
15	0xbea7496e	-0.3267321
16	0xbee2698f	-0.4422116
17	0xbe94f880	-0.2909584
18	0x3d6d4bc4	0.057933584
19	0xbd9e59e2	-0.077319875
20	0xbd842518	-0.064523876
21	0xbd05eea8	-0.032698303
22	0xbe2f0976	-0.17093453
23	0xbf6c9e8a	-0.9242941
24	0xbeb1745d	-0.3465909
25	0xbebd1a8d	-0.3693432
26	0x3c85af1e	0.016318854
27	0xbd936304	-0.0719662
28	0xbd59da83	-0.053186905
29	0x3e1c2301	0.15247728
30	0xbda6e46d	-0.081490375
31	0x3e0eb64d	0.1393673
32	0xbf78135b	-0.96904534
33	0x3dcdec95	0.1005489
34	0x3d8f1bb2	0.06987704
35	0xbf248565	-0.64266044
36	0x3ebdd989	0.3708003
37	0xbf4ee277	-0.8081431
38	0xbe987f3c	-0.29784572
39	0x3f07ddf7	0.53073066
40	0x3e59e025	0.2127691
41	0xbe82deed	-0.25560704
42	0x3e07e9fc	0.13272852
43	0x3ed1b7ae	0.4096045
44	0xbd3d35e9	-0.04619399
45	0xbeb30f1c	-0.34972465
46	0xbe18d2a9	-0.1492411
47	0xbe295457	-0.1653608
48	0xbecc3890	-0.39886904
49	0xbc89165f	-0.0167343
50	0x3f2d9bda	0.67815936
51	0x3f299356	0.6624044
52	0xbf6df3a2	-0.9294988
53	0x3f259f4e	0.64696205
54	0xbda5ee05	-0.08102039
55	0xbf3d9b8d	-0.74065477
56	0x3e766247	0.24060927
57	0x3e00a036	0.12561116
58	0x3efe6dac	0.49693048
59	0xbf03fd65	-0.51558524
60	0xbe396a95	-0.18107064
61	0xbea82a6c	-0.32844865
62	0x3eada5c7	0.3391554
63	0x3ec79a67	0.38984987
64	0xbeb7ed6a	-0.3592332
65	0x3eee2e1a	0.46519548
66	0xbe863ad7	-0.26216766
67	0xbe206476	-0.15663323
68	0x3d8c099c	0.0683777
69	0xbece233e	-0.40261263
70	0x3ea14b56	0.3150279
71	0x3f607aeb	0.8768756
72	0x3ee6b568	0.45060277
73	0x3e6d2ac1	0.2316084
74	0xbe9ea22c	-0.30983102
75	0xbd0c9414	-0.034320906
76	0x3e59c472	0.21266344
77	0xbf3caeb9	-0.73704106
78	0xbf5386b2	-0.82627404
79	0x3e62c0f9	0.22143926
80	0x3f4d164f	0.80112165
81	0x3f207ecf	0.62693495
82	0xbf2925d4	-0.66073346
83	0xbdd8bb24	-0.10582569
84	0x3eb55047	0.3541281
85	0xbe7505cb	-0.23927991
86	0xbda743bb	-0.081672154
87	0xbe69d722	-0.22835973
88	0xbea0a693	-0.31377086
89	0x3e2b8c15	0.16752656
90	0x3ec07174	0.37586558
91	0x3ea23f92	0.31689125
92	0x3d8f82f7	0.070074014
93	0x3e936010	0.28784227
94	0x3f46e8ff	0.77699274
95	0xbf06d170	-0.52663326
96	0x3dbf6dbb	0.09347101
97	0xbea8530b	-0.32875857
98	0xbf51a2fe	-0.8188933
99	0xbf29a03b	-0.6626012
100	0xbde39ef9	-0.11114306
101	0xbc7321d2	-0.014839606
102	0x3e0f8faf	0.14019655
103	0xbe685d3f	-0.2269182
104	0xbf6573a5	-0.89629585
105	0x3f150447	0.5820965
106	0xbf1ba819	-0.6080337
107	0x3f91c455	1.1388041
108	0xbf4d8f92	-0.80297196
109	0xbe9c7dfa	-0.30564862
110	0xbf233e7f	-0.63767236
111	0xbf58b602	-0.8465272
112	0xbecdcd75	-0.40195814
113	0x3cf217ce	0.029552367
114	0x3efd9fe9	0.49536064
115	0x3ebf9c67	0.37424013
116	0x3e937a46	0.28804225
117	0xbe42ca0b	-0.19022386
118	0xbd13c3de	-0.036075465
119	0xbec7b106	-0.39002246
120	0x3ef6132b	0.480615
121	0xbe10247e	-0.1407642
122	0xbe7e2aeb	-0.2482106
123	0xbce9546f	-0.028482644
124	0x3de99035	0.114044584
125	0x3e02e993	0.12784414
126	0xbf015127	-0.50514454
127	0x3f280642	0.6563455
128	0x3e89face	0.2694916
129	0xbe911a51	-0.2834039
130	0xbecf84c3	-0.40530977
131	0x3f795822	0.97400105
132	0xbef12ec4	-0.47105992
133	0x3edc44e1	0.430213
134	0xbf86bc68	-1.0526247
135	0x3f21d252	0.6321155
136	0x3f2138e0	0.6297741
137	0x3e84e01f	0.2595224
138	0xbe32184c	-0.17392081
139	0xbdf298b0	-0.11845529
140	0x3c89af9f	0.016807375
141	0x3f619dba	0.88131297
142	0xbf0ffaf0	-0.56242275
143	0x3d803c51	0.062615044
144	0x3d33e9cf	0.04392415
145	0xbdf9e419	-0.12201709
146	0xbea62115	-0.32447115
147	0xbe8529f7	-0.2600858
148	0x3eb4139f	0.3517122
149	0x3f81c29e	1.0137517
150	0xbf72ecc4	-0.94892526
151	0xbf36b159	-0.7136436
152	0xbe588410	-0.21144128
153	0xbf31bad6	-0.69425714
154	0xbec50816	-0.38482732
155	0xbea76ef8	-0.3270185
156	0x3f1d3ed8	0.61424017
157	0x3bd3cedb	0.006463868
158	0x3e74b0b0	0.23895526
159	0xbe11f6af	-0.14254259
160	0x3e046f9f	0.12933205
161	0x3d519924	0.051171437
162	0xbe60c1c7	-0.2194892
163	0xbf303d85	-0.6884387
164	0x3bb53d90	0.0055310205
165	0x3e01c5be	0.12673089
166	0x3f15f5d3	0.58578223
167	0xbf955b7a	-1.1668541
168	0x3f181014	0.59399533
169	0x3f362d29	0.7116266
170	0x3e035006	0.12823495
171	0xbdffecc7	-0.124963336
172	0x3ec831ff	0.39100644
173	0x3e8f618b	0.28004107
174	0x3f2ba620	0.6705036
175	0xbeb0bc39	-0.34518602
176	0xbd3fd9da	-0.04683862
177	0xbe2eeb72	-0.17082003
178	0x3e1196d2	0.1421769
179	0xbf13d753	-0.57750434
180	0xbf1b8798	-0.60753775
181	0x3ec06105	0.3757402
182	0xbe1ae72c	-0.15127248
183	0x3f49900d	0.7873543
184	0xbedc7706	-0.43059558
185	0xbe049837	-0.1294869
186	0xbf89d099	-1.0766784
187	0xbebf5168	-0.37366796
188	0xbe915961	-0.28388503
189	0x3e9fff0d	0.31249276
190	0x3d97c884	0.07411292
191	0x3ef1d118	0.47229838
192	0x3ea45b95	0.32101122
193	0x3bcf3f7c	0.0063247066
194	0xbe8c8cfe	-0.27451319
195	0xbf24059c	-0.6407106
196	0xbe95b2af	-0.29237887
197	0xbee998f3	-0.45624503
198	0x3e80b757	0.25139877
199	0xbc30aa76	-0.010782829
200	0x3e49f269	0.19721378
201	0x3e9f8ef4	0.31163752
202	0x3f7c5515	0.98567325
203	0x3ebabac2	0.3647061
204	0x3e1c4e67	0.15264283
205	0xbded31e3	-0.11581781
206	0x3e5fffef	0.21874975
207	0x3f8225be	1.0167768
208	0x3eb06de5	0.34458843
209	0xbe574b97	-0.21024929
210	0xbebba8ee	-0.3665232
211	0xbf9f2119	-1.2431976
212	0xbe990e61	-0.29893783
213	0xbec3ebfc	-0.3826598
214	0x3e7e8be0	0.24858046
215	0xbd48b786	-0.049003147
216	0xbf5ac0df	-0.8545055
217	0xbeacd462	-0.33755785
218	0x3e78662b	0.24257724
219	0x3e981087	0.2970011
220	0x3db0bd04	0.08629802
221	0x3b301f8c	0.0026874272
222	0xbde43016	-0.11141984
223	0x3f1ce75c	0.61290526
224	0xbf6a75f0	-0.9158621
225	0x3c769e04	0.015052322
226	0x3ecdc137	0.40186474
227	0xbe069408	-0.13142407
228	0xbec32696	-0.38115376
229	0xbe4ba741	-0.19888021
230	0xbea300b2	-0.31836468
231	0xbeacfb71	-0.33785585
232	0xbe8cf757	-0.27532455
233	0xbf1f586a	-0.62244284
234	0x3e84fac2	0.25972563
235	0x3eb393c0	0.35073662
236	0xbed1bf16	-0.409661
237	0xbe6286a9	-0.22121681
238	0x3c5eea2c	0.013605636
239	0xbee4f2c1	-0.44716457
240	0x3e265578	0.16243541
241	0x3c3c8c31	0.011508034
242	0x3f4d50c2	0.8020135
243	0x3ed55653	0.41667423
244	0x3ede2979	0.43391016
245	0x3dccbe4a	0.09997232
246	0xbf265bab	-0.64983624
247	0xbe28f9e8	-0.16501582
248	0xbd931016	-0.071808025
249	0x3d4d1138	0.05006525
250	0x3da75078	0.08169645
251	0xbe4000be	-0.18750283
252	0xbf0fa48d	-0.5611046
253	0x3e65c1d9	0.22437228
254	0xbf2d575a	-0.6771141
255	0xbf1ca88d	-0.6119469

fc1.bias f4 [64]
0	0x3db1849b	0.086678706
1	0xbd8b7457	-0.068092994
2	0xbde06e0b	-0.10958489
3	0x3dfba7d0	0.12287867
4	0x3cef7d7b	0.029234638
5	0x3dcdfa34	0.10057488
6	0x3c04fa11	0.008116261
7	0x3dea48fd	0.11439703
8	0xbb7e5cf0	-0.003881272
9	0xbd4ba64d	-0.049719144
10	0x3d77f05a	0.06053195
11	0x3cc16eae	0.023612347
12	0xbd44a349	-0.048007283
13	0xbce65ad1	-0.028119477
14	0x3d683dae	0.056699447
15	0x3db01cb4	0.08599225
16	0xbdc7d996	-0.09758298
17	0xbdb065ce	-0.08613168
18	0x3da1bb3a	0.07897039
19	0x3db80560	0.089854
20	0xbc8bbbab	-0.01705726
21	0xbd3d84df	-0.046269294
22	0x3d307074	0.043075994
23	0x3dcf3f67	0.10119515
24	0xbda7c39e	-0.08191608
25	0x3cf3eac4	0.02977503
26	0x3d8e2480	0.069405556
27	0x3d0f6a33	0.03501339
28	0x3defccde	0.11708997
29	0xbdee559a	-0.11637421
30	0x3d92d6bc	0.071698636
31	0xbc3cc182	-0.011520745
32	0xbd7ccb0f	-0.06171709
33	0x3cf1d932	0.029522512
34	0xbce9cbf7	-0.02853964
35	0x3de15381	0.11002255
36	0xbdb4955f	-0.08817553
37	0x3c8892ee	0.016671624
38	0xbd3c691a	-0.04599867
39	0x3d8afcf3	0.067865275
40	0x3dc24b01	0.09486962
41	0x3dae3d12	0.08507742
42	0x3d24f767	0.040275004
43	0xbdebee36	-0.115200445
44	0x3c8a7f2e	0.016906347
45	0xbd9065b4	-0.07050648
46	0x3d1fbc4e	0.03899794
47	0x3c8f6450	0.017503887
48	0xbdd789ac	-0.10524306
49	0xbdb66418	-0.0890581
50	0xbd81471c	-0.06312391
51	0xbde28c99	-0.11061973
52	0xbd46fbf3	-0.04858012
53	0xbd419157	-0.047257748
54	0x3d8fa437	0.07013743
55	0x3d7548ee	0.059884004
56	0xbdc0225b	-0.09381553
57	0xbc8abe65	-0.01693649
58	0x3cf365f9	0.02971171
59	0xbd02a32c	-0.031893894
60	0x3cf7533f	0.030191062
61	0xbc34aafe	-0.011027096
62	0xbde2497a	-0.11049171
63	0x3dd4b1ef	0.10385501

fc2.weight f4 [24, 64]
0	0x3eb1be2b	0.347154
1	0x3fb7cbdd	1.4359089
2	0x3f092b7c	0.53581977
3	0x3f6d1cc4	0.9262202
4	0x3d2a0a26	0.041513585
5	0xbfeb1753	-1.8366493
6	0x3f9a5c78	1.2059469
7	0x3f276427	0.65387195
8	0x3fb24754	1.3928018
9	0x3f0d33ff	0.55157465
10	0x3f450f4c	0.76976466
11	0x3f92d404	1.1470952
12	0xbe1c983a	-0.15292445
13	0x3dcaeeb8	0.09908813
14	0xbe02cb7e	-0.12772939
15	0x3e26759d	0.16255803
16	0x3ef0f498	0.4706161
17	0x3f953de4	1.1659513
18	0x3f2f6a47	0.6852154
19	0x3f279ce1	0.65473753
20	0x3fa74b03	1.3069767
21	0x3ed07328	0.40712857
22	0xbe9966ee	-0.29961342
23	0x3f163297	0.58670944
24	0x3e6024bc	0.21889013
25	0x3f6cb7c0	0.9246788
26	0x3ed1f100	0.4100418
27	0x3ca61232	0.020272348
28	0xbf833967	-1.0251893
29	0x3eedca33	0.46443328
30	0x3e2b55c5	0.16731937
31	0xbe8cb4fd	-0.27481833
32	0x3fac9c87	1.3485268
33	0x3ea6393e	0.32465547
34	0x3c3e8974	0.011629451
35	0x3eb53059	0.3538845
36	0x3fd557e2	1.6667445
37	0x3faa2319	1.3291961
38	0x3e6ab5ab	0.22920863
39	0x3f3b0f31	0.73070055
40	0x3f348b22	0.705248
41	0x3f3453c8	0.7044034
42	0x3fcf6c63	1.6204952
43	0xbdfc21aa	-0.123111084
44	0x3f1a9654	0.6038563
45	0x3f415469	0.75519425
46	0x3eb879b2	0.36030346
47	0x3eaa8e2d	0.33311597
48	0x3dac5f1d	0.08416579
49	0x3fe371a6	1.7769058
50	0x3fcc12eb	1.5943273
51	0x3fd05949	1.6277248
52	0x3ed0feb2	0.40819317
53	0x3f814aa1	1.01009
54	0x3f13c66d	0.5772465
55	0x3ef91647	0.4864981
56	0xbe325643	-0.17415719
57	0x3e87d095	0.26526323
58	0x3f4a271f	0.78965944
59	0x3da0e253	0.07855668
60	0x3e8745c5	0.26420417
61	0x3fcfc180	1.6230927
62	0x3f865298	1.0493956
63	0x3fc164e7	1.5108918
64	0xbedd31cb	-0.43202052
65	0x3eab782e	0.33490127
66	0x3fb089b6	1.3792026
67	0xbef6b2b7	-0.48183224
68	0xbec5debc	-0.38646495
69	0x3ee19986	0.44062442
70	0x3e7da2cf	0.24769138
71	0x3fa3ce18	1.279727
72	0xbe88f3ea	-0.26748592
73	0xbe9e0768	-0.30865026
74	0x3da8f350	0.08249533
75	0xbf0ce9fd	-0.5504454
76	0x3f9afd66	1.2108581
77	0xbed5994a	-0.41718513
78	0x3ecdb031	0.40173486
79	0xbeb81f9d	-0.3596162
80	0x3db32a0f	0.087482564
81	0x3edb4cc0	0.42831993
82	0xbf8f1590	-1.1178455
83	0xbe9bc92e	-0.30426925
84	0xbec11843	-0.37713823
85	0xbe2e1ec8	-0.1700393
86	0xbe420448	-0.18946946
87	0xbe8c84b9	-0.2744501
88	0xbf0eaaa8	-0.5572915
89	0xbd79bc4f	-0.0609706
90	0xbf203a35	-0.62588817
91	0x3f198c14	0.5997937
92	0xbeac5b46	-0.33663386
93	0xbf2827dd	-0.65685827
94	0x3e4c3bdd	0.19944711
95	0xbf020ba4	-0.5079901
96	0x3ee88e83	0.45421228
97	0xbf45d13d	-0.772724
98	0xbe693371	-0.2277353
99	0x3e4937b7	0.1965016
100	0xbe424e1f	-0.18975113
101	0xbe12ea48	-0.14347184
102	0xbeda1eae	-0.42601532
103	0xbf808f91	-1.0043813
104	0x3e138885	0.14407547
105	0xbdda3e6d	-0.10656438
106	0x3eda5042	0.42639357
107	0x3fbcc4f0	1.47476
108	0xbe1a8f44	-0.15093714
109	0xbdc0b392	-0.0940925
110	0xbdf926b5	-0.12165586
111	0xbf3c80e8	-0.73634195
112	0x3f284e77	0.6574473
113	0x3e6e808a	0.23291221
114	0x3ddba948	0.10725647
115	0x3f077402	0.5291139
116	0xbd697c30	-0.0570032
117	0x3fc6e23d	1.5537792
118	0xbf4de0f0	-0.8042135
119	0xbc673a9a	-0.014113093
120	0x3f56b7f9	0.8387447
121	0xbe812d20	-0.2522974
122	0x3f9832be	1.1890485
123	0xbee73627	-0.45158502
124	0xbda13659	-0.07871694
125	0xbe8d9f0b	-0.27660403
126	0xbeb2e967	-0.34943697
127	0x3e49a13f	0.19690417
128	0xbb39cccf	-0.0028350835
129	0xbed602f0	-0.41799116
130	0x3fd3680c	1.6516128
131	0xbf1799c6	-0.59219015
132	0xbf52eea2	-0.82395375
133	0x3e741ad5	0.2383836
134	0x3eb9194b	0.3615211
135	0xbf009063	-0.50220317
136	0xbf000e40	-0.50021744
137	0x3f11a21c	0.56887984
138	0xbf13c109	-0.57716423
139	0xbf0d7588	-0.55257463
140	0xbd378d3f	-0.044812437
141	0x3c03ac1e	0.008036641
142	0xbd7427d1	-0.059608284
143	0x3fbe8a9a	1.4886048
144	0xbc9f2819	-0.0194283
145	0xbe604d5f	-0.21904515
146	0x3f3cf410	0.7380991
147	0xbf13718d	-0.5759514
148	0x3e8077c8	0.25091386
149	0xbed0d2fe	-0.40785974
150	0xbeb95a11	-0.36201528
151	0x3d35f17d	0.044419754
152	0x3fcee5e8	1.6163912
153	0xbeae2232	-0.34010464
154	0x3f5acfa1	0.85473067
155	0x3efe23f6	0.4963681
156	0xbf34c8d9	-0.7061897
157	0x3dec2167	0.115298085
158	0x3d47d8fe	0.048790924
159	0x3e8e783c	0.27826107
160	0x3ebd5a95	0.3698317
161	0x3f8abcc9	1.0838863
162	0x3ec5eccd	0.38657227
163	0xbf0cab13	-0.5494854
164	0x3d9edf00	0.077573776
165	0xbf0bd7e5	-0.54626304
166	0xbd037967	-0.0320982
167	0xbf2e8062	-0.68164647
168	0x3e78e780	0.2430706
169	0xbebf91ce	-0.37415928
170	0x3e2c9b90	0.16856217
171	0xbf88ca37	-1.0686711
172	0xbf5e5e74	-0.86862874
173	0xbf98c848	-1.1936121
174	0xbe547378	-0.20747173
175	0x3f8dc05a	1.1074326
176	0xbe7c6854	-0.24649173
177	0xbe3bb33b	-0.1833009
178	0xbea6b5cd	-0.32560578
179	0xbee16cc8	-0.44028306
180	0xbdf51cb2	-0.11968364
181	0xbe5cbbd5	-0.21556027
182	0xbeccb350	-0.39980555
183	0xbe273ccf	-0.1633179
184	0xbfd95a24	-1.6980634
185	0xbf55e40b	-0.8355109
186	0xbf79aa38	-0.9752536
187	0xbf5cf522	-0.86311543
188	0xbe104d28	-0.14091933
189	0xbe82ba69	-0.25532845
190	0xbf210afe	-0.629074
191	0x3e39951b	0.18123285
192	0x3e83dd40	0.25754738
193	0x3f089d91	0.5336543
194	0x3f7f0260	0.99613
195	0x3ecc89d8	0.39948916
196	0x3e21b75b	0.15792601
197	0x3debcff2	0.11514272
198	0x3b2864a4	0.0025694752
199	0x3fe1b71a	1.7634003
200	0xbeb227dd	-0.34796038
201	0x3f291f27	0.6606316
202	0xbf0c7c72	-0.5487739
203	0xbdab6ac7	-0.083699755
204	0xbf17e341	-0.59331137
205	0xbe410773	-0.18850498
206	0x3f7adff3	0.9799797
207	0x3f871d48	1.0555811
208	0xbeabe76a	-0.33574992
209	0xbdcb0cb4	-0.09914532
210	0x3e18f48a	0.14937034
211	0x3db62631	0.08894003
212	0xbe6d4daf	-0.23174165
213	0xbf7a2ee8	-0.97727823
214	0xbf998f53	-1.1996864
215	0x3eed066a	0.46293956
216	0x3d2232d2	0.039599247
217	0xbcabcf17	-0.020972772
218	0x3f22903d	0.6350134
219	0x3efb471f	0.490777
220	0xbe355d34	-0.17711335
221	0x3fe91528	1.8209581
222	0x3e5912de	0.21198604
223	0xbf08c87b	-0.5343091
224	0x3dca06d2	0.09864582
225	0xbfb3b82b	-1.4040579
226	0xbf57697a	-0.8414532
227	0xbeb9e5e5	-0.36308208
228	0xbe8b8b3d	-0.27254668
229	0xbecc2844	-0.3987447
230	0x3f596169	0.8491426
231	0xbfb0e788	-1.3820658
232	0xbf315f28	-0.6928582
233	0xbf63f92f	-0.890521
234	0x3e02ccfb	0.12773506
235	0x3f3916a7	0.7230019
236	0xbf371dd5	-0.71529895
237	0xbe7fb32a	-0.2497069
238	0x3eeb00b9	0.4589899
239	0x3fa14544	1.2599263
240	0x3dfad717	0.122480564
241	0xbcfa988c	-0.030590318
242	0xbe971a71	-0.2951236
243	0xbf0ebe72	-0.55759346
244	0xbe1c1918	-0.15243948
245	0xbed6bac9	-0.4193938
246	0xbf7c3b38	-0.9852786
247	0x3eb1d7a4	0.34734833
248	0x3f268928	0.65053034
249	0xbde3dc74	-0.111260325
250	0xbf22d41b	-0.636049
251	0xbf0f61fb	-0.5600888
252	0xbf0137e2	-0.50475895
253	0x3eaa1369	0.33217934
254	0xbf01d91e	-0.5072192
255	0xbf0e38d0	-0.5555544

fc2.bias f4 [24]
0	0x3fa96c11	1.3236104
1	0xbe9ab4b2	-0.30215985
2	0x3e2d2f8f	0.16912673
3	0x3defcc95	0.11708943
4	0xbe9bf4ce	-0.3046021
5	0xbebdf316	-0.37099522
6	0x3df8bac9	0.121450014
7	0x3fa58172	1.2930129
8	0xbe50106c	-0.20318764
9	0xbe7dc295	-0.24781258
10	0xbf2b26ce	-0.66856086
11	0x3ec4e731	0.38457635
12	0xbf010319	-0.5039535
13	0xbed1196f	-0.40839717
14	0x3d572446	0.052524827
15	0xbee9f60a	-0.45695525
16	0x3e9cc049	0.30615452
17	0xbde446e1	-0.111463316
18	0xbe21043d	-0.15724273
19	0xbe96a064	-0.29419243
20	0x3eb3c1d0	0.35108805
21	0xbf43b4a2	-0.764475
22	0xbeda90b1	-0.42688516
23	0x3f34f342	0.7068368

bn1.weight f4 [64]
0	0x400050e9	2.0049384
1	0x4017378b	2.362765
2	0x403331c2	2.799912
3	0x4015ddf1	2.3416712
4	0x400a81c2	2.1641698
5	0x4015fea9	2.3436682
6	0x3fee7803	1.8630375
7	0x404cc373	3.1994293
8	0x401a8368	2.4142704
9	0x3fbe17ed	1.4851052
10	0x401400d0	2.3125496
11	0x401ce336	2.4513679
12	0x4032bfc9	2.7929556
13	0x4017e3ec	2.3732862
14	0x3ff10bdf	1.8831748
15	0x400aec32	2.1706662
16	0x401776ac	2.3666182
17	0x4000463a	2.0042863
18	0x3f9df978	1.2341757
19	0x3faf5db5	1.3700472
20	0x4013a8c5	2.3071759
21	0x3ffa170b	1.9538282
22	0x402e5db7	2.72447
23	0x3f95a2ec	1.1690345
24	0x4008fd90	2.1404762
25	0x3fd93531	1.6969358
26	0x3fc6ba59	1.5525619
27	0x3ffd8975	1.9807574
28	0x3ff6bbdc	1.927608
29	0x4023f527	2.561838
30	0x3f49f309	0.7888647
31	0x401d2aa0	2.4557266
32	0x400817b6	2.1264472
33	0x400b4612	2.1761518
34	0x401b1264	2.4229975
35	0x40070f66	2.1103148
36	0x400f9b55	2.2438557
37	0x4008ac7c	2.1355276
38	0x3fd966b0	1.6984463
39	0x3fe50326	1.7891586
40	0x400c9e72	2.1971707
41	0x3fc4ca6e	1.5374277
42	0x401ddbff	2.4665525
43	0x402635c3	2.5970314
44	0x3fdd991b	1.7312349
45	0x3f9c7aec	1.2225013
46	0x3fe0c981	1.7561494
47	0x4020ce89	2.512606
48	0x401253c3	2.2863624
49	0x401612e2	2.3449025
50	0x400e3d2b	2.2224834
51	0x4012f1a9	2.2959998
52	0x40430918	3.04743
53	0x4011f7af	2.2807424
54	0x3fb46470	1.4093151
55	0x401c171a	2.43891
56	0x404123dc	3.0178137
57	0x3ffa1de3	1.9540371
58	0x403e631d	2.9747994
59	0x4024c4d0	2.5745125
60	0x4042245a	3.0334687
61	0x4010645f	2.2561262
62	0x40303da0	2.7537613
63	0x4023330b	2.5499904

bn1.bias f4 [64]
0	0xbd74a00f	-0.059722956
1	0x3f2c3ce2	0.672804
2	0xbe353dfd	-0.17699428
3	0x3f34028d	0.7031639
4	0x3fae8a5c	1.3635974
5	0x3fab415f	1.3379325
6	0xbeb4e95e	-0.35334295
7	0x3dea1eda	0.11431666
8	0x3f869ea4	1.0517163
9	0x3e999621	0.29997352
10	0x3e43a3c5	0.19105442
11	0x3f6f6ec2	0.9352838
12	0x3e138dd8	0.14409578
13	0xbe5413ad	-0.2071063
14	0xbdc2b7dc	-0.09507725
15	0x3e075b02	0.1321831
16	0x3ecb3e67	0.39696047
17	0x3f5c7d05	0.86128265
18	0x3e8e2ee9	0.27770165
19	0xbe99c7d4	-0.3003527
20	0x3f2e9077	0.68189186
21	0xbea48350	-0.32131433
22	0x3f5d3651	0.86411005
23	0xbe9a127a	-0.30092221
24	0x3d44deab	0.048063915
25	0x3e36c44b	0.17848317
26	0xbd35a043	-0.04434229
27	0x3e5c8cc2	0.2153807
28	0xbeec635b	-0.46169552
29	0x3e9c6007	0.30542013
30	0xbe975999	-0.29560545
31	0x3f31f4e8	0.6951432
32	0x3f7c72df	0.9861278
33	0xbebd8d01	-0.3702164
34	0xbf0b8f70	-0.54515743
35	0xbdd19aa3	-0.10234573
36	0xbe8f4639	-0.27983263
37	0x3f84dd46	1.0380027
38	0xbeb27691	-0.34856084
39	0x3dfb3efe	0.12267874
40	0xbd78ee62	-0.060774215
41	0xbeed0d49	-0.46299198
42	0x3f5bf577	0.85921425
43	0x3de357c1	0.11100722
44	0xbf54c8ab	-0.83118695
45	0xbd818013	-0.06323256
46	0xbf487bde	-0.78314006
47	0xbe8ebc69	-0.2787812
48	0x3dea093c	0.114275426
49	0x3e4b4b11	0.19852854
50	0x3e592b5c	0.21207947
51	0x3e1ad967	0.15121995
52	0x3f6389d5	0.8888219
53	0x3fa15d45	1.2606589
54	0x3d843542	0.064554706
55	0xbcadf60b	-0.021235486
56	0x3eb8ce70	0.36095
57	0x3f0bdbfc	0.54632545
58	0x3eaa14cc	0.33218992
59	0x3e5bcf11	0.21465708
60	0xbd9862a7	-0.074406914
61	0x3f46ef8a	0.7770926
62	0x3e71c7ee	0.23611423
63	0x3e465f7f	0.19372366

bn1.running_mean f4 [64]
0	0x3e4f4fbd	0.20245261
1	0x3fcce0c3	1.6006092
2	0xbca20c8a	-0.01978137
3	0x3fbdf55c	1.4840503
4	0x402bcdd0	2.6844368
5	0x4093e62d	4.6218476
6	0xbe80a968	-0.25129247
7	0x3f8f88cf	1.1213626
8	0x400dafa5	2.2138455
9	0x3bfb134e	0.0076622134
10	0x3f4d7370	0.8025427
11	0x3fe70f7e	1.8051603
12	0x3f2f7013	0.68530387
13	0x3f0d6de4	0.55245805
14	0x3f37b788	0.7176442
15	0x3efebc5d	0.49753085
16	0x3fa25430	1.2681942
17	0x400d04aa	2.2034097
18	0xbed3207b	-0.41235718
19	0xbfa516c5	-1.2897574
20	0x4004cf9d	2.0751717
21	0x3d768a94	0.060190752
22	0x400094dc	2.0090857
23	0xc02c9590	-2.6966286
24	0x3eadb13e	0.33924288
25	0x3faaa054	1.3330178
26	0xbe430c75	-0.1904772
27	0x3f5c1bb8	0.85979795
28	0x3ea63e23	0.32469282
29	0x3f6c112d	0.9221371
30	0xbf7fbbed	-0.99896127
31	0x4013c8b0	2.309124
32	0x40111f38	2.2675304
33	0x3ebd0159	0.3691509
34	0x3e73b3de	0.23799083
35	0x3f6bc82b	0.9210231
36	0x3f170419	0.5899063
37	0x402777a1	2.6166766
38	0xbfc6ee76	-1.5541523
39	0xbfa4e851	-1.2883397
40	0x3f5d192b	0.8636653
41	0xc01a6c6b	-2.4128673
42	0x40296432	2.6467404
43	0x3f28e3ae	0.6597241
44	0xc033cac9	-2.809252
45	0xbfbae0cb	-1.4599851
46	0xc003d8ef	-2.0601156
47	0x3f164f0b	0.5871436
48	0x3fdef673	1.741896
49	0x3fa2b65e	1.2711904
50	0x3f6bf1b5	0.9216569
51	0x3ff0b772	1.8805983
52	0x400d11a9	2.204203
53	0x40274827	2.6137788
54	0xbf838721	-1.0275613
55	0x3f698323	0.91215724
56	0x3fb557bf	1.4167403
57	0x40046e71	2.0692408
58	0x3fc75276	1.557204
59	0x3fabfed1	1.3437139
60	0x3f91fbcf	1.1404971
61	0x3ff6e97b	1.9290003
62	0x3fe73dc4	1.8065724
63	0x3ffedac8	1.9910517

bn1.running_var f4 [64]
0	0x40ce5069	6.4473157
1	0x410ee8b0	8.931808
2	0x41168165	9.40659
3	0x4106dbed	8.428693
4	0x413d6d56	11.839193
5	0x41718752	15.095537
6	0x40f1deff	7.558471
7	0x40f0fb92	7.5307093
8	0x412bdeea	10.741922
9	0x40b43488	5.6314125
10	0x40b656d9	5.6981015
11	0x40f47321	7.639054
12	0x40e289c8	7.079319
13	0x4096417b	4.695493
14	0x409b53ae	4.853965
15	0x40a325bc	5.0983562
16	0x40b799e5	5.737536
17	0x4128aca6	10.5421505
18	0x40d19cbe	6.5503836
19	0x40a2eef7	5.0916705
20	0x411cec05	9.807622
21	0x40504e3e	3.2547755
22	0x40f707cc	7.719702
23	0x411264ef	9.149642
24	0x409eb715	4.959849
25	0x40866611	4.1999593
26	0x40ab8f22	5.3612223
27	0x4099ddef	4.8083415
28	0x410831d7	8.512168
29	0x40cc98b6	6.3936415
30	0x4028b32f	2.6359365
31	0x41021493	8.130023
32	0x40fc0a74	7.876276
33	0x40fb4851	7.8525777
34	0x4077b932	3.8706784
35	0x40671f53	3.6112869
36	0x41244ac1	10.26825
37	0x40e0a787	7.02045
38	0x40e9e21a	7.3088503
39	0x40cc3f46	6.382724
40	0x40daad6e	6.8336706
41	0x411de151	9.867509
42	0x414dd667	12.864844
43	0x40b8f7c2	5.780244
44	0x4114a795	9.290914
45	0x40d713ce	6.7211676
46	0x40e270e0	7.0762787
47	0x40bade2a	5.8396196
48	0x40baf350	5.842201
49	0x4126cd66	10.425146
50	0x413b8f25	11.722447
51	0x40f69d3c	7.7066936
52	0x41547093	13.277484
53	0x411160ba	9.086115
54	0x40fc8361	7.8910375
55	0x408437db	4.1318183
56	0x411649c9	9.393014
57	0x40ba18bb	5.815519
58	0x411e93d0	9.911087
59	0x40dc3932	6.881982
60	0x41104a87	9.018195
61	0x411b88df	9.720916
62	0x40f3c26d	7.6174836
63	0x410fe941	8.994447
