intent_classifier/intent_classifier.model (torch, 31250 bytes, 8 tensors)

fc1.weight f4 [64, 100]
0.07713164 0.03811604 0.15642913 0.13392784 -0.010587873 -0.06457059 0.066117376 -0.0012087092
-0.23124482 -0.23784372 0.039994888 0.08085518 -0.10750146 -0.11402913 0.034914687 0.024312336
-0.07682574 -0.115993775 0.06625794 0.016132133 -0.27569902 -0.15244825 -0.26195788 0.03573349
-0.14384246 -0.09332647 0.009346878 -0.15255603 -0.031186828 0.12714462 0.14669657 -0.014290026
0.011652572 0.1964206 -0.28676352 0.040199503 -0.015336538 0.05531004 0.12647934 -0.007890161
0.28730345 -0.0012743594 0.2859407 0.031140655 0.064226046 -0.03346646 -0.08792599 0.04759505
-0.08617799 0.19420561 -0.099560484 -0.008155624 -0.07496252 -0.093410455 -0.053428274 0.036125757
-0.11248195 0.09732768 -0.26877317 0.04547242 -0.059150912 -0.20641723 -0.16641857 -0.03204533
0.1386014 -0.23649286 0.07530815 0.17766413 -0.046339903 0.1361269 -0.010524615 -0.04754156
-0.09131322 0.16018076 0.080583364 -0.43412355 -0.29397357 0.020152055 -0.35497037 0.13885634
-0.07722807 0.22171995 0.003307381 -0.043921616 -0.07833455 -0.22603959 0.2331249 -0.25898218
-0.047386818 -0.04071898 -0.24127737 0.012972179 0.063713774 0.023115722 -0.031119684 -0.07233473
0.25632927 0.279995 0.06735799 -0.00966725 0.1336559 -0.25723004 -0.14599575 -0.08141596
-0.30930048 0.1651083 -0.23908876 -0.13520998 0.013307809 -0.055855177 -0.03159051 0.25781295
0.06114433 -0.0073178625 -0.14113367 -0.10337075 0.17202902 0.041163623 -0.059392642 -0.033787757
0.1342586 0.2988654 0.011816482 0.2441257 -0.21943013 -0.58524567 0.2279267 -0.23729596
0.22040094 -0.026183775 0.09283205 -0.38496056 0.12100094 0.42526278 -0.48421296 0.02432378
-0.013224193 0.042308707 -0.40168878 -0.053361338 0.074951954 -0.16878137 0.026848786 0.09839891
0.2941241 -0.08791809 0.035645943 0.1562666 0.21844055 -0.09389198 -0.040632896 -0.117727496
0.03033288 -0.16299516 -0.15993756 0.2793479 -0.11146386 0.26311275 0.19052376 0.12500495
-0.0331895 0.29379636 -0.2078915 0.3471977 -0.25392216 -0.056958586 0.03976844 -0.038166963
-0.42005378 0.22070763 0.29634234 0.09842457 0.32667312 -0.17949168 -0.09706875 -0.056702472
0.009394343 -0.016151015 -0.008901519 0.12610364 -0.08194263 -0.16130416 -0.34948516 -0.15346761
-0.2274987 -0.027499279 -0.173178 -0.14510404 -0.0095933955 0.14374742 0.3682356 0.30633816
-0.25021774 0.09701283 0.21410748 -0.072560176 0.095042855 -0.1678937 -0.36059132 -0.06964403
-0.10722717 0.36552763 -0.14515291 -0.10358167 0.32498887 -0.16887468 0.06731055 -0.060288604
0.011903949 0.33314902 -0.118358806 0.08193731 0.14049222 -0.05377378 0.21136077 -0.06518985
0.034382988 0.18305337 0.18587881 -0.14584547 0.1529749 0.023096614 0.0721191 0.063952304
-0.13671397 -0.09118554 -0.08765619 0.29008687 0.010618427 -0.12179313 -0.10665164 -0.10714095
0.080272414 0.32309592 0.27460256 -0.067862816 0.08284344 0.0745057 -0.35502544 0.096755475
-0.31600848 0.31122983 0.049194343 0.07577589 0.21620888 0.09221342 0.064366125 0.24179561
0.0011554114 -0.069372304 -0.13603462 -0.08273089 -0.10972508 -0.3193697 -0.069112726 -0.106351376
00000000: 31f7 9d3d 911f 1c3d f52e 203e 6124 093e
00000010: c278 2dbc 963d 84bd 8c68 873d 8d6d 9eba
00000020: 71cb 6cbe 4e8d 73be aed1 233d 6797 a53d
00000030: ba29 dcbd 1b88 e9bd b402 0f3d aa2a c73c
00000040: d056 9dbd 258e edbd 3eb2 873d 8927 843c
00000050: 6c28 8dbe 651b 1cbe 581f 86be 485d 123d
00000060: 704b 13be f321 bfbd a623 193c a637 1cbe
00000070: 857b ffbc 3332 023e a037 163e b720 6abc
00000080: 6eea 3e3c 7b22 493e abd2 92be 3ca8 243d
00000090: 1a46 7bbc c88c 623d cd83 013e bc45 01bc
000000a0: 7019 933e 6808 a7ba d266 923e b01a ff3c
000000b0: f288 833d 2014 09bd 8b12 b4bd 07f3 423d
000000c0: 167e b0bd d6dd 463e 5ee6 cbbd 2b9f 05bc
000000d0: f385 99bd fb4d bfbd 9bd7 5abd 9af8 133d
000000e0: f05c e6bd bc53 c73d a39c 89be 4a41 3a3d
000000f0: 3a48 72bd 0a5f 53be a169 2abe f741 03bd
00000100: 87ed 0d3e 2f2b 72be 293b 9a3d 96ed 353e
00000110: e9ce 3dbd da64 0b3e 6f6f 2cbc f0ba 42bd
00000120: 6d02 bbbd 6d06 243e e408 a53d 7145 debe
00000130: b483 96be ec15 a53c adbe b5be 5b30 0e3e
00000140: c029 9ebd 8e0a 633e a5c0 583b 27e7 33bd
00000150: dd6d a0bd ec76 67be 4bb8 6e3e 5099 84be
00000160: ae18 42bd f2c8 26bd 6a11 77be 4389 543c
00000170: 5e7c 823d 2f5d bd3c b5ee febc 3b24 94bd
00000180: 973d 833e 815b 8f3e fcf2 893d 6363 1ebc
00000190: 18dd 083e a8b3 83be e97f 15be 69bd a6bd
000001a0: a25c 9ebe 2612 293e afd3 74be 7c74 0abe
000001b0: ff08 5a3c 66c8 64bd 0d65 01bd 0f00 843e
000001c0: 7a72 7a3d aeca efbb 5885 10be 0bb4 d3bd
000001d0: 6028 303e 309b 283d b345 73bd 0865 0abd
000001e0: 167b 093e e304 993e eb99 413c 16fc 793e
000001f0: 4bb2 60be a9d2 15bf 9e65 693e b6fd 72be
00000200: c9b0 613e 5b7f d6bc bb1e be3d 8d19 c5be
00000210: 57cf f73d 0bbc d93e c3ea f7be aa42 c73c
00000220: 49aa 58bc e54b 2d3d 27aa cdbe 6b91 5abd
00000230: 6980 993d 06d5 2cbe fcf1 db3c 5e85 c93d
00000240: 6f97 963e 660e b4bd 7b01 123d 5a04 203e
00000250: e1ae 5f3e 704a c0bd ae6e 26bd 1d1b f1bd
00000260: a97c f83c 34e8 26be acc6 23be b006 8f3e
00000270: 2a47 e4bd b7b6 863e a918 433e 4c01 003e
00000280: b7f1 07bd 7a6c 963e 82e1 54be e6c3 b13e
00000290: 1602 82be 684d 69bd 3be4 223d f654 1cbd
000002a0: 4a11 d7be 2e01 623e 2fba 973e d292 c93d
000002b0: b341 a73e abcc 37be fbcb c6bd da40 68bd
000002c0: bbea 193c 224f 84bc add7 11bc 5021 013e
000002d0: 8ad1 a7bd eb2c 25be b8ef b2be 9d26 1dbe
000002e0: 6bf5 68be 2b46 e1bc 9355 31be 2796 14be
000002f0: 9e2d 1dbc 8632 133e 6089 bc3e 5bd8 9c3e
00000300: 8a1c 80be aaae c63d fe3e 5b3e 6e9a 94bd
00000310: d4a5 c23d 53ec 2bbe 6d9f b8be 87a1 8ebd
00000320: eb99 dbbd 7026 bb3e f7a2 14be a022 d4bd
00000330: f164 a63e 7ced 2cbe 1dda 893d 2ff1 76bd
00000340: c808 433c 8292 aa3e 1a66 f2bd c0ce a73d
00000350: 31dd 0f3e e541 5cbd f56e 583e 4282 85bd
00000360: 2dd5 0c3d 5872 3b3e 0457 3e3e 8458 15be
00000370: 74a5 1c3e 1c35 bd3c 2eb3 933d 6df9 823d
00000380: bffe 0bbe 7cbf babd 1785 b3bd 4486 943e
00000390: e9f8 2d3c ad6e f9bd 2d6c dabd b76c dbbd
000003a0: dd65 a43d d46c a53e b598 8c3e a9fb 8abd
000003b0: d2a9 a93d 7296 983d e5c5 b5be bc27 c63d
000003c0: ddcb a1be 8459 9f3e 0280 493d 6430 9b3d
000003d0: dc65 5d3e 64da bc3d 63d2 833d 4599 773e
000003e0: 2c71 973a 1113 8ebd a94c 0bbe d06e a9bd
000003f0: 8bb7 e0bd 6d84 a3be f98a 8dbd c0ce d9bd

fc1.bias f4 [64]
-0.008874439 0.048617925 -0.09975316 0.054719176 0.08205126 -0.044164106 0.07319304 0.07422622
0.047939382 0.006459328 0.07714226 0.041150752 -0.012973076 0.07899915 -0.083343804 -0.03907988
-0.09288233 0.06024645 0.066750675 0.09600198 -0.09786047 0.02827937 -0.051016085 -0.049371324
-0.06316583 -0.098018475 -0.029893406 0.05511588 0.0014747363 -0.046459556 -0.015636928 -0.054148823
-0.04057542 0.08447416 -0.07621334 0.039296072 -0.088070616 0.00056028826 0.03355776 -0.0056639886
0.08031726 0.024325589 -0.01888489 -0.08623792 -0.06461853 0.049929313 0.065588355 0.070212215
-0.02458231 -0.07002402 0.0892223 -0.084325776 0.037600823 0.051625896 0.03953088 0.08377734
0.005375473 -0.080676645 -0.012590615 0.0077081434 -0.019180663 0.038826235 0.04901787 -0.043366935
00000000: 1866 11bc 9723 473d 624b ccbd 3721 603d
00000010: 7e0a a83d 6ce5 34bd 3ce6 953d eb03 983d
00000020: 165c 443d c5a8 d33b c3fc 9d3d b18d 283d
00000030: 068d 54bc 4eca a13d 28b0 aabd 3912 20bd
00000040: 1739 bebd fbc4 763d 94b4 883d b09c c43d
00000050: 126b c8bd 23aa e73c 3ef6 50bd 9639 4abd
00000060: 165d 81bd e9bd c8bd 04e3 f4bc 30c1 613d
00000070: f04b c13a 604c 3ebd 0419 80bc 28cb 5dbd
00000080: 6932 26bd ca00 ad3d bd15 9cbd ebf4 203d
00000090: 5e5e b4bd 4fe0 123a dd73 093d fb98 b9bb
000000a0: 607d a43d 7546 c73c 7cb4 9abc 829d b0bd
000000b0: b856 84bd ae82 4c3d 3053 863d 6ccb 8f3d
000000c0: d760 c9bc c168 8fbd 2eba b63d feb2 acbd
000000d0: 5203 1a3d ad75 533d 22eb 213d 7493 ab3d
000000e0: bc24 b03b cc39 a5bd de48 4ebc 9894 fc3b
000000f0: c420 9dbc 4208 1f3d f6c6 483d 87a1 31bd

fc2.weight f4 [5, 64]
0.4560691 1.1065547 0.11055719 -0.083641276 1.0747708 0.6275474 -0.6223544 0.44860286
0.1409568 0.8695631 0.9615862 0.44358405 0.27758282 -0.21512112 -0.09745708 1.045808
1.0752838 1.1830595 -0.087897226 0.5004803 0.62826616 0.3613415 0.60249704 0.32209736
0.5263636 0.115726374 0.29131514 0.29623538 0.5949304 0.38058957 0.2299664 0.8354753
0.33612725 0.3675826 0.30288166 0.9307401 0.4194389 0.6936394 0.4933973 0.7960394
-0.051815692 0.51498353 0.50668514 1.2463077 0.95653933 -0.52903616 0.19069135 0.6091629
0.015037162 0.14938816 0.73218703 -0.044407587 0.57828444 0.9396197 -0.09034138 0.5865691
0.62600255 0.07773789 0.38032404 -0.107258335 0.7520733 0.11452158 -0.34732524 0.26808107
-0.130149 -0.52609843 0.39435193 -0.4149792 -0.34208187 -0.5114634 -0.42190373 -0.06106554
-0.01888042 -0.49525097 -0.36035118 0.31392285 -0.0007837977 0.3328748 0.6712451 -0.529004
-0.2460586 -0.014115946 0.60967195 0.51700795 -0.71346486 -0.030327123 0.061807867 -0.3487505
-0.2269262 -0.16781628 -0.10206959 -0.33788663 0.23806182 -0.09716739 -0.78281456 -0.3904857
-0.3679778 -0.5831655 -0.14727724 -0.13725616 0.61601466 -0.39161426 -0.31191275 -0.42175904
0.017782565 0.54724264 -0.20550847 -0.10156979 -0.31002757 -0.0367022 -0.19519557 0.035158467
0.9611008 -0.13356578 0.9214143 -0.6246907 0.079146095 -0.4429016 -0.017939104 -0.06958863
-0.5403093 0.41422102 -0.27604875 0.11559967 0.28107285 0.31296065 0.019603444 -0.20650865
-0.28336415 -0.23110597 0.90327847 0.8260024 0.018694362 0.5045216 -0.40221357 0.06841736
-0.8829682 0.020106288 -0.31410483 -0.6045862 -0.16605009 -0.024897303 0.5033353 -0.3611109
-0.1690459 -0.24698964 0.8931323 -1.0784773 0.36991847 -0.07264214 -0.074127756 -0.20703673
-0.28809968 0.743228 -0.15458252 -0.28909287 0.3031431 -0.2326896 -0.0017807621 -0.2411642
-0.39154896 -0.0067155403 0.26142126 -0.11391147 -0.87976027 -0.38825315 -0.15123737 -0.084616564
-0.053896926 -0.35153735 -0.20753016 -0.27249387 -0.17358367 -0.4138024 -0.1417661 -0.20011684
-0.6376398 0.12620696 -1.1269381 -0.1898783 -0.019336317 -0.34809142 -0.10783447 -0.15419307
0.17458689 -0.628358 -0.31428885 -0.36910498 -0.3658732 0.50483364 -0.08865108 -0.42866546
0.13856217 -0.31952047 -0.6868984 -0.46047482 -0.24795148 -0.30576214 -0.25860554 0.07470709
0.57824606 -0.1474917 -0.37088782 -0.115021974 -0.22763093 -0.2588758 -0.5301451 -0.20582207
-0.09578579 -0.46209392 -0.5179177 -0.06373135 -0.3243481 0.5865756 -0.20328306 -0.3333645
-0.027563341 -0.10991771 -0.40239844 0.64659023 -0.65234154 0.108568095 1.1669313 -0.49546206
0.40200093 -0.18423042 0.020577807 -0.5339753 -0.30462676 0.07634519 -0.13335408 -0.32771793
-0.4620744 -0.4319993 0.1615718 -0.96968025 -0.05726525 0.71306443 0.43832344 -0.27208185
-0.0774045 -0.5979399 -0.61351067 -0.012740861 -0.0072050355 -0.60107684 -0.55087155 -0.32549626
-0.5412448 -0.22668959 0.6796998 0.53233993 -0.27176657 -0.7748444 0.601045 0.6403357
00000000: e481 e93e 96a3 8d3f cf6b e23d 1e4c abbd
00000010: 1792 893f f2a6 203f 9e52 1fbf 46af e53e
00000020: fb56 103e b09b 5e3f 832a 763f 731d e33e
00000030: 561f 8e3e b648 5cbe 9497 c7bd 09dd 853f
00000040: e6a2 893f 7e6e 973f 7603 b4bd 7a1f 003f
00000050: 0dd6 203f c101 b93e 3f3d 1a3f f2e9 a43e
00000060: c4bf 063f f301 ed3d 4227 953e 2aac 973e
00000070: 5c4d 183f a3dc c23e 507c 6b3e b6e1 553f
00000080: df18 ac3e c933 bc3e 4e13 9b3e fc44 6e3f
00000090: b2c0 d63e 5a92 313f 929e fc3e 3dc9 4b3f
000000a0: b13c 54bd f6d5 033f 1eb6 013f 0387 9f3f
000000b0: c3df 743f ea6e 07bf 9844 433e 1af2 1b3f
000000c0: 6e5e 763c 36f9 183e 9c70 3b3f bbe4 35bd
000000d0: 730a 143f eb8a 703f e704 b9bd 6429 163f
000000e0: b441 203f 0b35 9f3d d5b9 c23e 42aa dbbd
000000f0: e087 403f 4a8a ea3d 9dd4 b1be ec41 893e
00000100: c845 05be 63ae 06bf 7fe8 c93e 2778 d4be
00000110: 5b25 afbe 44ef 02bf c403 d8be dc1f 7abd
00000120: 1cab 9abc 8991 fdbe f37f b8be 7fba a03e
00000130: c677 4dba 916e aa3e b8d6 2b3f ce6c 07bf
00000140: c9f6 7bbe 9246 67bc 7613 1c3f a25a 043f
00000150: a2a5 36bf 9670 f8bc 3f2a 7d3d 6d8f b2be
00000160: 575f 68be 08d8 2bbe dc09 d1bd 7aff acbe
00000170: 7ac6 733e b2ff c6bd 8966 48bf beed c7be
00000180: 9667 bcbe 564a 15bf d8cf 16be e18c 0cbe
00000190: 23b3 1d3f aa81 c8be 07b3 9fbe cdf0 d7be
000001a0: beac 913c 1818 0c3f d070 52be d203 d0bd
000001b0: efbb 9ebe 0c55 16bd 59e1 47be 5302 103d
000001c0: b40a 763f 78c5 08be cfe1 6b3f bbeb 1fbf
000001d0: 5917 a23d 00c4 e2be 07f5 92bc 7c84 8ebd
000001e0: b651 0abf c714 d43e 4356 8dbe 85bf ec3d
000001f0: c8e8 8f3e 613c a03e 6797 a03c 0177 53be
00000200: 1b15 91be 0ba7 6cbe 423d 673f e574 533f
00000210: eb24 993c 5428 013f f0ee cdbe 671e 8c3d
00000220: 340a 62bf f1b5 a43c 59d2 a0be 29c6 1abf
00000230: 0909 2abe 6ef5 cbbc 95da 003f 87e3 b8be
00000240: 5e1a 2dbe daea 7cbe 52a4 643f 8b0b 8abf
00000250: f465 bd3e 67c5 94bd 4bd0 97bd 7001 54be
00000260: cd81 93be 3144 3e3f e14a 1ebe fb03 94be
00000270: 9335 9b3e 2f46 6ebe 7668 e9ba bff3 76be
00000280: 1b79 c8be 090e dcbb 02d9 853e 6b4a e9bd
00000290: f837 61bf 1ec9 c6be f8dd 1abe 734b adbd
000002a0: 06c3 5cbd b4fc b3be c982 54be 5184 8bbe
000002b0: ebbf 31be e8dd d3be 222b 11be 6eeb 4cbe
000002c0: 5d3c 23bf 663c 013e 823f 90bf 756f 42be
000002d0: 3267 9ebc 0a39 b2be 52d8 dcbd cae4 1dbe
000002e0: e8c6 323e 12dc 20bf 78ea a0be 54fb bcbe
000002f0: bb53 bbbe c73c 013f b38e b5bd 0a7a dbbe
00000300: 3ee3 0d3e 3098 a3be 93d8 2fbf 5bc3 ebbe
00000310: fee6 7dbe db8c 9cbe f267 84be 0800 993d
00000320: ef07 143f 1008 17be 02e5 bdbe a490 ebbd
00000330: 1518 69be 5e8b 84be 97b7 07bf 05c3 52be
00000340: 572b c4bd 9397 ecbe 4196 04bf 9585 82bd
00000350: f410 a6be d229 163f 6f29 50be c0ae aabe
00000360: 84cc e1bc 891c e1bd 2b07 cebe f086 253f
00000370: dbff 26bf f358 de3d 015e 953f 34ad fdbe
00000380: 11d3 cd3e e6a6 3cbe ca92 a83c 9bb2 08bf
00000390: 0af8 9bbe de5a 9c3d f98d 08be a5ca a7be
000003a0: 0495 ecbe 032f ddbe 1473 253e f73c 78bf
000003b0: f78e 6abd 648b 363f ee6b e03e 504e 8bbe
000003c0: 4086 9ebd 9712 19bf 090f 1dbf 0bbf 50bc
000003d0: 3818 ecbb 2ce0 19bf eb05 0dbf 72a7 a6be
000003e0: 058f 0abf 5121 68be ce00 2e3f 6e47 083f
000003f0: fd24 8bbe 345c 46bf 16de 193f 0aed 233f

fc2.bias f4 [5]
0.6168579 -0.34057355 -0.2743597 0.18099551 -0.09792042
00000000: 66ea 1d3f a85f aebe e078 8cbe e356 393e
00000010: 808a c8bd

bn.weight f4 [64]
1.0902437 1.4777409 1.1473424 1.262506 1.2883015 1.2717221 1.4695892 0.8831451
1.16833 1.0517454 1.4358124 1.1207538 0.9977135 0.84223 1.2803007 1.4185565
1.2481983 1.5050205 1.1127377 1.4109935 1.270521 0.9764757 1.0351387 0.9857918
0.79426265 1.0722424 1.0112488 1.0880581 1.247213 0.8722691 1.4182802 1.3721167
1.158058 0.90087 0.9324842 1.3594927 1.4235407 1.1864852 1.1054349 1.3161582
0.94947857 1.1855258 1.0297449 1.56756 1.2937181 1.1959711 0.8996438 1.1139052
1.4208734 1.0860058 1.6918963 1.2150267 1.0415053 1.5220301 0.8531896 1.017015
1.250852 1.0939581 1.1630987 1.0302045 1.1057677 0.9223304 0.89763933 0.98133343
00000000: 1b8d 8b3f 9d26 bd3f 1edc 923f cc99 a13f
00000010: 10e7 a43f cac7 a23f 801b bc3f cc15 623f
00000020: d68b 953f 989f 863f b3c8 b73f dc74 8f3f
00000030: 276a 7f3f 639c 573f e5e0 a33f 4293 b53f
00000040: f6c4 9f3f 83a4 c03f 306e 8e3f 6f9b b43f
00000050: 6fa0 a23f 50fa 793f 6d7f 843f da5c 7c3f
00000060: cc54 4b3f 3d3f 893f 9a70 813f 7d45 8b3f
00000070: ada4 9f3f 074d 5f3f 358a b53f 85a1 af3f
00000080: 3f3b 943f 6b9f 663f 49b7 6e3f db03 ae3f
00000090: 9536 b63f bfde 973f e47e 8d3f df77 a83f
000000a0: 0711 733f 4fbf 973f aece 833f cea5 c83f
000000b0: 8e98 a53f 9515 993f 0e4f 663f 7294 8e3f
000000c0: 2edf b53f 3d02 8b3f 0f90 d83f ff85 9b3f
000000d0: 0c50 853f e2d1 c23f a26a 5a3f 8c2d 823f
000000e0: eb1b a03f d206 8c3f 6be0 943f bedd 833f
000000f0: cc89 8d3f d81d 6c3f b1cb 653f ab38 7b3f

bn.bias f4 [64]
0.20037025 0.4899478 -0.12356135 -0.21720143 0.57691056 0.42187023 -0.018368946 0.24792784
0.3312773 0.743905 0.39932 0.05847416 0.1767911 -0.25497222 0.081628636 0.55490386
0.6800574 0.52382547 -0.28765517 0.23349643 0.454253 0.050607324 0.378196 0.32162458
0.39594552 -0.0009630887 0.12450095 0.22657838 0.119965054 0.3163665 0.4360238 0.35113072
0.22546476 0.54539245 -0.15081137 0.46759003 0.01811957 0.46393204 0.12122717 0.3940854
-0.070332244 0.09530858 0.24925976 0.91503084 0.4909614 0.047941614 0.08824771 0.4448349
-0.070992924 0.06314843 0.19252233 0.12201487 0.22551823 0.56398904 -0.17459756 0.49047962
0.39275685 -0.13772915 0.18945645 0.15207249 0.6231482 -0.091616176 -0.038315866 0.27257773
00000000: dc2d 4d3e 70da fa3e bc0d fdbd 0d6a 5ebe
00000010: 69b0 133f 60ff d73e 797a 96bc cce0 7d3e
00000020: 2e9d a93e 8f70 3e3f ac73 cc3e 9a82 6f3d
00000030: ba08 353e b88b 82be ea2c a73d 2e0e 0e3f
00000040: 3e18 2e3f 6d19 063f 8a47 93be b019 6f3e
00000050: d993 e83e a049 4f3d e8a2 c13e faab a43e
00000060: 5fb9 ca3e ca77 7cba 5bfa fe3d 2a04 683e
00000070: 3db0 f53d cafa a13e 833e df3e 68c7 b33e
00000080: 3ce0 663e d79e 0b3f 4c6e 1abe f667 ef3e
00000090: 7e6f 943c 8088 ed3e f345 f83d 90c5 c93e
000000a0: 5a0a 90bd 2531 c33d f33d 7f3e 763f 6a3f
000000b0: 4b5f fb3e 6d5e 443d 37bb b43d 66c1 e33e
000000c0: bd64 91bd f753 813d 9324 453e efe2 f93d
000000d0: 40ee 663e 9661 103f b4c9 32be 2520 fb3e
000000e0: 6d17 c93e df08 0dbe df00 423e e4b8 1b3e
000000f0: a486 1f3f 43a1 bbbd 19f1 1cbd 4f8f 8b3e

bn.running_mean f4 [64]
-0.06302363 -0.24175243 0.29984817 0.17619179 0.20199546 0.3097381 -0.048684202 -0.07803166
-0.12119279 -0.22047924 -0.20774242 -0.094065085 -0.0335777 0.51951504 -0.085504815 0.07645731
0.10660554 0.21430835 -0.09174114 0.019260114 -0.074154936 0.061683983 -0.047168497 -0.2991284
-0.078940526 0.3045092 0.009463161 0.21819402 -0.09748302 0.025567064 -0.4461527 -0.11408342
0.21740122 -0.056742236 -0.19467695 -0.08254327 -0.08692849 -0.014821058 -0.10363838 -0.2684211
-0.19518323 0.096897796 0.22573882 -0.026137296 0.013747499 -0.3545628 -0.040497772 0.06673227
0.06458337 -0.09667311 0.0010259155 0.20634896 -0.2165517 -0.17015761 0.23375718 0.13029414
0.35460597 -0.20861624 -0.17995854 -0.6935195 -0.05808788 0.37457815 -0.2932156 -0.08707239
00000000: 8812 81bd f38d 77be b385 993e 9f6b 343e
00000010: e6d7 4e3e fe95 9e3e 1669 47bd 10cf 9fbd
00000020: ed33 f8bd 4fc5 61be 6eba 54be 32a5 c0bd
00000030: c588 09bd f0fe 043f 261d afbd a695 9c3d
00000040: 0154 da3d a673 5b3e c7e2 bbbd 63c7 9d3c
00000050: 8bde 97bd 58a8 7c3d c133 41bd 5c27 99be
00000060: 92ab a1bd a1e8 9b3e 600b 1b3c 416e 5f3e
00000070: 2da5 c7bd 0572 d13c 206e e4be 91a4 e9bd
00000080: 6d9e 5e3e 8c6a 68bd 6559 47be 720c a9bd
00000090: 9007 b2bd 06d4 72bc 5c40 d4bd 7e6e 89be
000000a0: 1dde 47be 5a72 c63d 1428 673e e21d d6bc
000000b0: 313d 613c 4189 b5be fee0 25bd eeaa 883d
000000c0: 4944 843d 8dfc c5bd 0378 863a 244d 533e
000000d0: bbbf 5dbe cc3d 2ebe 0b5e 6f3e d46b 053e
000000e0: ea8e b53e 7f9f 55be 0d47 38be 7e8a 31bf
000000f0: 8fed 6dbd b5c8 bf3e 5b20 96be 0253 b2bd

bn.running_var f4 [64]
0.112683624 0.15797482 0.09597089 0.11112245 0.17089586 0.08221605 0.11489672 0.11057176
0.10274258 0.16519628 0.10101712 0.048981488 0.089224175 0.08868971 0.07519025 0.14201102
0.14884506 0.1034782 0.13780814 0.06787622 0.13479134 0.08739622 0.17197351 0.09606888
0.14994137 0.10777666 0.082894064 0.101559326 0.15194017 0.13474847 0.18779097 0.08818321
0.074431054 0.19453931 0.09187843 0.094159566 0.08772569 0.16210446 0.077703 0.119886
0.07156564 0.061624758 0.09193551 0.16500491 0.092829734 0.24411777 0.07608173 0.105462804
0.05180359 0.05153304 0.085773 0.07174876 0.08051183 0.13198437 0.07619329 0.12246726
0.13387975 0.06729252 0.09126186 0.116537645 0.13277648 0.086514644 0.22363795 0.0911113
00000000: acc6 e63d 27c4 213e 638c c43d 2b94 e33d
00000010: 53ff 2e3e e360 a83d f94e eb3d 7273 e23d
00000020: b46a d23d 3729 293e 10e2 ce3d d0a0 483d
00000030: 2abb b63d f3a2 b53d 59fd 993d 566b 113e
00000040: d76a 183e 61ec d33d 941d 0d3e b002 8b3d
00000050: be06 0a3e cafc b23d d319 303e c3bf c43d
00000060: 3b8a 193e 02ba dc3d 5dc4 a93d 56fe cf3d
00000070: 3496 1b3e 81fb 093e 474c 403e 6699 b43d
00000080: 4f6f 983d 5035 473e c22a bc3d bbd6 c03d
00000090: 87a9 b33d b6fe 253e c022 9f3d cb86 f53d
000000a0: 0291 923d 3e6a 7c3d af48 bc3d 0cf7 283e
000000b0: 841d be3d 02fa 793e bdd0 9b3d e2fc d73d
000000c0: 0030 543d 4f14 533d c1a9 af3d 04f1 923d
000000d0: 63e3 a43d e926 073e 3a0b 9c3d 1dd0 fa3d
000000e0: c617 093e a9d0 893d 80e7 ba3d 4aab ee3d
000000f0: 8ff6 073e 972e b13d 5901 653e 9098 ba3d
