intent_classifier/intent_classifier.model (torch, 74319 bytes, 8 tensors)

fc1.weight f4 [64, 256]
0.37771508 -0.5426334 -0.009552715 -0.08356363 -0.26134852 0.043614194 -0.10497699 0.20023887
0.2210894 0.022817584 0.013850474 -0.24675845 -0.009056397 0.13231775 0.33036143 0.28435162
-0.28223997 -0.11286484 0.0991528 -0.1719337 -0.012189212 -0.113552384 0.29122362 -0.03796861
-0.107258566 -0.16925187 0.2463708 0.15085846 -0.27764773 0.14813839 0.2115335 -0.28376803
0.13956688 -0.31219006 -0.0045658452 -0.04266367 0.20257801 -0.122538365 -0.1059909 -0.14317283
0.022684233 0.091544315 0.1333295 -0.41607594 0.18264891 -0.05332363 0.2822976 0.14002903
0.26254874 -0.026353976 -0.09905268 -0.07534699 0.25616288 0.22005959 -0.22261503 -0.057455204
-0.11041128 0.30637032 -0.2026383 -0.045904268 -0.15050618 -0.08705651 0.046834018 0.15939778
-0.18216287 -0.13648893 -0.062900685 -0.14408879 0.08067751 -0.23846823 0.088676594 0.06533675
0.12604089 -0.08546641 -0.20848647 -0.17756331 -0.119776085 -0.24300675 -0.057513334 -0.062779196
-0.028762631 -0.19768786 0.12576495 -0.032933492 -0.086687446 -0.022114197 0.25757068 -0.32371983
-0.12870723 0.0043369415 0.28660473 -0.103959456 0.11560799 -0.18303575 0.052663215 0.08105519
0.105179735 0.17320658 -0.09650831 -0.021048764 -0.2620053 0.10042328 -0.29939353 -0.22417642
-0.19659908 0.2509711 0.009652667 -0.27437422 0.0068459315 0.03362544 0.07441358 -0.091685615
-0.16012198 -0.092121474 -0.25903323 -0.034565683 -0.29924345 0.017456153 0.15674652 0.31003857
-0.059931207 0.017373754 -0.0056591555 0.06181775 -0.022914622 0.026200285 0.03916846 -0.25430742
-0.29077742 0.04782252 -0.16825084 0.06295476 -0.0019454005 -0.016120933 -0.17090759 0.3358723
-0.45782098 -0.07576749 -0.2535328 -0.018782852 0.22159477 0.19299388 -0.15858291 0.20867965
0.15226832 -0.43510014 -0.12523013 -0.22462884 0.13884111 0.028678726 -0.03560057 -0.11320841
-0.042588122 0.25431427 -0.062819555 0.18094534 0.02388887 0.09667428 -0.22838631 -0.067214325
-0.020951519 -0.41603458 -0.2833113 -0.1758835 0.2650443 -0.066483125 0.06670926 0.030745894
0.05415361 0.16613759 0.18928003 0.08173194 -0.3063309 -0.070455514 0.19042765 -0.20351261
-0.04344756 0.21117193 0.22873332 0.065841034 0.3209322 0.16849586 0.11730438 -0.0043209475
-0.035822343 0.13232683 -0.07942404 0.43482575 0.328742 0.2900963 -0.3406545 0.13862313
0.06866073 -0.18166937 -0.18434377 0.35032126 0.025378253 -0.018275253 -0.04582517 0.17194666
0.01773152 0.06558567 -0.10557741 -0.1668773 -0.06306242 -0.1393068 0.057122454 0.38049668
-0.0107021155 0.1709615 -0.11893742 0.12545362 -0.32122257 0.3076471 0.100300066 0.25019047
-0.06344769 -0.0133099 -0.0642224 0.32304105 -0.1620994 -0.030625848 -0.059552696 0.08812904
-0.22068244 0.056084484 -0.11512527 0.12662888 0.033656094 -0.44180742 -0.08306192 0.027510094
-0.08164818 0.13471746 0.20635463 -0.20981127 -0.19454713 -0.04546572 -0.055689868 -0.086843655
0.37020186 0.2244076 0.008437678 0.07338417 -0.08310586 -0.13761388 0.25161996 -0.43088818
0.16049121 -0.2264332 0.18137145 -0.1309178 0.23769969 -0.025530705 0.03575641 -0.13799404
00000000: df63 c13e 06ea 0abf fe82 1cbc 6923 abbd
00000010: 79cf 85be cca4 323d 2dfe d6bd 6b0b 4d3e
00000020: 4265 623e f1eb ba3c 19ed 623c 3fae 7cbe
00000030: 4861 14bc 4e7e 073e 2225 a93e 8996 913e
00000040: c281 90be ae25 e7bd a010 cb3d 630f 30be
00000050: 43b5 47bc 278e e8bd 431b 953e f984 1bbd
00000060: 61aa dbbd 5d50 2dbe a148 7c3e a47a 1a3e
00000070: d827 8ebe 97b1 173e 3d9c 583e 0b4a 91be
00000080: 9fea 0e3e 60d7 9fbe 169d 95bb 1ac0 2ebd
00000090: 9c70 4f3e 65f5 fabd c211 d9bd e69b 12be
000000a0: 49d4 b93c 967b bb3d 8787 083e e807 d5be
000000b0: 5108 3b3e e169 5abd 5089 903e c563 0f3e
000000c0: ca6c 863e 4be4 d7bc 22dc cabd 864f 9abd
000000d0: c827 833e 4d57 613e 32f5 63be 2656 6bbd
000000e0: 4f1f e2bd 92dc 9c3e 6a80 4fbe 1d06 3cbd
000000f0: 4b1e 1abe af4a b2bd 07d5 3f3d 2c39 233e
00000100: e788 3abe c1c3 0bbe 13d2 80bd 038c 13be
00000110: 403a a53d 0431 74be 139c b53d 46cf 853d
00000120: dd10 013e 0309 afbd 7a7d 55be 28d3 35be
00000130: 2a4d f5bd c3d6 78be 1a93 6bbd 6192 80bd
00000140: 9c9f ebbc b06e 4abe 87c8 003e 45e5 06bd
00000150: 3089 b1bd d528 b5bc 4ee0 833e 9bbe a5be
00000160: d4cb 03be e71c 8e3b dbbd 923e b2e8 d4bd
00000170: e2c3 ec3d b96d 3bbe 62b5 573d 4300 a63d
00000180: 7968 d73d 115d 313e 26a6 c5bd 756e acbc
00000190: 8f25 86be b8aa cd3d 1c4a 99be 818e 65be
000001a0: 4551 49be 497f 803e 3826 1e3c c77a 8cbe
000001b0: d653 e03b d4ba 093d 2666 983d abc5 bbbd
000001c0: 04f7 23be 2faa bcbd 01a0 84be bf94 0dbd
000001d0: 7036 99be 3500 8f3c 2982 203e 60bd 9e3e
000001e0: 6d7a 75bd 6753 8e3c 7070 b9bb 9c34 7d3d
000001f0: 72b7 bbbc fba1 d63c 1b6f 203d 9534 82be
00000200: c7e0 94be 8ce1 433d f349 2cbe 6dee 803d
00000210: cffc feba 0c10 84bc 6602 2fbe 74f7 ab3e
00000220: 8367 eabe fc2b 9bbd 0dcf 81be 7fde 99bc
00000230: bde9 623e 30a0 453e 8f63 22be 1eb0 553e
00000240: 3aec 1b3e 72c5 debe 543c 00be 1a05 66be
00000250: 5d2c 0e3e a6ef ea3c e7d1 11bd d0d9 e7bd
00000260: e270 2ebd 7b35 823e 8aa7 80bd bc49 393e
00000270: 97b2 c33c 2afd c53d 1ade 69be aaa7 89bd
00000280: 85a2 abbc 7c02 d5be 2e0e 91be ce1a 34be
00000290: e3b3 873e 4e28 88bd dd9e 883d d0de fb3c
000002a0: 2dd0 5d3d f91f 2a3e a0d2 413e 1363 a73d
000002b0: 67d7 9cbe fb4a 90bd 77ff 423e 9c65 50be
000002c0: 12f6 31bd 743d 583e 1139 6a3e aad7 863d
000002d0: 3a51 a43e 2e8a 2c3e 473d f03d bc96 8dbb
000002e0: 73ba 12bd af80 073e 12a9 a2bd 7ba1 de3e
000002f0: df50 a83e 8187 943e 446a aebe 39f3 0d3e
00000300: ff9d 8c3d 8907 3abe 9dc4 3cbe 4f5d b33e
00000310: 0ee6 cf3c fcb5 95bc 2cb3 3bbd c912 303e
00000320: b141 913c c851 863d f838 d8bd e2e1 2abe
00000330: df26 81bd 71a6 0ebe 3cf9 693d 76d0 c23e
00000340: ed57 2fbc 8810 2f3e 7695 f3bd ea76 003e
00000350: 4977 a4be ec83 9d3e 1f6a cd3d f718 803e
00000360: ddf0 81bd c411 5abc 0987 83bd a365 a53e
00000370: 63fd 25be 0fe3 fabc 87ed 73bd 007d b43d
00000380: 94fa 61be d8b8 653d ccc6 ebbd 00ab 013e
00000390: f9da 093d 9534 e2be 5e1c aabd d95c e13c
000003a0: 2937 a7bd 60f3 093e a14e 533e c4d8 56be
000003b0: 5d37 47be 433a 3abd 0f1b 64bd 16db b1bd
000003c0: 198b bd3e 1bcb 653e 303e 0a3c 714a 963d
000003d0: 6833 aabd a7ea 0cbe 55d4 803e 609d dcbe
000003e0: cf57 243e 1bde 67be 70b9 393e 510f 06be
000003f0: 8c67 733e c525 d1bc 5075 123d 4f4e 0dbe

fc1.bias f4 [64]
-0.017734218 -0.029532857 -0.054712586 0.0071388357 0.0045900866 -0.04295975 0.01948546 -0.007978747
0.013568683 -0.039932407 -0.017572623 -0.0005326149 0.018559583 0.031016465 -0.026555348 0.022869134
-0.022407098 -0.035508454 0.057879478 0.049563136 0.048335634 -0.00828038 -0.019447956 0.0069980966
0.027770985 -0.013474718 0.02872817 0.019370796 0.03330855 0.03897509 0.060557365 -0.03045592
-0.034759216 0.023492381 -0.0050739693 0.018292092 -0.014366088 -0.048138864 0.032569405 -0.04987456
-0.02733764 -0.05316318 -0.058316052 0.05771418 0.041945796 0.0015278474 0.055986926 -0.053537805
-0.03744974 -0.01138364 -0.03243088 -0.023625154 -0.022751316 -0.02977338 -0.05622815 -0.04277071
0.03142084 -0.0038465983 -0.02142543 -0.013485781 0.057978593 0.031833313 0.023592286 -0.009462519
00000000: 5a47 91bc e4ee f1bc 4e1a 60bd e5ec e93b
00000010: 7068 963b 90f6 2fbd f99f 9f3c 4ab9 02bc
00000020: 2e4f 5e3c 2a90 23bd 76f4 8fbc 2e9f 0bba
00000030: 440a 983c 3e16 fe3c 9a8a d9bc 0d58 bb3c
00000040: 178f b7bc 5071 11bd 0813 6d3d b702 4b3d
00000050: 96fb 453d 6eaa 07bc 5251 9fbc 4a50 e53b
00000060: fa7f e33c 10c5 5cbc 5757 eb3c 81af 9e3c
00000070: 8c6e 083d 58a4 1f3d 000b 783d b27e f9bc
00000080: ae5f 0ebd 1873 c03c 8a43 a6bb 4cd9 953c
00000090: be5f 6bbc 422d 45bd 7f67 053d 4449 4cbd
000000a0: 30f3 dfbc a2c1 59bd d0dc 6ebd b465 6c3d
000000b0: 5bcf 2b3d 0d42 c83a 8c52 653d 754a 5bbd
000000c0: e664 19bd 7282 3abc 3ed6 04bd 8a89 c1bc
000000d0: f860 babc 4ee7 f3bc 7d4f 66bd 5730 2fbd
000000e0: 24b3 003d 3617 7cbb 6284 afbc 77f3 5cbc
000000f0: f67a 6d3d a663 023d 9c44 c13c ae08 1bbc

fc2.weight f4 [17, 64]
0.2441977 1.1578999 -0.082350954 1.1978797 0.5139002 0.7045424 0.14505754 0.47095373
1.4726123 1.5450188 0.20757104 1.0569872 0.52082074 -0.30891222 0.23780985 -0.12161105
1.1450288 0.9497191 -0.48688036 1.4793631 0.38038027 0.31775355 0.939791 0.35018837
1.436635 0.603366 0.99090415 0.18203151 0.9047257 -0.44420394 0.16154185 1.2613708
1.3659048 -0.406303 1.0705632 0.6576163 0.1547103 1.3694323 0.706113 0.2224797
0.84030783 0.54393977 1.5858252 0.68222415 1.2241266 0.30530897 1.6576539 0.10290038
0.3994277 0.7979276 1.1744813 0.37218332 -0.17352799 0.38635153 0.6243423 0.68454057
0.40168563 -0.08428566 -0.03235708 0.30552855 0.5506988 0.48655877 -0.19392009 0.45279095
0.1931489 0.09572516 0.34635288 -0.44300303 -0.24057211 -0.26132447 0.16367026 -0.35589117
-0.29866484 0.00782702 0.5452842 0.0033648987 -0.0066600307 -0.26890448 0.44308963 0.44202444
0.262584 -0.36472836 1.3885756 -0.004244147 0.2599313 0.040257685 0.8828687 -0.9185112
-0.4167141 -0.085623145 -0.14661188 1.0397359 -0.625906 -0.35830712 -0.5418294 -0.4947665
-0.0026304892 -0.22856367 0.23167087 -0.43196592 -0.18366972 0.7209311 -0.25960514 0.52991927
-0.22955962 0.4382608 0.12200321 0.29207996 0.7494501 -0.6331431 -0.08253525 -0.8927451
0.25777087 0.5635947 -0.07355484 -0.53743416 0.2534235 -0.2779078 -0.23264453 -0.33379492
-0.19091818 -0.14093317 0.6584794 -0.1550028 -0.6335104 -0.15589353 -0.6545903 -0.14984189
-0.18321578 0.085681394 -0.80608237 -0.34476534 0.41450375 -0.06172709 0.27783108 -0.9002356
-0.18965498 0.19148663 -0.042646885 -0.19181816 0.16870978 -0.1319255 -0.07121941 1.0512073
-0.11548432 -0.33758736 0.1789553 -0.00422383 0.91994756 -0.02760712 -0.36049658 0.6901516
-0.26826948 -0.2801681 0.2227029 -0.46507582 -0.79257375 -0.3562902 -0.76585823 -0.34157756
-0.2492438 -0.0028075047 -0.028084751 -0.37525612 0.11579572 0.058104273 -0.171016 -0.64772207
-0.23980536 -0.43489397 0.1420228 0.5008728 -0.38847086 -0.09928678 0.033566684 1.037424
-0.5666372 0.35952255 -0.039670844 -0.13182564 -0.31917244 -0.39521828 -0.41482317 -0.27857792
-0.8351797 1.4375066 0.70653695 -0.18889919 -0.3796906 -0.38130343 -0.20874786 -0.5456039
-0.24405311 -0.15683989 1.3688735 -0.06124825 -0.77955467 -0.060101673 -0.59310216 0.0368066
-0.18928853 -0.4136086 -0.5596903 -0.024548233 -0.23298559 -0.03239131 -0.19305997 -0.7236363
-0.005252503 1.081155 -0.18218467 -0.15585005 0.058703646 -0.51763225 -0.14956236 1.4050431
-0.07124717 -0.3231939 0.34822795 -0.18731342 0.44725335 -0.54296774 0.43422452 -0.122695364
-0.08001117 -0.652155 -0.17910016 -0.75368863 -0.10763562 -0.2135333 -0.07984414 0.9102332
-0.21367928 -0.21917495 -0.096526235 -0.055589717 0.096871994 -0.11962801 -0.17455725 0.63759005
-0.43681663 -0.011431114 -0.38417852 -0.04859909 -0.2922758 -0.24078919 -0.01098159 -0.3211461
-1.3196846 0.3070714 1.1327949 0.10984857 -0.63684094 -0.22445045 -0.32341254 -0.37073675
00000000: f60e 7a3e 1036 943f 9ea7 a8bd 1f54 993f
00000010: f78e 033f e45c 343f f789 143e d920 f13e
00000020: 8f7e bc3f 2dc3 c53f 818d 543e 5b4b 873f
00000030: 8254 053f be29 9ebe 6d84 733e 370f f9bd
00000040: 4e90 923f ca20 733f 6248 f9be c55b bd3f
00000050: 34c1 c23e 98b0 a23e 2596 703f e44b b33e
00000060: a8e3 b73f 3276 1a3f e5ab 7d3f 7866 3a3e
00000070: 1a9c 673f b36e e3be 3a6b 253e 9974 a13f
00000080: f8d5 ae3f f206 d0be 3708 893f 8b59 283f
00000090: 606c 1e3e 8f49 af3f d2c3 343f b8d1 633e
000000a0: 6a1e 573f a33f 0b3f 52fc ca3f 3ea6 2e3f
000000b0: 2eb0 9c3f 7551 9c3e 012e d43f 6fbd d23d
000000c0: ca81 cc3e fc44 4c3f 6755 963f d08e be3e
000000d0: 52b1 31be decf c53e e6d4 1f3f 0d3e 2f3f
000000e0: bda9 cd3e f69d acbd dc88 04bd 3d6e 9c3e
000000f0: 99fa 0c3f 3b1e f93e fd92 46be 37d4 e73e
00000100: d3c8 453e 8d0b c43d 2a55 b13e 4bd1 e2be
00000110: 8958 76be 52cc 85be 2d99 273e 5e37 b6be
00000120: 99ea 98be e73c 003c bf97 0b3f a285 5c3b
00000130: 633c dabb d9ad 89be a5dc e23e 0751 e23e
00000140: 6971 863e adbd babe d8bc b13f 7c12 8bbb
00000150: b715 853e 3ee5 243d af03 623f 8d23 6bbf
00000160: 8d5b d5be 305b afbd 6d21 16be 1116 853f
00000170: 603b 20bf 0874 b7be 55b5 0abf 0952 fdbe
00000180: 4964 2cbb 980c 6abe 213b 6d3e a32a ddbe
00000190: ea13 3cbe f18e 383f f7ea 84be caa8 073f
000001a0: ad11 6bbe b863 e03e d2dc f93d 818b 953e
000001b0: f6db 3f3f ab15 22bf 3e08 a9bd f18a 64bf
000001c0: 8bfa 833e be47 103f eca3 96bd 4995 09bf
000001d0: bac0 813e ee49 8ebe 5e3a 6ebe 2be7 aabe
000001e0: 0e80 43be c950 10be 1b92 283f 0eb9 1ebe
000001f0: bd2d 22bf 8ea2 1fbe 3b93 27bf 2770 19be
00000200: eb9c 3bbe ba79 af3d 6a5b 4ebf 1585 b0be
00000210: d639 d43e 8cd5 7cbd e03f 8e3e d775 66bf
00000220: ea34 42be 1215 443e 80ae 2ebd fb6b 44be
00000230: 42c2 2c3e 7a17 07be 7bdb 91bd f68d 863f
00000240: 0b83 ecbd 40d8 acbe 0f40 373e 0e68 8abb
00000250: af81 6b3f 5428 e2bc 0293 b8be c6ad 303f
00000260: 9e5a 89be 3172 8fbe 3b0c 643e 6b1e eebe
00000270: 1de6 4abf ab6b b6be 490f 44bf 41e3 aebe
00000280: c439 7fbe 1dfe 37bb fe11 e6bc 9221 c0be
00000290: 4e26 ed3d bffe 6d3d d11e 2fbe 1dd1 25bf
000002a0: 898f 75be 6caa debe 6d6e 113e 3339 003f
000002b0: a7e5 c6be de56 cbbd 387d 093d 4fca 843f
000002c0: 230f 11bf 5713 b83e e57d 22bd 4dfd 06be
000002d0: 926a a3be 0d5a cabe b463 d4be c4a1 8ebe
000002e0: 56ce 55bf 3700 b83f 9bdf 343f ca6e 41be
000002f0: ce66 c2be 343a c3be 00c2 55be b2ac 0bbf
00000300: 0fe9 79be a39a 20be 3f37 af3f 72df 7abd
00000310: e590 47bf 2c2d 76bd 8bd5 17bf 84c2 163d
00000320: dad4 41be 82c4 d3be dd47 0fbf 6019 c9bc
00000330: c693 6ebe c0ac 04bd 83b1 45be 3b40 39bf
00000340: 301d acbb 4963 8a3f 9e8e 3abe 2897 1fbe
00000350: 3c73 703d 8c83 04bf e026 19be 74d8 b33f
00000360: 09ea 91bd ac79 a5be ef4a b23e 17cf 3fbe
00000370: 64fe e43e efff 0abf ad52 de3e b547 fbbd
00000380: e5dc a3bd a1f3 26bf 0866 37be bdf1 40bf
00000390: 1070 dcbd 79a8 5abe 5385 a3bd 0b05 693f
000003a0: bece 5abe 666f 60be 8caf c5bd 0bb2 63bd
000003b0: d364 c63d 88ff f4bd 23bf 32be 1a39 233f
000003c0: 6ea6 dfbe 9149 3bbc 0cb3 c4be d70f 47bd
000003d0: 2ca5 95be 7191 76be 20ec 33bc 436d a4be
000003e0: 6deb a8bf 7638 9d3e 6cff 903f 49f8 e03d
000003f0: 0208 23bf 57d6 65be 5496 a5be 35d1 bdbe

fc2.bias f4 [17]
0.93722796 -0.24798292 0.28309098 -0.28558084 -0.14769152 -0.37424567 0.859505 0.12992673
0.010469487 -0.41501808 0.5003073 -0.13391232 -0.25992516 -0.37858924 -0.26245433 -0.124408305
0.03389746
00000000: 2cee 6f3f 3cef 7dbe 4df1 903e a737 92be
00000010: 723c 17be 219d bfbe 8508 5c3f 830b 053e
00000020: 3688 2b3c 407d d4be 2414 003f 5020 09be
00000030: e914 85be 73d6 c1be 6a60 86be c8c9 febd
00000040: 10d8 0a3d

bn1.weight f4 [64]
1.5118868 1.6570514 2.0794046 1.1535844 1.3325748 1.3805436 0.4835796 1.3274382
1.8506202 2.0983768 2.543215 1.7293928 1.4520708 0.64787114 0.9436432 1.6771749
1.6420306 1.8029557 2.428541 1.9192086 0.99287266 1.4611531 1.7622914 1.8296051
1.9005353 1.0834403 1.1853 2.0728173 0.96811235 1.663612 2.212926 1.6909407
1.9281124 1.6538211 1.5429846 1.2847321 0.5050896 2.122988 1.5147997 2.093423
1.4543313 1.4875596 1.9359062 1.2023768 2.130086 1.8626958 2.2080736 2.0481708
1.5912337 1.5216846 1.628551 1.5462781 2.0229871 0.9214173 1.2871056 2.218039
1.2003157 1.2597606 1.9919581 0.7144559 1.5551424 1.7980896 1.8509047 2.0025184
00000000: 8285 c13f 431a d43f f714 0540 a7a8 933f
00000010: d091 aa3f a7b5 b03f bf97 f73e 7fe9 a93f
00000020: 1fe1 ec3f ce4b 0640 09c4 2240 be5c dd3f
00000030: 75dd b93f e2da 253f 9a92 713f abad d63f
00000040: 0f2e d23f 41c7 e63f 376d 1b40 a1a8 f53f
00000050: e72c 7e3f 1107 bb3f c492 e13f 8030 ea3f
00000060: be44 f33f 2cae 8a3f e9b7 973f 0aa9 0440
00000070: 36d6 773f 3df1 d43f 94a0 0d40 bf70 d83f
00000080: 63cc f63f 69b0 d33f 8580 c53f 1a72 a43f
00000090: 8d4d 013f 09df 0740 f5e4 c13f a4fa 0540
000000a0: 8727 ba3f 5a68 be3f c6cb f73f 7ce7 993f
000000b0: 5453 0840 d16c ee3f 1451 0d40 3b15 0340
000000c0: 8cad cb3f 90c6 c23f 5c74 d03f 71ec c53f
000000d0: 9f78 0140 01e2 6b3f e0bf a43f 5af4 0d40
000000e0: f2a3 993f d63f a13f 7cf8 fe3f 95e6 363f
000000f0: e80e c73f cd27 e63f 72ea ec3f 4329 0040

bn1.bias f4 [64]
0.25148857 0.081744276 0.14378819 -0.3675611 0.28736085 -0.012295458 -0.21200383 -0.13400719
0.32327422 0.28341305 0.25164708 0.15196954 0.20799045 -0.7043188 -0.47433653 -0.065049954
0.24436232 0.112960204 0.16263454 -0.009468972 -0.33500624 0.05654065 0.6892921 0.12976177
0.08728578 0.12426366 -0.17074345 -0.009294513 -0.07091037 0.40686598 -0.05363859 0.1432596
0.11136925 0.2809945 0.030865027 -0.06792015 -0.6823486 0.56448317 0.1143943 0.2634965
0.090083495 0.042478103 0.5759077 0.13093185 0.07095914 0.30119658 0.14772417 -0.04227086
0.13943018 0.22495252 -0.04337393 0.21743965 0.22401072 -0.16103183 0.15294813 0.1927727
-0.145213 -0.5181811 0.06843051 -0.63316 0.21820739 0.36162958 1.0055213 0.24154352
00000000: 1cc3 803e 8b69 a73d 363d 133e f830 bcbe
00000010: f620 933e e372 49bc 8817 59be 2e39 09be
00000020: 3384 a53e 841b 913e e3d7 803e e79d 1b3e
00000030: 73fb 543e 3d4e 34bf 3ddc f2be e938 85bd
00000040: 1e3a 7a3e ae57 e73d ab89 263e bf23 1bbc
00000050: f085 abbe 2b97 673d 7275 303f 45e0 043e
00000060: e3c2 b23d f27d fe3d 5fd7 2ebe 0348 18bc
00000070: 7539 91bd bd50 d03e 23b4 5bbd a5b2 123e
00000080: 9015 e43d 83de 8f3e a7d8 fc3c b819 8bbd
00000090: 66ae 2ebf f881 103f 8f47 ea3d 03e9 863e
000000a0: b27d b83d 85fd 2d3d b06e 133f 0013 063e
000000b0: 0753 913d 7036 9a3e 0145 173e 3624 2dbd
000000c0: c9c6 0e3e f459 663e dda8 31bd 80a8 5e3e
000000d0: 1163 653e 87e5 24be 6f9e 1c3e 3566 453e
000000e0: b7b2 14be 84a7 04bf 4c25 8c3d c616 22bf
000000f0: c271 5f3e 8327 b93e ecb4 803f 2f57 773e

bn1.running_mean f4 [64]
0.5474113 0.6878633 0.4306058 -2.3602028 0.3980875 0.5198361 -11.129448 -0.36813062
0.8155917 2.3140395 0.916114 1.0106282 0.8281405 -172.87515 -1.5065126 -0.35712633
1.0086117 1.2724789 0.6096001 1.3917776 -1.17929 22.488543 1.3021536 0.3687726
0.7867507 0.27025533 -3.1275046 0.62050337 -1.4307646 1.4960595 0.8300528 0.71364343
1.6680588 0.7264124 -0.881105 -0.6051669 -39.79582 1.5772356 0.6565106 1.049375
0.7526397 -0.6897255 1.298545 0.6151995 0.5886951 0.7551225 1.385337 0.074186884
0.6211272 0.9764657 0.75501114 0.53051865 1.0228431 -0.95537555 -1.0859925 0.6037479
-0.89104855 -0.20600803 0.17473881 -7.813448 0.12501343 1.304436 1.9640611 0.71816754
00000000: 2623 0c3f cf17 303f 5d78 dc3e 900d 17c0
00000010: 20d2 cb3e fb13 053f 3812 32c1 9e7b bcbe
00000020: 9eca 503f 3919 1440 7286 6a3f 445c 813f
00000030: 0401 543f 0ae0 2cc3 68d5 c0bf 43d9 b6be
00000040: 301a 813f 97e0 a23f c10e 1c3f c525 b23f
00000050: faf2 96bf 89e8 b341 f8ac a63f c3cf bc3e
00000060: 7e68 493f e85e 8a3e 0929 48c0 4fd9 1e3f
00000070: 4b23 b7bf e17e bf3f 577e 543f 56b1 363f
00000080: f382 d53f 2af6 393f 1990 61bf 38ec 1abf
00000090: eb2e 1fc2 dbe2 c93f 1411 283f ec51 863f
000000a0: ffac 403f da91 30bf b936 a63f b77d 1d3f
000000b0: b9b4 163f b54f 413f b952 b13f 4bef 973d
000000c0: 3102 1f3f a8f9 793f 6948 413f 12d0 073f
000000d0: 86ec 823f 7e93 74bf cd01 8bbf 398f 1a3f
000000e0: c21b 64bf c5f3 52be bbee 323e c407 fac0
000000f0: 8503 003e c2f7 a63f 5b66 fb3f d4d9 373f

bn1.running_var f4 [64]
2.4134521 3.8854194 2.2449863 5.1631947 1.7275033 1.6477456 67.06961 1.9610195
3.6837192 6.944403 2.0500567 3.959151 2.5583103 14529.466 2.933276 1.73327
4.3137894 5.8479333 3.3223636 4.0533547 1.8051682 246.16447 4.07553 3.8569503
4.6249967 2.2439058 10.121175 2.257293 3.0217936 2.7326767 3.1955872 2.8862891
5.370672 2.1827476 4.2141705 1.1184031 767.4859 6.350042 2.825287 2.8235056
5.4914703 4.589574 6.3589883 1.6341958 4.2464776 2.6868649 6.4962063 3.4236026
1.8770137 3.742707 4.687963 3.1011455 4.9123354 2.676097 6.056765 4.345338
2.1888778 1.4226558 1.8139323 37.182518 1.8439473 2.6953857 5.5889063 2.5706415
00000000: 0076 1a40 b6aa 7840 dbad 0f40 e438 a540
00000010: d41e dd3f 54e9 d23f a423 8642 b002 fb3f
00000020: 0ec2 6b40 8d38 de40 2134 0340 bb62 7d40
00000030: 5bbb 2340 dd05 6346 cbba 3b40 cbdb dd3f
00000040: 900a 8a40 4522 bb40 9ba1 5440 15b5 8140
00000050: c00f e73f 1b2a 7643 be6a 8240 46d8 7640
00000060: f9ff 9340 279c 0f40 55f0 2141 7d77 1040
00000070: 1165 4140 2de4 2e40 8084 4c40 f6b8 3840
00000080: 8cdc ab40 23b2 0b40 7cda 8640 d527 8f3f
00000090: 19df 3f44 8b33 cb40 81d1 3440 51b4 3440
000000a0: 20ba af40 cadd 9240 d57c cb40 542d d13f
000000b0: 25e3 8740 98f5 2b40 ece0 cf40 4e1c 5b40
000000c0: fc41 f03f 8388 6f40 cb03 9640 2b79 4640
000000d0: da31 9d40 2c45 2b40 05d1 c140 020d 8b40
000000e0: 9316 0c40 9619 b63f ef2e e83f e6ba 1442
000000f0: 7706 ec3f 3381 2c40 52d8 b240 6485 2440
