intent_classifier/intent_classifier.model (torch, 43347 bytes, 8 tensors)

fc1.weight f4 [64, 128]
00000000: 093c ebbc 0049 ff3d 4862 c53c 42f7 de3d
00000010: a572 1e3e f9ce 12be b19b 413e e5e2 b53e
00000020: 9607 363d a6b5 e23c 5c2a a03d 4a2c 743e
00000030: e9d4 f1bd 3161 2b3e f114 fa3d 2b5e 13be
00000040: 85b1 5b3e 010a 383e 9ed7 e0bd c602 eabc
00000050: ffb6 01bc 69de c13d a0bc 95bd aa7f 30be
00000060: 3964 49bd 17e2 523d ee7e a63c ef2c 713e
00000070: 4bd4 6dbd 5bb2 553e a7d9 b23d 9ad7 293e
00000080: 376d febb c9bb 193d 575e 2ebd 209c 1d3e
00000090: eba8 44bd 167c 01be d90f c5be c1de f9bd
000000a0: ee4e eb3d 32d3 cb3b eb78 843d b52d 91bd
000000b0: 2158 bfbc eb5b f4bd 3a1b 79be f7d9 553d
000000c0: 8d9f 0b3d 42d2 70be 7a39 b6bd 098b c03d
000000d0: 6469 593e 8e28 f9bd 6789 713d db4a 29bd
000000e0: 6bca 3dbd 9d47 8bbd 6c65 b2bd 7364 f93d
000000f0: 5dc5 79be 5fec 8fbe 58d5 eebd 2fac 97bd
00000100: b15e db3d fca1 94bd f5c4 9b3c ad49 493e
00000110: 285a c93d e293 a7bc a184 01be fbc9 6e3e
00000120: 48a4 cfbd a69a 5c3d 221f a33d da56 aabe
00000130: ec73 363d 314c 82bc f035 2bbe 9db5 6f3d
00000140: 86b1 833d 01d8 8fbd e24f 743e 3e34 47be
00000150: 8a37 073e d11d 85bd 5811 37be 284d f7bc
00000160: 129f 55bd 4c9b 8a3e c7e8 c3be 3ded f93d
00000170: ef23 173b 666a 36bd eab7 5a3c b92f 9ebd
00000180: b338 22bd 229e 713e 8be0 9f3d 139c bbbd
00000190: 00b3 a43c c5e1 93bd e9d9 2abe 4f4c 23be
000001a0: a48e 0d3d 5415 3ebd 3bef 163d a4b6 463d
000001b0: a148 94be b6d4 ae3c b930 12be 6890 39be
000001c0: c459 e13d 7390 0cbe 1c3a 643e 605e 013e
000001d0: c052 d03c d779 11be 4446 ac3d f56e 48be
000001e0: 5917 50be 71d1 4f3d 8503 b5be df3f 50be
000001f0: 2236 373b 4c3e 1e3e 6a1c 6abd ed4e 493d
00000200: ed10 163d cc4b e5b8 c019 303d 8e9f 3b3e
00000210: c293 72bd 5deb 8e3b 311c 0fbd 9430 34be
00000220: dd00 60be fc5c 65be 06be 5e3d ec21 003d
00000230: 6573 56bc 83b0 ce3d a279 a63e 5582 e9bd
00000240: f0f2 a5bd ccbc 40be c59a 0f3d 95c4 f13d
00000250: 8d30 6e3c 65f9 27be 82aa f3bd 98c9 45bd
00000260: 4ed1 3c3e fb8f 5b3e 5de0 a1bd f9ff 92be
00000270: 0e30 59bc 045a c2bd 4832 07be b3f2 40be
00000280: d991 0bbe e3d9 a03d 87be 963e 7635 f03d
00000290: 3a5e 163e 7ee5 00b9 ac4e 9f3e cde5 d6bd
000002a0: aa6a 27bd 056a d9bd fd62 22bc 6447 a7bd
000002b0: 994f 0b3e 61ac e7bc f744 903e 9e9c 1dbd
000002c0: b78c 5bbd df0a 1bbe c4cc bd3d 2d18 2abd
000002d0: 23b7 56be 4d0c b33d 0420 93bd c69d 533d
000002e0: 2cab 3b3d da20 993d cc24 4a3e fe0a 96bd
000002f0: e745 c83d 44b2 b8bc c9a4 093d 492c 08be
00000300: 6daf 1f3e 9515 843d 5c5c f93d c94d 5ebe
00000310: 46ac 14be f694 6dbd af1d 6a3d 0cb9 f13c
00000320: 6d26 3b3e 4bdc 19bc bfd7 293e 4bd5 85bd
00000330: 3bfa 8f3d 6c45 813d df05 5fbd d843 e2bd
00000340: b091 093e db46 243e 013e c8bc 99b8 7c3d
00000350: 2032 a3bd 0bc7 8dbd a19f 333d 84ee 14be
00000360: 6976 b03d cd59 ebbd 304d 933e dcf0 0fbe
00000370: d48f 8bbe 7419 283e 14ea 8f3d cd46 4f3d
00000380: 33c2 afbd eef9 5f3b 588d 143e 2f9a ffbd
00000390: 6268 88bc 5139 033e 0cab 45be b4ef 4c3d
000003a0: bf7e 5e3e 2cd2 3b3e 13d4 3cbe 5004 153e
000003b0: 84bf 04be df1d 773e 6374 583c 9351 683e
000003c0: fc5c 823b ecc8 80bd 79cb 7a3b 3ea7 5cbe
000003d0: 796a 0a3e 712e a33c 08f6 0d3e 0810 03be
000003e0: 0d3e 6b3d 2bb3 923d abfd 38be c0a7 2bbe
000003f0: 64bc ed3d e5fc 71be 8add d13d 5abd a73d
-0.02871515 0.124650955 0.024094716 0.108870044 0.15473421 -0.14336766 0.18907048 0.3552467
0.04444083 0.027674507 0.078205794 0.2384502 -0.118081875 0.16736294 0.122110255 -0.14391391
0.21454437 0.17972566 -0.10978626 -0.028565776 -0.007917165 0.094662495 -0.07311368 -0.172362
-0.049167845 0.051485147 0.020324197 0.23552297 -0.058063786 0.20868818 0.0873292 0.16586152
-0.0077644843 0.0375326 -0.04257044 0.15391588 -0.048012655 -0.12644991 -0.38488653 -0.1220069
0.11489664 0.006220245 0.06468376 -0.07088796 -0.023357453 -0.119315945 -0.24326792 0.05220982
0.034087706 -0.23517707 -0.088976815 0.09401519 0.2123161 -0.12165938 0.058968928 -0.041331153
-0.04633562 -0.068007685 -0.08710751 0.12177362 -0.24391694 -0.28110024 -0.11661786 -0.07405888
0.1071142 -0.072574586 0.019014815 0.19657011 0.09831649 -0.020456258 -0.1264825 0.23319237
-0.10138756 0.05385842 0.079649225 -0.33269387 0.044544145 -0.015905472 -0.16719794 0.05852281
0.06430344 -0.07023621 0.23858598 -0.19453523 0.1320478 -0.06499828 -0.1787771 -0.030188158
-0.052153654 0.27071607 -0.38263533 0.12203453 0.002306219 -0.044535063 0.013349513 -0.07723946
-0.039604854 0.23595479 0.078065 -0.09160628 0.020104885 -0.072207965 -0.16684689 -0.15947078
0.03455986 -0.04640706 0.03684924 0.048514023 -0.2896166 0.021341663 -0.14276399 -0.18121493
0.110034496 -0.13726978 0.22287792 0.12633657 0.025430083 -0.14206634 0.084118396 -0.19573577
-0.20321406 0.05073685 -0.35354248 -0.20336865 0.002795585 0.15453452 -0.057156004 0.049147535
0.036637235 -0.00010933689 0.042993307 0.18322584 -0.059222944 0.0043615536 -0.034938995 -0.17596656
-0.2187533 -0.22398752 0.05438044 0.03128235 -0.013089036 0.10092261 0.32514673 -0.11401812
-0.08102977 -0.1882202 0.03505971 0.11805073 0.014537943 -0.1640373 -0.11897756 -0.048287958
0.18439218 0.21441643 -0.07904122 -0.28710917 -0.013256086 -0.09489825 -0.13202775 -0.18842582
-0.13629855 0.078540586 0.29442236 0.11728947 0.14684382 -0.00012292524 0.3111471 -0.1049305
-0.040873207 -0.10615925 -0.009911296 -0.081679136 0.13604583 -0.028280439 0.28177616 -0.03847944
-0.053600993 -0.15140866 0.092675716 -0.041526962 -0.20968299 0.087425806 -0.07183841 0.051664136
0.04581754 0.07476969 0.197406 -0.07326315 0.09778958 -0.022545941 0.033604417 -0.13298143
0.15594263 0.06449429 0.12175819 -0.2170936 -0.14518842 -0.05800339 0.057157215 0.029507183
0.18276377 -0.009390901 0.16586207 -0.06534823 0.070301495 0.06312069 -0.05444896 -0.110480964
0.13434482 0.16042654 -0.024443628 0.061699484 -0.07968545 -0.0692273 0.043853406 -0.14544111
0.08616335 -0.114917375 0.28769827 -0.14056724 -0.2725817 0.1641596 0.07027069 0.05060463
-0.085819624 0.003417607 0.14507043 -0.1248058 -0.016651336 0.12814833 -0.1930353 0.050033286
0.21728037 0.18341893 -0.18440275 0.14552426 -0.12963682 0.24132489 0.0132113425 0.22687368
0.0039783698 -0.06288323 0.0038268252 -0.21548173 0.13517179 0.019919606 0.13863385 -0.12799084
0.057432223 0.0716308 -0.18065517 -0.1676321 0.11608198 -0.23631628 0.10247333 0.08190413

fc1.bias f4 [64]
00000000: 20c7 bbbc e545 9b3d 5129 8dbd 49fe a63d
00000010: c456 c93c ca91 99bd 423b 1dbd 12f1 4f3c
00000020: ca08 523d a89b 96bc eae4 753d 6e53 233d
00000030: 1ed2 593d 98ac 06bc 585c a1bc 3008 8abd
00000040: fd58 b3bd ca47 68bd fca0 3abd b222 6f3c
00000050: 9aba 773d a8f2 34bc 1447 9ebc a0d8 c5bc
00000060: ef25 a33d 5e43 713d bf1f 9dbd 7208 4c3d
00000070: bc67 92bc 8f70 57bd c879 0e3d da03 4c3d
00000080: a513 af3d 7881 803a 809c 113d 7c44 e23b
00000090: 5db8 893d 90a5 7abd 03e2 b1bd d49f d73c
000000a0: 28a0 573c c2cd 0d3d 965a 4d3d d8ce 9dbc
000000b0: 6d5c 8fbd dc88 f1bc 520c 9ebb 5e9a 85bd
000000c0: 0830 803c 6e3e 653d 28ed 70bc 64c7 0c3d
000000d0: b6ee 2c3d 297c ae3d 4963 bbba 3eeb 5dbc
000000e0: d015 0d3c 5074 0ebd 813d 8c3d f7ff c43b
000000f0: f202 97bd 0b78 67bd 9af2 16bd 7020 433c
-0.022922099 0.07581691 -0.06892646 0.0815397 0.024577506 -0.0749851 -0.03838659 0.012691753
0.051277913 -0.01838477 0.060032763 0.039874487 0.0531789 -0.0082198605 -0.019697353 -0.06739843
-0.087572075 -0.05670909 -0.045563683 0.014595674 0.06048069 -0.011044182 -0.019321002 -0.024151146
0.0796622 0.058902137 -0.07672071 0.04981274 -0.01787173 -0.05259758 0.03478411 0.04980836
0.08548669 0.000980421 0.03554964 0.0069051366 0.06724618 -0.06119305 -0.086856864 0.02632133
0.013160743 0.034620054 0.050135218 -0.01926367 -0.07000051 -0.029484205 -0.004823246 -0.06523584
0.015647903 0.05596774 -0.01470498 0.03436984 0.04221984 0.085197754 -0.0014296557 -0.013544856
0.008611158 -0.034778893 0.068476684 0.0060119587 -0.07373609 -0.056510966 -0.036852457 0.011909589

fc2.weight f4 [24, 64]
00000000: c44a ccbb 2b58 c7be 68f3 3a3f 3b36 b83f
00000010: 1c62 1e3d cadb 4c3f fa70 bd3f 1cc7 f63f
00000020: 84af c33e 1878 ca3e 1cde 0c3e 3764 49be
00000030: 5879 3f3f ff96 093f e3ee e83c 506c 24bf
00000040: eae5 9ebe 3a14 693f 21f9 183f 1943 fd3e
00000050: 8dae 3fbf dee7 1b3f c8f0 f53e d8be 293f
00000060: 2ab2 87bd ea0e 6d3f 5b29 003e 6103 103f
00000070: fd90 6e3d a7a4 303f 5a75 a73d c1ac 713f
00000080: eb72 e3bc cf28 fa3e a453 603d c8d5 7d3e
00000090: ac03 a73f 926c 533e 8e29 e63e 8878 003f
000000a0: f649 233f 6c47 ea3c feab cc3e 51ec 803e
000000b0: 551c 98be 8258 c53f f2e4 6e3f 9c9b 813f
000000c0: b4a4 b43e db4a 95bd f171 b2be 39cb 143f
000000d0: 9a70 aabe a8f5 f9be c0ac ea3e 3e48 73be
000000e0: 0720 333f 0165 d43e b776 9ebf d9fb c53e
000000f0: 4178 253f b30b 14bf a6d8 ad3e a044 b6bf
00000100: 473b c23e 7522 e8bd 85eb 0ebe f027 bbbe
00000110: 2310 d6bd e858 51be a07a 70be 3dce d63d
00000120: 27d1 2cbe 1c0f 3fbf 8ee4 d3be 23de 83be
00000130: ebde 743c 08c4 5ebe 50d9 093f 0568 36be
00000140: 694d 7cbd 71c4 23be a19a f2bd b986 183e
00000150: 52ae d43e 2b29 1fbe c476 3abe aea4 08bf
00000160: ec4d a6bc 9597 8f3e 23e1 223e d9f5 473e
00000170: f613 aebe 02d5 43bf 1dae 753e 23b9 a73e
00000180: e78a d13e 2c26 713d 71f2 3abd f943 9f3e
00000190: 040d ecbd c92e a4be 0637 edbd 0413 353e
000001a0: 2e9a 803f 0c9c 8a3e d692 86be 522b 8d3e
000001b0: 5537 4d3e d9d0 58be 73fc 48be bc68 f83d
000001c0: 8ba8 19bd e967 133f 4ff6 e7bd c00e febd
000001d0: 2c55 e3be da9b 753e a5c3 e23c c8ff 813f
000001e0: a128 463d 3974 483f b176 1fbe cce4 b1be
000001f0: 9ad0 e5be 73fc 46be 7a87 1b3e 7cf9 6bbd
00000200: 5abc 3d3f 7566 5bbf 02b8 7cbe 0bfd ccbe
00000210: b024 6bbe 2cf6 913b d437 7ebe 812a c6be
00000220: 7902 193d 7241 23be bea2 0c3e edda d73e
00000230: 5787 99bd 5c87 5ebe 5dd0 f0be cee7 563e
00000240: 6bf9 a3bd f64c 003f fe0f 7ebe b15a 2ebe
00000250: 4742 433d 9442 12bf 4f02 e13e de6e 453f
00000260: c53c 9cbc 2314 34be 5125 2d3d 995e 30bf
00000270: 6f8c 39bd 0649 283f 0b8b 03bf 1149 c7be
00000280: 9be7 ee3e 5d48 c0bd 83e5 f1be 212e 2fbf
00000290: 2bdb 97be bded d1be 5a63 93be d9b6 393e
000002a0: ece4 b0bd d667 c33e d875 fabe 4248 2b3f
000002b0: 1ca5 35bc 971e 983e 82d9 e03c 7171 e03e
000002c0: 4cfa da3e 30ae 9ebd 37cc 37bf 99c2 3a3e
000002d0: 521e fdbd 508b a93e 7090 2cbe b721 003f
000002e0: c67a bebe ced8 513d 3be4 f23e 41b4 f8be
000002f0: ac8e 90be 7839 60bd 6e30 eabd 2400 a7be
00000300: 7fc3 e7be 8425 29bf 0e61 f33d 5c51 9fbe
00000310: 52f1 30be db53 70bd bc48 fabc 6a81 96be
00000320: f23b 263f 3da2 cfbe 88f1 8abe 8b3b 29be
00000330: b52b 8dbd c085 243d 0af6 e43e 86a0 753e
00000340: aca2 38bd 5665 d6bd fbd5 74bf 9e58 e1be
00000350: 194e e9be baaa 58be fffc 3d3f 7c78 d43e
00000360: 3e86 a1bd 61ae 20bd 77d1 2b3d 63af e43d
00000370: f616 c03e 136f d93e 45e3 64bf 42b5 25be
00000380: 80af 163d 2b03 aabd bc3c 1b3c 48ae e73d
00000390: 1196 93bc 6311 4abe c9dd 53bd de9e 6dbe
000003a0: 8912 8bbd b988 8abf 6f46 273f ed6d 4b3f
000003b0: 26e8 37be 0112 66be 6ab3 a13a b5b8 babe
000003c0: c5e7 0f3f 84ab 4cbe 82d2 903d 3c03 b2be
000003d0: 8688 b43d a831 763f 1afb cabd 6220 c4bd
000003e0: e982 35be 2b88 153f b551 8bbe fea9 3d3d
000003f0: c1b2 2abe 4dd4 26be 0331 4abf 4270 4ebe
-0.0062344987 -0.38934454 0.7302766 1.439155 0.038667783 0.8002287 1.4800103 1.9279513
0.38219845 0.3954475 0.13756603 -0.19667135 0.7479453 0.53746027 0.028434223 -0.6422777
-0.31034786 0.9104649 0.5975514 0.49465254 -0.7487572 0.60900676 0.48035264 0.6630683
-0.06625779 0.9260088 0.12515776 0.56255156 0.05824374 0.6900124 0.0817668 0.94404227
-0.027764758 0.4885926 0.054767266 0.24788582 1.3047996 0.20646885 0.4495358 0.50183916
0.6378473 0.02859851 0.3997497 0.25180295 -0.29709116 1.5417635 0.9331809 1.0125613
0.3528191 -0.07289668 -0.34852555 0.58122593 -0.33289033 -0.48820233 0.45834923 -0.23758027
0.69970745 0.4148331 -1.2379979 0.38668707 0.6463662 -0.5783035 0.33954352 -1.4239693
0.3793585 -0.11334697 -0.13957031 -0.36553907 -0.104522966 -0.20444071 -0.23484278 0.104885556
-0.1687666 -0.7463243 -0.4138531 -0.25755414 0.014945726 -0.21754467 0.5384722 -0.17813118
-0.06159726 -0.15992905 -0.118458994 0.14895143 0.41539246 -0.15543048 -0.18209368 -0.5337628
-0.020300828 0.28045335 0.15906195 0.19527377 -0.33999604 -0.764969 0.239922 0.32758436
0.40926287 0.058874294 -0.045641366 0.31106547 -0.1152592 -0.32066944 -0.115827605 0.17683035
1.0047052 0.2707218 -0.26283902 0.27572113 0.20040639 -0.21173419 -0.19627552 0.121293515
-0.03751425 0.5758043 -0.113262765 -0.12405157 -0.44400918 0.23985234 0.027681181 1.0156183
0.04837859 0.7830234 -0.15572621 -0.3474487 -0.44885713 -0.19432239 0.15188399 -0.057610974
0.74115527 -0.8570321 -0.24679568 -0.40036806 -0.22963214 0.004454395 -0.24825984 -0.38704303
0.037355874 -0.15942934 0.13733956 0.42159215 -0.07496517 -0.21731323 -0.4703397 0.20986864
-0.08006557 0.50117433 -0.24810788 -0.17026784 0.04767063 -0.5713284 0.43947074 0.77122295
-0.019071946 -0.17585807 0.042271916 -0.68894345 -0.045299944 0.65736425 -0.5138404 -0.38922933
0.46661076 -0.09388802 -0.47245416 -0.6842976 -0.296594 -0.41001692 -0.28786737 0.18136157
-0.086374134 0.38165158 -0.48918033 0.6690713 -0.011086728 0.29710838 0.027447466 0.4383655
0.42769086 -0.077480674 -0.7179598 0.18238296 -0.12359299 0.331141 -0.16851974 0.50051445
-0.37203044 0.05123215 0.4743975 -0.48575023 -0.2823385 -0.054742306 -0.114350185 -0.32617295
-0.4526634 -0.6607287 0.11883746 -0.3111676 -0.17279556 -0.05867372 -0.03055226 -0.2939561
0.6493522 -0.40553465 -0.271374 -0.1652662 -0.06893102 0.040166616 0.44718963 0.23987016
-0.04507701 -0.10468547 -0.9563901 -0.44012922 -0.45567396 -0.21158877 0.74214166 0.41498172
-0.07886933 -0.0392288 0.041947808 0.11166265 0.37517518 0.42467555 -0.89409286 -0.16182426
0.036788464 -0.083013855 0.009474929 0.113125384 -0.018015893 -0.19733195 -0.051725183 -0.23205134
-0.06790645 -1.0822974 0.6534185 0.7946461 -0.17959651 -0.22467805 0.0012336795 -0.36469045
0.5621303 -0.19987303 0.07071401 -0.34768093 0.08815102 0.9616952 -0.09911175 -0.09576489
-0.1772572 0.584109 -0.27210775 0.046304695 -0.16669752 -0.16291924 -0.78981036 -0.2016001

fc2.bias f4 [24]
00000000: 9fa0 223f 4d9f 96bd 7d56 e3bd 55e7 3ebd
00000010: 593c 61be 3c0c 0abe 8982 91bc 71a6 aabd
00000020: 1c98 893d f8a5 113e 65b2 11be b047 c13d
00000030: ca22 173e 2619 acbd 6182 373d 444f e9bd
00000040: 9b07 8b3d 5227 4f3c 52cd ddbd ff4e a5bd
00000050: 0d3f cbbc 673a 1ebd dd52 35be f51d b5bb
0.6352634 -0.07354603 -0.11100481 -0.046607334 -0.21995677 -0.1348123 -0.01776244 -0.083325274
0.06718466 0.14223468 -0.14228208 0.094375014 0.14759365 -0.08403234 0.044802073 -0.11392072
0.0678856 0.012643652 -0.10830177 -0.08071708 -0.024810338 -0.038629916 -0.17707391 -0.005527253

bn1.weight f4 [64]
00000000: 3603 e93f baf7 1140 a147 b43f b644 f13f
00000010: b42d d83f d3a3 ac3f 3f2e f83f fff3 0c40
00000020: b9d7 ed3f 100a 1140 60f6 1540 faac cd3f
00000030: 43ee b43f e205 9d3f ea87 0b40 5c11 0d40
00000040: 42b4 bd3f a0f3 af3f 6f89 1740 bf2d db3f
00000050: b406 0140 fc6a be3f b428 f93f c747 fc3f
00000060: 43fc af3f 96ab da3f a466 b13f cd5d d83f
00000070: b406 bb3f ac71 0140 329b 0340 280d d23f
00000080: 57a2 f13f e646 e83f a968 8f3f eac1 cb3f
00000090: a8e6 cb3f 5327 e43f f745 d13f a5c4 0640
000000a0: 95e2 db3f 43f9 0c40 2df1 0040 f4eb f43f
000000b0: c434 a83f f1a3 f43f 6c23 a93f 02fb c83f
000000c0: faae 1b40 1060 e63f 35cb 0240 f740 bc3f
000000d0: bc9e ca3f 2948 cb3f 1272 a13f 07ce 1340
000000e0: 8761 d33f ded6 c93f 02c6 ee3f 4256 ef3f
000000f0: 7c24 e53f 1c82 d33f 93ff e73f e35a 0340
1.8204105 2.280745 1.408436 1.8849094 1.6888947 1.3487495 1.9389113 2.2023923
1.8581458 2.2662392 2.3431625 1.6068413 1.4135212 1.226742 2.1801705 2.2041845
1.4820635 1.3746223 2.3677633 1.7123336 2.0160341 1.4876399 1.9465547 1.9709405
1.3748859 1.7083614 1.3859448 1.6903626 1.4611421 2.022563 2.0563474 1.6410265
1.8877667 1.8146636 1.1203815 1.5918553 1.5929766 1.7824501 1.6349477 2.1057522
1.7178522 2.2027137 2.0147202 1.9134507 1.3141103 1.9112531 1.3213935 1.5701602
2.4325547 1.7998066 2.0436528 1.4707326 1.5829692 1.5881397 1.2612936 2.30945
1.6514138 1.5768697 1.8654177 1.8698199 1.7901759 1.6524081 1.812487 2.0524223

bn1.bias f4 [64]
00000000: c850 f83d 71dd 583f 2543 3e3e 824e 843e
00000010: b8ed aa3e 2605 733e 6b60 783e ba67 113f
00000020: 18a7 e53e 98db 0a3f 44a4 dd3e b98d 513e
00000030: 58ec 3d3e 7486 5f3e dc06 d83e b338 1a3e
00000040: bf79 943d d2a3 cb3e a7b6 ef3e 770d c93e
00000050: 9f44 193f 7b2a ff3d 83e9 863e ba92 003f
00000060: a965 4e3e 29f5 763e f5bd 5d3e 59ae 5d3e
00000070: 2a97 3d3e 5f60 723e f07d b23e 42e6 913e
00000080: 2e32 a83e f1c8 a83e 5b12 5d3e 0f72 ce3e
00000090: 7c9e 563e e408 ea3e 488f 533e 845c 933e
000000a0: d3f7 ae3e f221 b53e d748 9e3e faa1 ea3d
000000b0: 9423 4b3e 74c7 853e 9b44 333e cd05 bc3d
000000c0: e8b2 fd3e 7f1d c73e 08a8 043f d542 1a3d
000000d0: b5a9 513e bd56 6abc 6ba5 2b3e 01e6 863e
000000e0: b09d 583e 633b 463e 1c33 223e 31db 753e
000000f0: addc 6c3e 15d8 a03e 2e0f b03e 18ab 503f
0.12124783 0.8471289 0.18580301 0.25841147 0.3338449 0.23732433 0.2425553 0.567989
0.44854045 0.54241323 0.43289387 0.20464219 0.18547189 0.21828634 0.42192733 0.15060692
0.07249784 0.39773422 0.4681904 0.39268085 0.5987033 0.124592744 0.2635003 0.50223887
0.20155968 0.24116959 0.21654494 0.2164854 0.18514696 0.23669575 0.34861708 0.28495985
0.32850784 0.32965806 0.21589033 0.40321395 0.20958894 0.45709908 0.20660126 0.2878152
0.3417345 0.3537746 0.30914947 0.11456676 0.1983779 0.26128733 0.1750664 0.09180794
0.49550557 0.3888969 0.51818895 0.037661392 0.20474894 -0.014302907 0.1676232 0.26347354
0.21153903 0.19358592 0.15839809 0.24009396 0.23131056 0.31414858 0.3438658 0.8151107

bn1.running_mean f4 [64]
00000000: 1e22 c840 365b c4be c8f5 c341 1d6d 923e
00000010: 6b83 7dc0 8f80 e7c1 b048 2842 1604 513f
00000020: e567 3ebf 36c9 76be da78 c3be da29 8dbe
00000030: 4752 243f 8757 3641 0697 eebe ab2b c7bf
00000040: aa4a a63f b845 333f 998b f7be 51b2 9340
00000050: fd81 d141 2376 95be a766 83bf d881 aebe
00000060: 6451 0441 70c8 be3e bc31 6241 b41d 2a3f
00000070: dfd3 e0be 845a 97be 773e 70be 108d 2d3e
00000080: 91c7 7bbf 70d6 c7c2 e640 8741 e657 3abe
00000090: 3f6f f73e 1b06 65c1 43dd be40 483a 59bd
000000a0: d661 4abe 12be 03bf d89b 0cbf 2a6c 64bf
000000b0: 5962 5942 94ff 5ebe 76a3 1c3e 8881 4941
000000c0: ed6a 8bbf 01a5 ffbe 6009 013c daac eebd
000000d0: c8ec 8bbf d780 0ac0 5f27 e2c0 d3ab 9ebf
000000e0: 6a8f 9740 d0e3 3841 572e 04c0 3b9d 1dbf
000000f0: c480 87bd f543 b43f 48da 04bf 6595 c240
6.2541647 -0.38350838 24.49501 0.28598872 -3.961146 -28.937773 42.070984 0.8164686
-0.7437728 -0.24100193 -0.3817814 -0.27570993 0.64188045 11.396369 -0.46599597 -1.5560201
1.2991536 0.7002826 -0.48348692 4.615517 26.18847 -0.29191694 -1.0265702 -0.34083438
8.269871 0.37262297 14.137142 0.66451573 -0.43911645 -0.29561245 -0.23461328 0.16948342
-0.9835139 -99.91882 16.906689 -0.18197593 0.48327062 -14.313991 5.9645095 -0.053034097
-0.19763884 -0.514619 -0.549253 -0.89227545 54.346043 -0.21777183 0.1529673 12.594124
-1.0892006 -0.49930575 0.00787577 -0.116540626 -1.0931635 -2.1641138 -7.067306 -1.2396187
4.7362566 11.555618 -2.0653284 -0.6156804 -0.06616357 1.4083239 -0.5189557 6.0807366

bn1.running_var f4 [64]
00000000: 3dca 5f41 cc93 c43f 3d7e 4443 e3f1 683f
00000010: ae31 e640 c18b 8443 f0ea 0c44 034d 0a40
00000020: 0ad4 8d3f 89b5 383f 4f37 363f 3492 af3f
00000030: a462 8e3f 479c 4642 481f 463f 00a2 a33f
00000040: 74ab 2140 a739 1e40 4124 4d3f c705 f440
00000050: 20b0 5c43 40f5 5c3f 5003 563f 27fc 363f
00000060: 7c95 a741 4ab7 853f b9cf 8442 414f 843f
00000070: f87e 533f 9b52 2e3f 4e97 523f a560 923f
00000080: 9fdb 9e3f 2984 4745 2483 be42 484f 5c3f
00000090: 2023 873f dfd6 8542 4454 3841 0f3c 383f
000000a0: 8e84 6f3f 8e31 2c3f 35ab 1c3f ddba 273f
000000b0: 2b23 6b44 3c65 c73f 4db7 b33f 590b 6942
000000c0: 0350 7a3f 4412 3e3f 4a7e a63f 04bc 673f
000000d0: 885d ca3f fd0c f83f 07d4 8641 fd31 7a3f
000000e0: 9883 3741 eafa 4342 ed37 1f40 fcbb 553f
000000f0: 04d2 043f 428c 0a40 0473 243f 67c7 4741
13.986875 1.5357604 196.49312 0.9099409 7.1935644 265.09183 563.6709 2.1609504
1.1080334 0.72152 0.71178144 1.3716493 1.1123853 49.652615 0.7739148 1.2783813
2.5260897 2.4722688 0.80133444 7.6257052 220.68799 0.8631172 0.83598804 0.71478504
20.94799 1.044656 66.40571 1.0336686 0.82615614 0.68094796 0.8226212 1.1435744
1.2410773 3192.26 95.256134 0.86058474 1.0557594 66.91967 11.520573 0.7196664
0.9356164 0.67263114 0.6119874 0.65519506 940.5495 1.5577769 1.4040314 58.26108
0.9777834 0.7424662 1.300729 0.90521264 1.5809793 1.9378964 16.853529 0.97732526
11.469627 48.995033 2.4877884 0.83489966 0.5188296 2.1648107 0.64238 12.486182
