intent_classifier/intent_classifier.model (torch, 32272 bytes, 8 tensors)

fc1.weight f4 [64, 100]
0.0070670466 -0.022393372 0.25723106 0.12001565 -0.18997338 0.06569845 -0.056604885 -0.20334782
-0.22697999 -0.33742985 0.07975137 0.08801325 -0.06339483 -0.034765173 0.24973245 -0.25473443
-0.08978237 -0.16187 0.19519392 -0.06734392 -0.68454945 -0.23372623 -0.22962883 -0.024408245
-0.08080782 0.15770712 0.08813791 -0.47977266 -0.2173495 0.10360559 0.19860317 -0.08732415
-0.048853334 0.28913155 -0.056646414 0.33010638 -0.10543238 0.08524737 0.38218224 -0.15506141
0.33421817 0.07582582 0.3888278 -0.17492197 0.124128476 0.049417146 -0.1400925 0.17831972
0.13613182 0.1907636 0.070149384 -0.0067452877 0.09771089 -0.20130554 -0.031052046 0.26008335
-0.1141752 0.24978039 -0.26830116 0.24812497 -0.32087836 -0.3719052 0.17119603 -0.28684765
0.24431762 -0.109361745 0.056150742 0.07553048 -0.17070404 0.03969893 -0.07110726 -0.28651714
0.1065977 0.32376704 -0.07190758 -0.53849685 -0.1415793 -0.07890332 -0.7136933 0.053927805
0.0527748 0.587667 -0.18482028 0.030732883 -0.2416469 -0.3037826 0.13834521 -0.45533514
0.02068576 -0.28466007 -0.2511637 -0.12635645 -0.04954611 -0.0968486 -0.022835322 -0.031571664
0.36105514 0.49678546 -0.044284742 -0.060112406 -0.13957697 -0.32578358 0.016226057 -0.07270575
-0.3620469 0.27831525 -0.3398691 -0.18181631 0.06975704 0.015484968 -0.12564325 0.042403203
-0.006899486 0.33543932 -0.06537009 -0.0010341286 0.18964022 0.050620213 0.020508977 0.07914216
0.17178282 0.2535713 -0.05881907 0.13386744 -0.16020764 -0.39658198 0.12205063 -0.021444565
0.46485627 -0.11173788 0.081211545 -0.20813328 0.2092193 0.42596895 -0.27213627 -0.05537407
0.20101947 -0.09582214 -0.2732241 -0.035837602 0.24198587 0.035027627 -0.14115447 0.15059249
-0.009880923 -0.079620115 0.26035455 0.121864244 0.15819597 -0.086371444 -0.13023365 0.015409801
-0.026672974 -0.22220735 0.103410594 0.1353294 -0.020198895 0.18212046 0.05797293 0.00443799
0.050974872 -0.14148363 -0.19310845 -0.07592659 -0.10616008 0.15600665 0.0348053 -0.041351266
-0.2733105 0.27912876 0.3256566 -0.25834164 0.106656395 0.010266671 -0.016034218 -0.274655
0.1569032 0.07223162 -0.08675279 0.07663357 0.24429494 -0.21260437 -0.031401012 0.081457034
-0.14718658 0.10625126 0.024724456 -0.2512516 -0.29302534 0.08325826 0.35010782 0.08676069
-0.15699533 0.14700006 -0.06497173 -0.05657225 0.021795567 -0.07207334 -0.09401839 0.26063755
-0.24223739 0.13997209 -0.042233247 -0.15823394 0.06802806 0.010561636 0.06287892 -0.07463539
-0.04633875 0.3041302 0.12062784 0.28645787 0.043000672 -0.07150896 0.17994826 0.1288507
-0.093886904 0.07997652 0.13044699 -0.1243943 0.17380504 -0.049635667 0.018566601 -0.07465308
0.04302343 0.009215385 -0.06824682 0.042660404 0.13853168 -0.038775165 -0.15126535 -0.09849556
-0.06316552 0.30204383 0.36129165 0.04315453 0.13903639 0.10642066 -0.18640497 0.079813026
-0.07690831 0.089735396 0.009006075 0.27589643 0.10363094 -0.00932787 0.05918164 -0.051240318
0.19141833 -0.036420733 -0.0077602426 0.0032205482 -0.00998194 -0.39438522 0.046203196 -0.015343614
00000000: af92 e73b 4e72 b7bc cab3 833e c4ca f53d
00000010: 6288 42be e98c 863d 86da 67bd 693a 50be
00000020: 716d 68be 9bc3 acbe b054 a33d 4a40 b43d
00000030: 26d5 81bd ed65 0ebd ddb9 7f3e 8d6c 82be
00000040: d2df b7bd 40c1 25be eae0 473e 9ceb 89bd
00000050: a23e 2fbf ee55 6fbe d223 6bbe cdf3 c7bc
00000060: 927e a5bd fa7d 213e a681 b43d c3a4 f5be
00000070: de90 5ebe 2b2f d43d a15e 4b3e 01d7 b2bd
00000080: 6f1a 48bd 0d09 943e 1206 68bd b403 a93e
00000090: efec d7bd 2c96 ae3d 64ad c33e 6bc8 1ebe
000000a0: a51e ab3e 914a 9b3d 7014 c73e bf1e 33be
000000b0: 1237 fe3d a269 4a3d 6974 0fbe 7299 363e
000000c0: 2466 0b3e 8857 433e 7baa 8f3d 9307 ddbb
000000d0: a61c c83d 0a23 4ebe dc60 febc a529 853e
000000e0: b0d4 e9bd 6ec6 7f3e c55e 89be 7914 7e3e
000000f0: 2b4a a4be 5c6a bebe 034e 2f3e b2dd 92be
00000100: 662e 7a3e 0df9 dfbd 52fe 653d b9af 9a3d
00000110: 0acd 2ebe 589b 223d afa0 91bd 60b2 92be
00000120: e54f da3d cbc4 a53e 4844 93bd eeda 09bf
00000130: 2afa 10be 1098 a1bd 9bb4 36bf 67e3 5c3d
00000140: 642a 583d 5871 163f 8741 3dbe 87c3 fb3c
00000150: 4972 77be 6589 9bbe 5eaa 0d3e b021 e9be
00000160: 2f75 a93c f7be 91be 8798 80be 9663 01be
00000170: ddf0 4abd 8f58 c6bd 2411 bbbc 4a51 01bd
00000180: 38dc b83e aa5a fe3e eb63 35bd 6d38 76bd
00000190: 44ed 0ebe 1bcd a6be 82ec 843c c1e6 94bd
000001a0: 365e b9be 567f 8e3e 5303 aebe 0e2e 3abe
000001b0: c7dc 8e3d aab4 7d3c a0a8 00be fbae 2d3d
000001c0: 1515 e2bb b4be ab3e c1e0 85bd 998b 87ba
000001d0: 0c31 423e 2457 4f3d 7102 a83c 4915 a23d
000001e0: d6e7 2f3e 19d4 813e 44ec 70bd 8c14 093e
000001f0: 790d 24be cb0c cbbe aef5 f93d 83ac afbc
00000200: a401 ee3e d4d6 e4bd 3d52 a63d e420 55be
00000210: 963d 563e 9a18 da3e 7255 8bbe eccf 62bd
00000220: 0cd8 4d3e 663e c4bd 07e4 8bbe 73ca 12bd
00000230: 25cb 773e 2179 0f3d cc8a 10be eb34 1a3e
00000240: 98e3 21bc df0f a3bd 314d 853e f693 f93d
00000250: 20fe 213e 83e3 b0bd f85b 05be 6479 7c3c
00000260: 4881 dabc 538a 63be efc8 d33d ca93 0a3e
00000270: 2778 a5bc c97d 3a3e 0675 6d3d 8f6c 913b
00000280: 07cb 503d 16e1 10be 39be 45be 667f 9bbd
00000290: 756a d9bd 35c0 1f3e 0190 0e3d f25f 29bd
000002a0: 5bef 8bbe f7e9 8e3e 76bc a63e 5b45 84be
000002b0: ab6e da3d 8a35 283c 315a 83bc 959f 8cbe
000002c0: 3cab 203e 2cee 933d 72ab b1bd 10f2 9c3d
000002d0: 7428 7a3e f6b4 59be 599e 00bd f2d2 a63d
000002e0: 14b8 16be 439a d93d f18a ca3c 0da4 80be
000002f0: 6b07 96be 4e83 aa3d 5541 b33e 97af b13d
00000300: 62c3 20be 2f87 163e e60f 85bd 4eb8 67bd
00000310: 9e8c b23c 309b 93bd b78c c0bd 4972 853e
00000320: 140d 78be d854 0f3e c5fc 2cbd 1408 22be
00000330: 4c52 8b3d b60a 2d3c aac6 803d 70da 98bd
00000340: b3cd 3dbd f4b6 9b3e bb0b f73d 9baa 923e
00000350: 7921 303d 4a73 92bd 5b44 383e 70f1 033e
00000360: c747 c0bd bbca a33d e593 053e 70c2 febd
00000370: f3f9 313e c54e 4bbd fc18 983c b7e3 98bd
00000380: 5639 303d 20fc 163c fdc4 8bbd adbc 2e3d
00000390: 40db 0d3e b5d2 1ebd 4ee5 1abe 0ab8 c9bd
000003a0: ed5c 81bd 7da5 9a3e 38fb b83e cec2 303d
000003b0: 8e5f 0e3e 13f3 d93d f2e0 3ebe 0375 a33d
000003c0: 1b82 9dbd 31c7 b73d 378e 133c 4c42 8d3e
000003d0: 753c d43d ecd3 18bc 7368 723d 5ee1 51bd
000003e0: 2b03 443e e82d 15bd a249 febb d50f 533b
000003f0: 4a8b 23bc dcec c9be 903f 3d3d c863 7bbc

fc1.bias f4 [64]
-0.008874431 0.048618004 -0.09975316 0.05471907 0.08205125 -0.044164017 0.07319309 0.07422623
0.047939282 0.0064593195 0.07714224 0.04115069 -0.0129731065 0.0789991 -0.08334378 -0.039080046
-0.09288229 0.060246497 0.06675079 0.09600191 -0.09786049 0.028279386 -0.051016174 -0.049371287
-0.06316586 -0.0980185 -0.029893432 0.055115923 0.0014747202 -0.046459347 -0.0156369 -0.054148845
-0.040575504 0.08447404 -0.076213434 0.03929605 -0.08807069 0.0005603623 0.033557896 -0.005663877
0.080317274 0.02432557 -0.01888484 -0.08623807 -0.06461854 0.049929354 0.06558825 0.07021229
-0.024582183 -0.07002401 0.08922233 -0.08432576 0.037600823 0.05162585 0.039530918 0.08377742
0.005375397 -0.080676645 -0.012590593 0.007708202 -0.019180633 0.038826205 0.049017977 -0.04336703
00000000: 1066 11bc ac23 473d 624b ccbd 1b21 603d
00000010: 7c0a a83d 54e5 34bd 42e6 953d ec03 983d
00000020: fb5b 443d b3a8 d33b c0fc 9d3d a08d 283d
00000030: 278d 54bc 48ca a13d 25b0 aabd 6612 20bd
00000040: 1239 bebd 08c5 763d a3b4 883d a69c c43d
00000050: 156b c8bd 2caa e73c 56f6 50bd 8c39 4abd
00000060: 1a5d 81bd ecbd c8bd 12e3 f4bc 3cc1 613d
00000070: 664b c13a 284c 3ebd f518 80bc 2ecb 5dbd
00000080: 8032 26bd ba00 ad3d ca15 9cbd e5f4 203d
00000090: 685e b4bd 47e5 123a 0174 093d 0b98 b9bb
000000a0: 627d a43d 6b46 c73c 61b4 9abc 969d b0bd
000000b0: ba56 84bd b982 4c3d 2253 863d 76cb 8f3d
000000c0: 9360 c9bc c068 8fbd 32ba b63d fcb2 acbd
000000d0: 5203 1a3d a175 533d 2ceb 213d 7f93 ab3d
000000e0: 1924 b03b cc39 a5bd c648 4ebc 1695 fc3b
000000f0: b420 9dbc 3a08 1f3d 13c7 483d a0a1 31bd

fc2.weight f4 [9, 64]
1.0503317 0.35183388 0.19750094 -0.10874233 1.0374123 1.0082037 -0.0083612455 0.58985025
-0.6123559 0.67263484 0.21855626 0.92315197 0.2617417 0.40444356 0.92949736 0.4796849
0.6588914 -0.12891482 -0.10994751 0.72997534 0.46754783 0.45779032 0.50753164 0.4177656
0.7347652 -0.19238782 0.30140156 0.31018493 0.5296676 0.6313302 0.623399 0.07138276
0.20168495 0.3404846 0.5733033 0.31681955 0.75583106 1.3769535 0.789126 0.12178511
0.51639265 0.5489287 1.2529082 -0.06843407 0.6345893 1.2564507 0.66682726 0.92765045
1.1288583 0.7028624 0.15966064 0.3812882 0.18686484 0.42388365 0.9508691 -0.39589378
0.54391104 0.4095863 0.60686946 -0.010802823 0.28740418 0.029619265 -0.29431948 0.9155142
-0.24279082 -0.32826075 -0.3217288 -0.1435596 -0.079047084 -0.3814716 -0.6998976 -0.31126884
0.5179923 -0.4264394 -0.20580024 -0.20291251 -0.2620692 0.00032979585 -0.21247037 -0.21153851
-0.38882947 1.3842704 -0.43841678 -0.33156854 -0.21262263 -0.001042187 -0.3756943 -0.33652708
-0.2656734 0.36408725 -0.2517205 -0.122186475 -0.28140593 0.122266226 -0.22588055 -0.93855554
-0.5598181 -0.25612006 -0.17865762 0.21108669 -0.7061194 -0.25102687 -0.117525026 0.31479645
-0.21482924 -0.4805657 -0.33311832 1.2781606 -0.15616502 -0.40915883 0.6298581 -0.072176926
-0.14337201 0.008641379 -0.39325857 -0.07847299 0.2854953 0.9761412 -0.18558262 -0.40551534
1.0871224 -0.2930411 -0.036269877 -0.7222951 0.11624782 -1.0023669 -0.42073548 -0.46224874
-0.16255598 -0.22089858 0.30675882 0.10003048 -0.34285596 0.21436587 0.4462985 -0.38644898
0.23454495 0.60907793 -0.05663251 -0.30214325 0.3483903 0.29408556 -0.021679008 -0.6894231
-0.72088045 -0.5463483 0.5818922 0.61773616 -0.70525485 0.08098263 -0.2592276 0.406597
-0.41479248 0.29909983 -0.5262827 0.13122296 0.26080576 -0.8814793 -0.24045351 -0.43101496
-0.4261703 -0.24518847 0.030722538 0.6088967 0.7569842 -0.13025767 1.0105163 -0.19550952
0.18689625 -0.256391 -0.1763331 0.33986068 -0.44540757 -0.05955082 0.35084978 0.007069117
-0.25651687 -0.7338435 0.61656994 -0.36799392 -0.11803321 0.26288003 -0.2606741 -0.71814084
-0.44061735 -0.5303826 0.14635627 0.2160021 0.81984407 0.43119657 -0.09399546 0.10554386
-0.33028302 -0.4207319 0.423584 0.56817347 -0.6239657 0.34241748 -0.04432548 0.3533856
-0.6038482 1.1044376 -0.44156438 -0.25473845 -0.8640955 0.79978657 0.07511296 0.008927233
-0.12414161 -0.4756525 0.80110276 -0.49092978 -0.10013133 0.27779615 -0.08041511 -0.45312643
-0.401548 0.1352477 0.073961206 -0.4978029 -0.11610549 0.4057076 -0.060020257 -0.32043177
-0.47574908 0.045040112 0.64397717 -0.46277502 -0.29564133 -0.3166034 -0.6142187 -0.29565734
-0.20522216 -0.19792953 0.007326667 0.16649322 -0.07811409 -0.3291534 -0.7128085 -0.19623473
-0.29332602 0.18967943 -0.16195515 0.59876215 -0.5876312 -0.5615522 -0.3247669 0.8577258
-0.72264653 0.23098184 -0.020096395 -0.4719398 0.32088023 0.20227696 0.0692183 1.0046514
00000000: 4571 863f 9223 b43e b03d 4a3e 4cb4 debd
00000010: edc9 843f d20c 813f 9bfd 08bc 6d00 173f
00000020: 5bc3 1cbf cc31 2c3f 36cd 5f3e b053 6c3f
00000030: 0203 863e 3a13 cf3e 8af3 6d3f 4299 f53e
00000040: 1bad 283f 3f02 04be 292c e1bd aadf 3a3f
00000050: 6e62 ef3e 7e63 ea3e 98ed 013f 5fe5 d53e
00000060: 9219 3c3f 5001 45be 4e51 9a3e 8fd0 9e3e
00000070: 4c98 073f db9e 213f 1497 1f3f 2031 923d
00000080: 8086 4e3e ff53 ae3e 01c4 123f 2c36 a23e
00000090: 257e 413f 0340 b03f 2904 4a3f 796a f93d
000000a0: 4f32 043f 9786 0c3f 4c5f a03f 2927 8cbd
000000b0: 7274 223f 60d3 a03f 31b5 2a3f 807a 6d3f
000000c0: 6e7e 903f caee 333f 147e 233e 3538 c33e
000000d0: 7f59 3f3e 4707 d93e 286c 733f 97b2 cabe
000000e0: c13d 0b3f 4cb5 d13e cc5b 1b3f 53fe 30bc
000000f0: a426 933e 1aa4 f23c 0bb1 96be 235f 6a3f
00000100: 289e 78be cb11 a8be a3b9 a4be 4a01 13be
00000110: 70e3 a1bd 3f50 c3be 7d2c 33bf a15e 9fbe
00000120: 259b 043f 4456 dabe 4cbd 52be 4cc8 4fbe
00000130: ef2d 86be 73e8 ac39 d591 59be 8d9d 58be
00000140: a814 c7be c62f b13f 2a78 e0be 5ac3 a9be
00000150: bfb9 59be fe99 88ba 015b c0be 474d acbe
00000160: 5806 88be a569 ba3e 82e1 80be e73c fabd
00000170: 7014 90be b766 fa3d 3b4d 67be 2d45 70bf
00000180: 3d50 0fbf 2b22 83be 06f2 36be 1c27 583e
00000190: 3ec4 34bf 9886 80be f6b0 f0bd 002d a13e
000001a0: 32fc 5bbe b50c f6be 7c8e aabe c49a a33f
000001b0: b9e9 1fbe 447d d1be 613e 213f 7fd1 93bd
000001c0: 1dd0 12be 9294 0d3c 3059 c9be 72b6 a0bd
000001d0: 712c 923e 64e4 793f 5f09 3ebe b59f cfbe
000001e0: d426 8b3f 7c09 96be b98f 14bd 55e8 38bf
000001f0: 5613 ee3d 8f4d 80bf a46a d7be deab ecbe
00000200: 1375 26be 3d33 62be 7e0f 9d3e c8dc cc3d
00000210: d18a afbe ba82 5b3e 3d81 e43e a4dc c5be
00000220: 8d2c 703e 88ec 1b3f 7ef7 67bd 85b2 9abe
00000230: 3760 b23e 6292 963e 2d98 b1bc 087e 30bf
00000240: 9f8b 38bf 7bdd 0bbf e3f6 143f f523 1e3f
00000250: 958b 34bf 39da a53d 7bb9 84be 7b2d d03e
00000260: ae5f d4be 9d23 993e 77ba 06bf 505f 063e
00000270: 5588 853e a1a8 61bf 7239 76be fead dcbe
00000280: fe32 dabe b012 7bbe d5ad fb3c a7e0 1b3f
00000290: b7c9 413f 4462 05be 9958 813f a633 48be
000002a0: bb61 3f3e ae45 83be aa90 34be 3802 ae3e
000002b0: 760c e4be 90eb 73bd 95a2 b33e 0da4 e73b
000002c0: 2e56 83be 2bdd 3bbf 87d7 1d3f b369 bcbe
000002d0: 65bb f1bd 3698 863e 1377 85be 14d8 37bf
000002e0: 9998 e1be 27c7 07bf 6bde 153e a82f 5d3e
000002f0: 4de1 513f ccc5 dc3e b180 c0bd 6127 d83d
00000300: db1a a9be 2c6a d7be 01e0 d83e d173 113f
00000310: 37bc 1fbf 5851 af3e a28e 35bd f5ee b43e
00000320: cc95 1abf 365e 8d3f ba14 e2be 146d 82be
00000330: 5d35 5dbf d0be 4c3f d3d4 993d 8743 123c
00000340: f53d febd b988 f3be 1215 4d3f 265b fbbe
00000350: a811 cdbd 4c3b 8e3e adb0 a4bd 3000 e8be
00000360: b397 cdbe 607e 0a3e f978 973d 06e0 febe
00000370: b7c8 edbd e8b8 cf3e cdd7 75bd a20f a4be
00000380: 6295 f3be fb7b 383d b0db 243f d9f0 ecbe
00000390: 4d5e 97be d719 a2be 703d 1dbf 6660 97be
000003a0: c225 52be 0aae 4abe 8a14 f03b 337d 2a3e
000003b0: 48fa 9fbd cb86 a8be 9e7a 36bf c2f1 48be
000003c0: d42e 96be 533b 423e 92d7 25be 7a48 193f
000003d0: 006f 16bf e3c1 0fbf d947 a6be eb93 5b3f
000003e0: 5dff 38bf 8186 6c3e 32a1 a4bc 18a2 f1be
000003f0: 6a4a a43e b121 4f3e 53c2 8d3d 6b98 803f

fc2.bias f4 [9]
0.43154776 -0.034402747 -0.33158568 -0.28429422 -0.039721567 -0.20156871 0.2270365 -0.14528139
0.08025943
00000000: d4f3 dc3e e5e9 0cbd 99c5 a9be 038f 91be
00000010: 15b3 22bd 0768 4ebe 427c 683e a5c4 14be
00000020: 0e5f a43d

bn.weight f4 [64]
1.3763916 1.2672611 1.1141827 1.435587 1.4540116 1.3125925 1.9996067 1.2977952
1.5209132 1.5142574 1.2852436 1.4058948 1.259001 1.1309359 1.1996713 1.4844222
1.4330444 2.0088136 1.4705627 1.4611285 1.1960189 1.0520692 1.1807064 1.0483848
1.3530481 0.98240274 1.0976833 1.1441123 1.2742242 1.7461579 1.0686585 1.6329406
1.9300622 0.93895346 1.0441408 1.1253216 1.3724431 1.6132776 1.4981502 1.0994864
1.0758935 1.5234752 1.5643954 1.751992 1.2198032 1.3597473 1.3619628 1.2599826
1.4990591 1.0984557 1.2167954 1.4851576 1.1074941 1.46788 1.2166822 1.5967677
1.8567476 1.203227 1.1394483 1.8158976 1.4171629 1.012439 1.0999364 1.5196475
00000000: 9a2d b03f 9d35 a23f 8a9d 8e3f 51c1 b73f
00000010: 0d1d ba3f 0803 a83f 1df3 ff3f 271e a63f
00000020: 49ad c23f 30d3 c13f dd82 a43f 5cf4 b33f
00000030: f226 a13f 82c2 903f d48e 993f 8c01 be3f
00000040: 006e b73f 6790 0040 663b bc3f 4206 bb3f
00000050: 2617 993f 34aa 863f 6321 973f 7931 863f
00000060: ae30 ad3f bf7e 7b3f e380 8c3f 4672 923f
00000070: c719 a33f 1a82 df3f cdc9 883f 3304 d13f
00000080: 470c f73f 415f 703f 68a6 853f 8a0a 903f
00000090: 37ac af3f e17f ce3f 63c3 bf3f f8bb 8c3f
000000a0: e1b6 893f 3c01 c33f 1c3e c83f 4641 e03f
000000b0: 8322 9c3f 330c ae3f cc54 ae3f 1c47 a13f
000000c0: 2be1 bf3f 329a 8c3f f4bf 9b3f a519 be3f
000000d0: 5ec2 8d3f 7ee3 bb3f 3ebc 9b3f e262 cc3f
000000e0: e8a9 ed3f 5803 9a3f 71d9 913f 556f e83f
000000f0: 9865 b53f 9a97 813f b7ca 8c3f cf83 c23f

bn.bias f4 [64]
0.51159286 0.18140012 -0.0065343836 -0.05032649 0.4605835 0.65885067 0.39108223 0.3427477
0.101724714 0.09820057 0.004060122 0.29656854 0.008150256 0.064456314 0.54475385 0.2433749
0.5974464 0.3537624 -0.059607815 0.28809777 0.18862303 0.015215807 0.24758531 0.16250388
0.26807517 -0.18781711 0.07672357 0.10119613 0.17950082 0.5244888 0.45958057 0.8838109
0.37742537 0.1161726 0.5053825 0.007882874 0.33545336 0.76141477 0.05772521 0.036312778
0.084255084 0.2681788 0.62925196 0.047093116 0.50604653 0.92337316 0.7575375 0.51421463
0.42317837 0.69177353 0.025547234 0.095141105 0.24825574 0.38945365 0.68429136 -0.071883105
0.5664444 0.11108503 0.01717481 0.15339877 0.15360548 -0.040322654 -0.03500471 0.5685628
00000000: c0f7 023f f4c0 393e 621e d6bb 2623 4ebd
00000010: 9ad1 eb3e 70aa 283f ee3b c83e a07c af3e
00000020: 0c55 d03d 611d c93d c60a 853b d5d7 973e
00000030: a788 053c ac01 843d fd74 0b3f 4537 793e
00000040: 3ff2 183f 5820 b53e 5327 74bd 8d81 933e
00000050: 6526 413e b84b 793c 0187 7d3e 6b67 263e
00000060: 2641 893e 2153 40be 3f21 9d3d eb3f cf3d
00000070: 10cf 373e e644 063f 254e eb3e 6e41 623f
00000080: e63d c13e e6eb ed3d bf60 013f 2c27 013c
00000090: 8bc0 ab3e 14ec 423f 4571 6c3d b5bc 143d
000000a0: ee8d ac3d bb4e 893e a816 213f b6e4 403d
000000b0: 448c 013f 2f62 6c3f faed 413f 92a3 033f
000000c0: d6aa d83e 1218 313f 6f48 d13c 57d9 c23d
000000d0: c136 7e3e 7866 c73e b82d 2f3f 7337 93bd
000000e0: 8002 113f 8c80 e33d 30b2 8c3c 9114 1d3e
000000f0: c14a 1d3e 5e29 25bd 1961 0fbd 558d 113f

bn.running_mean f4 [64]
0.47233483 -0.024315044 0.17688969 0.051182136 0.2909257 0.31710365 0.33657888 0.30634004
0.12429628 0.18766344 0.0087595 0.30030024 0.12124653 0.4234969 0.15664884 0.17249581
-0.0613253 0.2101587 0.4720165 0.27887958 0.11270316 0.15111563 -0.17533605 -0.23583725
0.13378665 0.17410095 -0.09403603 0.31202307 -0.23030382 0.29299185 -0.22750276 -0.0048012296
0.004130494 -0.07714746 0.067896694 0.15741345 -0.09078464 0.3990817 0.18587196 -0.074527256
-0.062298924 -0.060539395 0.28278673 0.0075188745 -0.1291021 -0.23338625 -0.11519694 0.42361572
0.3021278 -0.25845867 0.052940246 0.03017862 0.19012399 0.20926905 0.3273089 0.18973352
0.31069195 0.118458755 0.14125258 0.15400615 0.11249253 0.35684532 0.17379165 0.37004533
00000000: dfd5 f13e 5830 c7bc 9222 353e 5ca4 513d
00000010: 37f4 943e 695b a23e 1154 ac3e 9ad8 9c3e
00000020: 0c8f fe3d d82a 403e 0284 0f3c f4c0 993e
00000030: 1a50 f83d 96d4 d83e 8e68 203e bea2 303e
00000040: 3d30 7bbd d833 573e 26ac f13e 4ec9 8e3e
00000050: ead0 e63d 0ebe 1a3e 4b8b 33be 527f 71be
00000060: 5eff 083e 8547 323e f695 c0bd 7dc1 9f3e
00000070: c4d4 6bbe 0703 963e 7cf6 68be a253 9dbb
00000080: 1859 873b 7dff 9dbd 6c0d 8b3d fe30 213e
00000090: 4ced b9bd 7054 cc3e 3855 3e3e bfa1 98bd
000000a0: 282d 7fbd 28f8 77bd 6cc9 903e e460 f63b
000000b0: 5733 04be cefc 6ebe 60ec ebbd 29e4 d83e
000000c0: 7fb0 9a3e b254 84be dfd7 583d 2739 f73c
000000d0: ddaf 423e a04a 563e 0895 a73e 8149 423e
000000e0: 0413 9f3e 819a f23d 84a4 103e cab3 1d3e
000000f0: 7c62 e63d 6eb4 b63e 70f6 313e 9576 bd3e

bn.running_var f4 [64]
0.29798532 0.08218069 0.056329794 0.25794676 0.12370912 0.14113472 0.15781777 0.12344556
0.4494732 0.07674178 0.05138156 0.118506536 0.123142615 0.08277127 0.1569102 0.11671457
0.14938474 0.09032266 0.16003405 0.0876519 0.17425916 0.11131955 0.088138364 0.15099505
0.11008584 0.10985954 0.09599895 0.08587335 0.14354242 0.1070801 0.09032005 0.17309721
0.15912114 0.15468249 0.19770144 0.11256292 0.17525753 0.17641021 0.12491607 0.06427902
0.09325639 0.108469054 0.13847554 0.10897876 0.12321391 0.32815367 0.18225983 0.18522298
0.13629185 0.17555197 0.12202334 0.06468121 0.08575251 0.101969145 0.16933501 0.10343783
0.12848653 0.069620274 0.1073303 0.098593384 0.084597446 0.13688393 0.096854486 0.13920979
00000000: 8891 983e 594e a83d 12ba 663d 9911 843e
00000010: 355b fd3d 9f85 103e fb9a 213e 07d1 fc3d
00000020: 5a21 e63e cb2a 9d3d 7875 523d 8eb3 f23d
00000030: 3232 fc3d fc83 a93d 11ad 203e 0c08 ef3d
00000040: 50f8 183e 16fb b83d f7df 233e d782 b33d
00000050: fe70 323e 81fb e33d e381 b43d 729e 1a3e
00000060: af74 e13d 0afe e03d 199b c43d 5ede af3d
00000070: c9fc 123e d04c db3d b8f9 b83d 6540 313e
00000080: a7f0 223e 1665 1e3e 3f72 4a3e 6387 e63d
00000090: b676 333e e1a4 343e ffd3 ff3d b8a4 833d
000000a0: 35fd be3d 0625 de3d 88cc 0d3e 4230 df3d
000000b0: 9357 fc3d c203 a83e 52a2 3a3e 18ab 3d3e
000000c0: 1790 0b3e e5c3 333e 5fe7 f93d 9577 843d
000000d0: 039f af3d 33d5 d03d 2866 2d3e 37d7 d33d
000000e0: f991 033e 1395 8e3d fdcf db3d 54eb c93d
000000f0: 6d41 ad3d 4d2b 0c3e a55b c63d 038d 0e3e
