intent_classifier/intent_classifier.model (torch, 43338 bytes, 8 tensors)

fc1.weight f4 [64, 128]
0	0x3e09e1bb	0.13465016
1	0xbdfd463a	-0.1236691
2	0xbb87c3a1	-0.004143194
3	0x3e841876	0.25799912
4	0x3e54e410	0.20790124
5	0xbe201d98	-0.15636289
6	0x3e19a22c	0.1500327
7	0x3ece685f	0.40314004
8	0x3dd200db	0.102540694
9	0xbb4f7492	-0.0031655175
10	0xbe74e3a2	-0.2391496
11	0x3ceb2336	0.028703313
12	0x3d863bd5	0.06554381
13	0x3df92a8c	0.12166318
14	0x3d8b1330	0.06790769
15	0x3c8f069b	0.017459204
16	0xbe2ec4d2	-0.17067268
17	0x3e6c53cb	0.2307884
18	0xbdcd194d	-0.10014591
19	0x3ddaabe0	0.10677314
20	0xbe7adb8d	-0.24497814
21	0xbd9142db	-0.0709283
22	0xbcb07815	-0.021541635
23	0xbdd8d8d7	-0.10588234
24	0xbe5ab63a	-0.21358576
25	0xbd8c539d	-0.068518855
26	0xbd8c9906	-0.068651244
27	0xbd17f957	-0.037103023
28	0xbe569c63	-0.20958094
29	0x3db4d618	0.08829898
30	0x3db73e4c	0.08947429
31	0x3e006aea	0.12540784
32	0x3cb5512e	0.022133436
33	0x3d2ea8d2	0.04264147
34	0x3c1c96b5	0.009557416
35	0x3c9c6779	0.019092308
36	0x3cb0955e	0.021555599
37	0x3cf970df	0.030449329
38	0xbda54232	-0.080692664
39	0xbde0ab8a	-0.109702185
40	0xbd3b8013	-0.045776438
41	0x3de00034	0.10937539
42	0x3cb3ccb2	0.021948192
43	0xbd989117	-0.07449549
44	0xbda85a93	-0.08220401
45	0xbe34e293	-0.17664556
46	0xbdeb353b	-0.11484762
47	0xbd3c25ea	-0.045934595
48	0xbe5be0d9	-0.21472491
49	0x3db8aefc	0.090177506
50	0xbc2b3d1a	-0.0104515795
51	0xbdb7b86c	-0.089707226
52	0x3d1954a9	0.037434254
53	0xbcbf1b54	-0.02332846
54	0x3e184991	0.14871813
55	0xbdab62d5	-0.0836846
56	0xbe0615c4	-0.1309424
57	0x3df79fdc	0.12091038
58	0xbc9103e8	-0.017702058
59	0x3e097955	0.13425191
60	0xbde5a7cb	-0.112136446
61	0xbda668f5	-0.08125488
62	0xbd9b1025	-0.07571439
63	0xbdcd0ae4	-0.10011843
64	0x3da781e8	0.081790745
65	0xbddf4940	-0.10902643
66	0x3c1fc8c4	0.009752456
67	0x3e796228	0.2435385
68	0x3deb5898	0.11491507
69	0xbb5977a5	-0.0033182886
70	0xb8b29860	-8.5160835e-05
71	0x3dc8c214	0.098026425
72	0x3d7cb931	0.06170005
73	0x3d8c26d1	0.06843341
74	0x3e51bee1	0.20482971
75	0xbd41fb23	-0.047358643
76	0x3dfcc8f8	0.12343019
77	0xbdfe0d0e	-0.12404834
78	0x3dcfba4c	0.10142955
79	0x3dfe0008	0.1240235
80	0xbdf0c1ec	-0.11755738
81	0xbb58d591	-0.003308628
82	0xbd92f578	-0.07175726
83	0xbe7abed2	-0.24486855
84	0xbdd6eac4	-0.10493997
85	0x3d84776e	0.06468092
86	0xbe86cd23	-0.26328382
87	0x3e1cbc50	0.1530621
88	0x3d9e9d9e	0.07744907
89	0x3d586d43	0.052838575
90	0xbe2e43f0	-0.17018104
91	0xbcd2d5ba	-0.025736678
92	0xbe17ffb9	-0.14843644
93	0x3e29c2fd	0.16578288
94	0x3e318eea	0.17339674
95	0xbd08796a	-0.033318914
96	0xbe08f57d	-0.13374896
97	0x3e013b03	0.12620167
98	0xbccedab7	-0.025250776
99	0xbe2efbac	-0.17088193
100	0x3bb6605a	0.005565685
101	0xbd40ee80	-0.04710245
102	0xbc7de28d	-0.015495908
103	0xbd29dcbc	-0.041470274
104	0x3e64004c	0.22265738
105	0xbd4ea569	-0.050450716
106	0x3d657d9c	0.056027994
107	0xbd073d00	-0.03301716
108	0xbd913017	-0.070892505
109	0xbe531b96	-0.20615992
110	0xbca22d26	-0.01979692
111	0xbe1583a3	-0.14600997
112	0x3dee3602	0.11631395
113	0x3c94ce11	0.018164666
114	0xbd81c7c9	-0.06336934
115	0x3e227f80	0.1586895
116	0xbdec9d83	-0.115534805
117	0xbba0bc77	-0.0049052793
118	0xbc9ac9da	-0.018895078
119	0xbd0ea1e1	-0.03482235
120	0xbe35b1ae	-0.1774356
121	0xbccacea9	-0.024756746
122	0xbe0767df	-0.13223217
123	0xbdf958e0	-0.12175155
124	0xbc561191	-0.013065712
125	0x3e4c2ce5	0.19939001
126	0xbcf48508	-0.02984859
127	0x3e3aa84e	0.18228266
128	0xbd2e5e50	-0.042570412
129	0x3d6b0add	0.057383407
130	0x3e59c56e	0.2126672
131	0x3d7c2da1	0.061566953
132	0xbdbc1453	-0.09183564
133	0x3b85c19d	0.0040819184
134	0xbe8737ad	-0.26409665
135	0x3d8382fd	0.064214684
136	0xbd50a536	-0.050938807
137	0xbe28fb48	-0.16502106
138	0x3e34583c	0.17611784
139	0x3da1dca1	0.0790341
140	0xbdd51c42	-0.104057804
141	0x3e14f829	0.1454779
142	0x3da96d23	0.08272769
143	0xbe7d0f62	-0.247129
144	0xbe846ae3	-0.25862798
145	0xbeb6a690	-0.35673952
146	0x3d481e87	0.04885724
147	0x3d6067cb	0.054786485
148	0x3ac5bd33	0.0015086293
149	0xbdf38730	-0.11891019
150	0x3d9e2cb2	0.07723369
151	0xbddcda0a	-0.10783775
152	0x3dbe5a31	0.092945464
153	0x3e1c62e2	0.15272096
154	0xbb21e114	-0.0024700807
155	0xbe71ba37	-0.23606192
156	0xba4b6ea9	-0.0007760325
157	0x3dd0fb58	0.1020419
158	0x3df1ef2b	0.11813196
159	0xbc3a1cb3	-0.0113593815
160	0xbe67ab64	-0.22623974
161	0x3d2e2c97	0.042522993
162	0x3de0d377	0.10977834
163	0xbd039a9d	-0.032129873
164	0xbcd59a94	-0.026074685
165	0x3c8da0d1	0.017288597
166	0x3ebdca89	0.37068585
167	0x39f92558	0.00047520804
168	0x3d065ac0	0.03280139
169	0xbcc68ad4	-0.02423612
170	0xbcd13783	-0.025539165
171	0xbd86276d	-0.065504886
172	0xbe0d70de	-0.13812587
173	0xbc59737c	-0.0132721625
174	0x3e9968ac	0.2996267
175	0x3e0ad982	0.13559535
176	0xbdaa76c9	-0.08323438
177	0x3cbdabc3	0.023153191
178	0xbe0da1a2	-0.1383119
179	0x3bdaccb7	0.006677236
180	0xba92c72a	-0.0011198272
181	0xbe2ad269	-0.16681828
182	0xbe0e43e8	-0.13893092
183	0xbd783379	-0.060595963
184	0x3e8a54eb	0.27017912
185	0x3ddccc66	0.107811734
186	0x3bc1c07b	0.005912838
187	0x3e8e4b13	0.27791652
188	0xbcf95f92	-0.03044108
189	0x3d3786c2	0.04480625
190	0xbb96bf0e	-0.004600412
191	0xbdebd9eb	-0.11516174
192	0x3dc91161	0.09817768
193	0x3de68798	0.11256331
194	0x3d90970b	0.07060059
195	0x3c21df9d	0.009879974
196	0xbb8d6da4	-0.0043160487
197	0x3e0601de	0.1308665
198	0xbd555e38	-0.052091807
199	0x3e803cc3	0.25046358
200	0xbcd3b9cc	-0.02584543
201	0x3d5d49a1	0.054025296
202	0x3d581888	0.05275777
203	0xbd02a6f3	-0.031897496
204	0xbcc8bc79	-0.024503933
205	0x3eb65b23	0.35616407
206	0x3da71aab	0.081593834
207	0x3cd5129d	0.026009852
208	0xba7695ac	-0.0009406458
209	0xbc4488bf	-0.011995493
210	0xbd46f670	-0.048574865
211	0x3d6cc048	0.05780056
212	0xbdf47951	-0.11937202
213	0xbe2c7f66	-0.16845474
214	0x3dbc5cb2	0.09197368
215	0xbd791961	-0.06081522
216	0x3e6f562f	0.2337272
217	0x3ccd1f36	0.025039297
218	0x3d5d1beb	0.053981703
219	0xbd72a9ef	-0.059244093
220	0xbe3430ca	-0.17596737
221	0x3e1d8e22	0.1538625
222	0x3ce5e58f	0.028063564
223	0x3d0f376b	0.03496496
224	0xbddf3e0a	-0.10900505
225	0xbd6ee7be	-0.058326475
226	0x3e10b56d	0.14131708
227	0xbd1809ca	-0.03711871
228	0x3d1898dc	0.037255153
229	0x3e3648a3	0.17801146
230	0xbe14827e	-0.14502904
231	0x3dc54cbf	0.09633779
232	0x3e1deebe	0.15423104
233	0xbd2b0372	-0.041751333
234	0xbac6eb94	-0.0015176409
235	0xbc29ce0e	-0.010364069
236	0xbe4488a9	-0.19192757
237	0x3ccc4659	0.024935888
238	0x3d21e97f	0.03952932
239	0x3d2b2880	0.04178667
240	0xbd1f5d64	-0.038907424
241	0xbd277c10	-0.0408898
242	0x3d4179c8	0.04723528
243	0xbe6a8bec	-0.22904938
244	0x3d30e8fa	0.043190934
245	0x3e016fee	0.12640354
246	0x3bb8ee25	0.0056436234
247	0xbe3e1dab	-0.18566005
248	0xbe4143a2	-0.18873456
249	0xbd943530	-0.07236707
250	0xbd76e99e	-0.06028139
251	0x3e57f12e	0.21088096
252	0x3e16a150	0.14709973
253	0xbd1658ec	-0.036705896
254	0x3e297b53	0.1655095
255	0x3e123800	0.14279175

fc1.bias f4 [64]
0	0xbcbbc720	-0.022922099
1	0x3d9b45e5	0.07581691
2	0xbd8d2951	-0.06892646
3	0x3da6fe49	0.0815397
4	0x3cc956c4	0.024577506
5	0xbd9991ca	-0.0749851
6	0xbd1d3b42	-0.03838659
7	0x3c4ff12c	0.012691777
8	0x3d5208ca	0.051277913
9	0xbc969ba8	-0.01838477
10	0x3d75e4ea	0.060032763
11	0x3d23536e	0.039874487
12	0x3d59d21e	0.0531789
13	0xbc06ac97	-0.00821986
14	0xbca15c58	-0.019697353
15	0xbd8a0830	-0.06739843
16	0xbdb358fd	-0.087572075
17	0xbd6847ca	-0.05670909
18	0xbd3aa0fc	-0.045563683
19	0x3c6f22b0	0.0145956725
20	0x3d77ba9a	0.06048069
21	0xbc34f2ab	-0.011044185
22	0xbc9e4714	-0.019321002
23	0xbcc5d8a0	-0.024151146
24	0x3da325ef	0.0796622
25	0x3d71435e	0.058902137
26	0xbd9d1fbf	-0.07672071
27	0x3d4c0872	0.04981274
28	0xbc9267bc	-0.01787173
29	0xbd57708f	-0.05259758
30	0x3d0e79c8	0.03478411
31	0x3d4c03da	0.04980836
32	0x3daf13a5	0.08548669
33	0x3a808167	0.000980419
34	0x3d119c80	0.03554964
35	0x3be24481	0.006905139
36	0x3d89b85d	0.06724618
37	0xbd7aa590	-0.06119305
38	0xbdb1e203	-0.086856864
39	0x3cd79fd4	0.02632133
40	0x3c57a029	0.013160744
41	0x3d0dcdc2	0.034620054
42	0x3d4d5a96	0.050135218
43	0xbc9dced8	-0.01926367
44	0xbd8f5c6d	-0.07000051
45	0xbcf188dc	-0.029484205
46	0xbb9e0c58	-0.004823249
47	0xbd859a5e	-0.06523584
48	0x3c803008	0.015647903
49	0x3d653e6e	0.05596774
50	0xbc70ed20	-0.0147049725
51	0x3d0cc764	0.03436984
52	0x3d2ceeb6	0.04221984
53	0x3dae7c29	0.085197754
54	0xbabb6342	-0.0014296549
55	0xbc5deb31	-0.0135448435
56	0x3c0d15c8	0.00861115
57	0xbd0e7450	-0.034778893
58	0x3d8c3d81	0.068476684
59	0x3bc4ffd8	0.0060119443
60	0xbd9702f2	-0.07373609
61	0xbd67780b	-0.056510966
62	0xbd16f29a	-0.036852457
63	0x3c43206e	0.011909587

fc2.weight f4 [24, 64]
0	0x3e793ddd	0.24340005
1	0x3f002dcc	0.5006988
2	0x3e9cb9e8	0.30610585
3	0x3fbf0104	1.4922185
4	0x3dc09d3d	0.09404991
5	0xbee963d1	-0.45583966
6	0x3f6cadb4	0.9245255
7	0x3fcaf505	1.5856024
8	0x3ea7c174	0.3276478
9	0xbdba324d	-0.09091625
10	0xbd5c5bbd	-0.053798426
11	0x3e7e6045	0.24841411
12	0x3f6e1cf0	0.93012905
13	0x3f89f301	1.0777284
14	0x3f20c3ed	0.6279896
15	0xbef404db	-0.47659954
16	0xbef8d1ef	-0.48597667
17	0x3f01784e	0.50574195
18	0x3f4bd73c	0.79625297
19	0xbe3f3ff4	-0.1867674
20	0xbf4a3c93	-0.7899868
21	0x3ee311de	0.4434957
22	0xbdb17e48	-0.08666664
23	0x3eccd92f	0.40009448
24	0xbdba6237	-0.09100764
25	0x3f8a3d2f	1.0799922
26	0x3fb174e3	1.3863796
27	0x3f8a296c	1.0793891
28	0x3f3c897f	0.736473
29	0x3f0c321a	0.5476395
30	0x3f6f88f6	0.9356836
31	0x3f29df10	0.6635599
32	0x3f567737	0.8377566
33	0x3c8f42f0	0.017487973
34	0x3f2b3b3d	0.66887265
35	0x3b9d4932	0.0047999853
36	0x3f2947c9	0.6612516
37	0x3d71fbf2	0.059078164
38	0xbe103514	-0.14082748
39	0x3e6ef5ed	0.23336
40	0x3d76ac53	0.060222935
41	0xbe7ac30f	-0.24488471
42	0x3eeab001	0.45837405
43	0xbebf282e	-0.37335342
44	0x3f37065b	0.7149407
45	0x3f93b1a3	1.1538585
46	0x3f4b1925	0.7933524
47	0x3e8e5402	0.27798468
48	0x3eed54d7	0.4635379
49	0x3e140485	0.14454849
50	0x3e07c86c	0.13260049
51	0x3e92ebf5	0.28695646
52	0x3e2cc60c	0.16872424
53	0x3dff9eef	0.12481486
54	0x3f63fd57	0.8905844
55	0xbe9ab6b4	-0.30217516
56	0x3f93a6e8	1.1535311
57	0x3f3e14d6	0.74250543
58	0xbf525777	-0.8216471
59	0xbe990afa	-0.29891187
60	0x3f3ed191	0.7453852
61	0xbf7b1fc4	-0.98095345
62	0x3f462445	0.7739909
63	0xbf99cba7	-1.2015275
64	0x3efb925c	0.491351
65	0xbe5c6494	-0.21522743
66	0xbd92a1e7	-0.07159787
67	0xbec8481f	-0.39117524
68	0x3ebafe09	0.36521938
69	0xbddabea3	-0.10680892
70	0xbe429cf3	-0.19005184
71	0x3ed08238	0.4072435
72	0x3e83b3a4	0.25722992
73	0xbf12bbb7	-0.5731768
74	0xbe5c09f5	-0.21488173
75	0xbe3c10dc	-0.18365806
76	0x3e7af33b	0.24506848
77	0xbe5b75e9	-0.21431698
78	0x3e04c239	0.12964715
79	0xbe9129ad	-0.2835211
80	0x3e2363b7	0.15956007
81	0xbe375819	-0.179047
82	0xbd2290b4	-0.03968878
83	0x3d84c973	0.06483736
84	0x3ed9bf74	0.4252888
85	0xbe830bd6	-0.25594968
86	0xbeac079c	-0.33599555
87	0xbf34cb1c	-0.7062242
88	0xbd7f23de	-0.062290065
89	0x3e86005a	0.26172143
90	0xbdba70c5	-0.0910354
91	0xbda383cf	-0.07984125
92	0xbe9150dc	-0.28382003
93	0xbf20f238	-0.62869596
94	0xbc96c9d4	-0.018406786
95	0x3f327e02	0.6972352
96	0xbbf893e8	-0.007585991
97	0x3ed33775	0.41253248
98	0xbe92bb4a	-0.28658515
99	0xbdb0f137	-0.08639758
100	0xbe4ae215	-0.19812806
101	0xbe582fe0	-0.21112013
102	0xbe04d876	-0.12973198
103	0x3dd84450	0.105599046
104	0x3f559c05	0.8344119
105	0x3e7eb256	0.24872717
106	0xbf09e6fc	-0.5386808
107	0x3f1f5166	0.6223358
108	0xbd15910e	-0.036515288
109	0xbe63c6e7	-0.22243844
110	0xbeb8e266	-0.36110228
111	0xbc9edaeb	-0.019391498
112	0x3f1b9ce7	0.6078629
113	0x3de1ba3c	0.110218495
114	0xbd095e35	-0.03353711
115	0xbdea9676	-0.114544794
116	0xbde9c02b	-0.11413606
117	0x3eb66df6	0.3563077
118	0x3d9385b6	0.07203238
119	0x3f532c41	0.824894
120	0x3e6c8e2d	0.23101111
121	0x3f09b6b9	0.5379444
122	0xbe8ae1b7	-0.27125332
123	0xbe92d9a4	-0.28681672
124	0xbda164fe	-0.07880591
125	0x3ed33dd1	0.412581
126	0x3c970245	0.0184337
127	0xbe8383ab	-0.25686392
128	0x3f0d8d06	0.5529331
129	0xbf1539ef	-0.58291525
130	0xbe05c1c7	-0.13062201
131	0xbea14815	-0.31500307
132	0x3ee8156a	0.45328838
133	0x3e03f6df	0.12887143
134	0x3cfeb7b5	0.031093458
135	0xbe8f11fc	-0.27943408
136	0x3e873ca7	0.26413462
137	0xbe6f36d4	-0.23360759
138	0x3ea56ac4	0.32308018
139	0x3edafb02	0.4276963
140	0xbeb3b646	-0.351
141	0xbea7b73b	-0.3275698
142	0xbd5078a0	-0.050896287
143	0xbe379785	-0.17928894
144	0xbea35df0	-0.31907606
145	0x3ec57de3	0.38572606
146	0xbe3c3713	-0.18380384
147	0xbd30071e	-0.042975537
148	0xbe9de9c1	-0.30842403
149	0xbed9ab6e	-0.42513603
150	0x3eaac074	0.33349955
151	0x3f33de68	0.7026124
152	0xbe484e2b	-0.19561069
153	0xbd9bd939	-0.07609791
154	0x3e3d8838	0.18508995
155	0xbea4c256	-0.32179517
156	0xbdff2083	-0.12457373
157	0x3edb6e40	0.42857552
158	0xbf01b877	-0.50672096
159	0xbed7ec9a	-0.421727
160	0x3d43deda	0.04781995
161	0xbef8e017	-0.48608467
162	0xbf4c5fbd	-0.79833585
163	0xbf22a6f3	-0.63535994
164	0xbec4bc89	-0.3842509
165	0xbe5e1095	-0.21686013
166	0xbe19059a	-0.14943543
167	0x3dcd5205	0.100254096
168	0xbe055041	-0.13018896
169	0x3e81b2d2	0.25331742
170	0xbf406194	-0.7514889
171	0x3d848e41	0.06472445
172	0x3c81f76b	0.015865048
173	0x3f51d75d	0.81969243
174	0x3eb8c002	0.3608399
175	0x3edcad62	0.4310103
176	0xbe924554	-0.28568518
177	0xbeadb76c	-0.33929002
178	0xbeb0da73	-0.34541664
179	0xbcde917f	-0.027168987
180	0x3dcffdd1	0.101558335
181	0x3e3f78e8	0.18698466
182	0xbdf897be	-0.121383175
183	0x3f18ff40	0.5976448
184	0xbe67fcd1	-0.22655036
185	0xbe3ff595	-0.18746026
186	0x3ec9f6fa	0.3944624
187	0xbe92869b	-0.2861832
188	0xbe81378a	-0.25237685
189	0x3de89c06	0.11357884
190	0xbdedc0b7	-0.11609023
191	0xbec603bc	-0.38674724
192	0x3e01d5ee	0.12679264
193	0xbef774d7	-0.4833133
194	0x3d1c4ece	0.03816109
195	0xbe9a72ad	-0.30165616
196	0xbf03f692	-0.5154811
197	0x3e041ee5	0.1290241
198	0x3ed11426	0.40835685
199	0xbecf5751	-0.40496305
200	0x3f2ca0dc	0.6743295
201	0xbf0451ae	-0.51687133
202	0x3d489f3a	0.048979975
203	0xbeb753d6	-0.3580615
204	0xb99548bb	-0.00028473683
205	0x3d2a72de	0.041613452
206	0x3d0f38c8	0.03496626
207	0x3df8afd9	0.12142915
208	0x3db0b3f2	0.08628072
209	0x3c126fd3	0.008937794
210	0xbf0783d1	-0.5293551
211	0xbf3bed53	-0.73409003
212	0xbec2df52	-0.38061005
213	0xbe99bb93	-0.3002592
214	0x3ef6caf3	0.48201713
215	0x3f2b4b6c	0.6691196
216	0xbd6c5f19	-0.05770788
217	0x3a8ba640	0.0010654405
218	0xbe2fabef	-0.17155431
219	0xbe3e9bf7	-0.18614183
220	0xbd9085b6	-0.07056753
221	0x3e4725e1	0.19448043
222	0xbef7ea77	-0.4842107
223	0x3e82aa16	0.2552039
224	0xbe5e58e5	-0.21713598
225	0xbe255a0b	-0.1614763
226	0x3da28973	0.079363726
227	0xbe67d58d	-0.22640057
228	0x3dd984b5	0.10621015
229	0xbe560e79	-0.20903958
230	0xbdddfc2f	-0.10839116
231	0xbe006bff	-0.12541197
232	0x3b43aa1a	0.0029856027
233	0xbea8fded	-0.3300623
234	0x3f77b56a	0.9676119
235	0x3e48bf63	0.19604258
236	0xbe27f8e1	-0.16403534
237	0xbea4a8b6	-0.32159966
238	0x3d7a96cb	0.061178964
239	0xbc8a0e1b	-0.01685243
240	0x3e76ae8b	0.2409002
241	0xbf24e7d7	-0.6441626
242	0x3c90a72d	0.01765784
243	0xbebf85ac	-0.3740667
244	0xbebf1545	-0.37320915
245	0x3f712f71	0.94213015
246	0x3e45754e	0.1928303
247	0x3e83018f	0.25587127
248	0xbf2da149	-0.67824227
249	0x3e11d275	0.14240439
250	0xbeb36d09	-0.35044125
251	0xbedca0bb	-0.43091378
252	0x3e6befee	0.23040745
253	0x3e315184	0.17316252
254	0xbf1d4804	-0.6143801
255	0xbec48597	-0.3838317

fc2.bias f4 [24]
0	0x3f2020c8	0.6255002
1	0xb93eb428	-0.00018186925
2	0xbd0cd0c3	-0.03437878
3	0xbd8b4e12	-0.06802
4	0xbe168b4c	-0.14701575
5	0xbdb5060f	-0.08839046
6	0xbd7c68eb	-0.061623495
7	0x3d82f1eb	0.063937984
8	0xbd60ad23	-0.054852616
9	0x3dad9927	0.08476477
10	0xbdf8bd77	-0.121455126
11	0x3e2c40db	0.16821615
12	0x3d256d13	0.040387224
13	0xbdef9cb1	-0.116998084
14	0x3d4a61ef	0.049409803
15	0xbdf19dfc	-0.11797711
16	0x3d00d287	0.031450775
17	0x3dd6ccb0	0.1048826
18	0x3c9232d1	0.017846497
19	0xbe28150f	-0.16414283
20	0xbd85d510	-0.06534779
21	0xbded5709	-0.11588866
22	0xbe1d28a6	-0.15347537
23	0xbe020847	-0.1269847

bn1.weight f4 [64]
0	0x3feac12a	1.8340199
1	0x3fe2e611	1.7726461
2	0x3f880b82	1.0628512
3	0x3ff85e24	1.940373
4	0x40034de9	2.0516303
5	0x3f996403	1.1983646
6	0x3fc240ca	1.5176022
7	0x4005004b	2.078143
8	0x400cd7a4	2.2006617
9	0x4004b022	2.0732503
10	0x3fff7f4b	1.9960722
11	0x3ff68d4e	1.9261873
12	0x3fbf12d6	1.4927623
13	0x3fc8b33a	1.5679696
14	0x3fba857c	1.4571986
15	0x3fdc857d	1.7228237
16	0x3fee7475	1.862929
17	0x3f945f48	1.1591578
18	0x3fbab769	1.4587222
19	0x4003e17e	2.060638
20	0x3ffd0c95	1.9769465
21	0x3fddba07	1.7322396
22	0x3fed978f	1.8561877
23	0x400537bf	2.0815275
24	0x3fad8b1e	1.355808
25	0x3fee9933	1.8640503
26	0x400828fb	2.1275012
27	0x3fe88eb8	1.8168554
28	0x3fd98437	1.6993474
29	0x3ff0ba40	1.8806839
30	0x3fc4cfdf	1.5375937
31	0x3fc96460	1.5733757
32	0x4001e85c	2.029807
33	0x3fe882e9	1.8164951
34	0x3ff5c46f	1.9200572
35	0x40008cca	2.008593
36	0x3ff91865	1.946057
37	0x3fa9ef59	1.3276168
38	0x3fcfefda	1.6245072
39	0x3fc97458	1.573863
40	0x3fc89755	1.5671183
41	0x3fc36983	1.5266575
42	0x40211e68	2.5174809
43	0x4001af5e	2.0263286
44	0x3f98b3f3	1.1929916
45	0x3ff4b45a	1.9117539
46	0x3fe37250	1.776926
47	0x3f8cddcd	1.1005188
48	0x400c2ed2	2.1903577
49	0x4008a260	2.1349106
50	0x3f95baf9	1.1697685
51	0x3faec9d3	1.3655342
52	0x3fe0fead	1.7577721
53	0x3fe517c9	1.7897884
54	0x3fdf038e	1.742296
55	0x4006f9fc	2.1090078
56	0x40040b23	2.0631797
57	0x3fada540	1.3566055
58	0x3fe4958d	1.7858139
59	0x3ff198c3	1.8874744
60	0x3fd5c451	1.6700536
61	0x3fe2aaff	1.7708434
62	0x3fc9dba2	1.5770152
63	0x4005e88e	2.092319

bn1.bias f4 [64]
0	0x3e95e65c	0.29277313
1	0x3f114311	0.5674296
2	0x3e059c8f	0.13048004
3	0x3eaa0d1b	0.33213124
4	0x3e9293ac	0.2862829
5	0x3c753a18	0.014967464
6	0x3e407dd5	0.18798001
7	0x3e79659c	0.24355167
8	0x3eb742d0	0.3579316
9	0x3f380fa9	0.71898896
10	0x3e99a233	0.3000656
11	0x3e340d80	0.17583275
12	0x3de620ab	0.112367
13	0x3e278317	0.163586
14	0x3e60a603	0.21938328
15	0x3e8d07e1	0.27545074
16	0x3ec8ee69	0.39244393
17	0x3dbfc8bb	0.09364458
18	0x3e31aca8	0.1735102
19	0x3ef18650	0.47172785
20	0x3f2513b4	0.6448319
21	0x3e2bd625	0.16780908
22	0x3e8ce3d1	0.2751756
23	0x3ef9f625	0.48820606
24	0x3e883cfd	0.2660903
25	0x3e743920	0.23849916
26	0x3eb0867e	0.3447761
27	0x3e6867ce	0.22695848
28	0x3e5a5d82	0.21324733
29	0x3eb94da1	0.3619204
30	0x3e3d6669	0.18496098
31	0x3e691478	0.22761714
32	0x3e80deff	0.25170133
33	0x3ee0dd26	0.43918723
34	0x3ef43adc	0.47701156
35	0x3f2a7d46	0.665974
36	0x3e84e2ef	0.25954387
37	0x3e393c81	0.18089487
38	0x3e9d4924	0.30719864
39	0x3e50b282	0.20380595
40	0x3ec4e04e	0.3845238
41	0x3e56d229	0.20978607
42	0x3ec5e4e5	0.38651195
43	0x3ecf35fb	0.4047087
44	0x3e04e34d	0.12977333
45	0x3e883823	0.2660533
46	0x3e63353f	0.2218828
47	0x3de62d41	0.112391
48	0x3ebef8f4	0.3729931
49	0x3eb4c701	0.35308078
50	0x3dc68de1	0.0969503
51	0x3e06a344	0.13148218
52	0x3e021f20	0.12707186
53	0x3e097c0c	0.13426226
54	0x3e5ef982	0.21774867
55	0x3e9a6c49	0.3016074
56	0x3d734536	0.059392177
57	0x3e2b4549	0.16725649
58	0x3e4d13ba	0.20027056
59	0x3eda4c86	0.42636508
60	0x3d92ce5f	0.071682684
61	0x3d17ed62	0.03709162
62	0x3c9347e3	0.017978614
63	0x3f6ea9e1	0.93227965

bn1.running_mean f4 [64]
0	0xbeed2486	-0.46316928
1	0xbe83867e	-0.25688547
2	0x40899b3e	4.3002005
3	0x3eb9755a	0.36222345
4	0xbeb65ca4	-0.35617554
5	0xc1335cbb	-11.210139
6	0x422bf2f8	42.987274
7	0x3f24c5cb	0.6436431
8	0xbf88099b	-1.0627931
9	0xbe1fe2a5	-0.15613802
10	0xbf630ac0	-0.8868828
11	0xbecfcff8	-0.40588355
12	0xbf04a1f0	-0.51809597
13	0xbfaec260	-1.3653069
14	0xbf07d195	-0.5305417
15	0xbf162af6	-0.58659303
16	0xbf2209cc	-0.632962
17	0x41d25e75	26.296122
18	0x4190677d	18.050531
19	0xbc9b992e	-0.01899394
20	0x4121c291	10.110002
21	0xbdba4bfa	-0.09096523
22	0xbf5df68e	-0.8670434
23	0xbf33b74e	-0.70201576
24	0x41fb9054	31.445473
25	0x3eedba7d	0.46431342
26	0x3eb2963a	0.3488024
27	0x3f09a66f	0.5376958
28	0x3ec2ebcd	0.38070527
29	0xbedade49	-0.42747715
30	0x3f079fec	0.52978396
31	0x40bb3def	5.8513103
32	0x3f1658b8	0.58729124
33	0xbf0c5a65	-0.5482543
34	0xbea5981a	-0.32342607
35	0x3e51cb79	0.20487775
36	0xbebd57de	-0.369811
37	0x422680c6	41.625755
38	0xc3099b82	-137.60745
39	0xc0550127	-3.3281953
40	0x42e767c4	115.70267
41	0xbf96a5c8	-1.1769342
42	0xbf07e279	-0.53079945
43	0xbee62a17	-0.44953987
44	0xbf4445af	-0.7666883
45	0xbf3446c6	-0.7042049
46	0xbf973689	-1.1813518
47	0x41f4cec9	30.60097
48	0xbebd6b76	-0.3699605
49	0xbdd43833	-0.10362282
50	0x3dfeb08e	0.12436019
51	0xbe99d99e	-0.3004884
52	0xbec8abef	-0.39193675
53	0xbf7ec2fc	-0.9951627
54	0x3ec20fb3	0.37902603
55	0xbfb4d630	-1.4127865
56	0xbeb3d2ca	-0.35121757
57	0x3ebb5de5	0.36595073
58	0xbf24ab12	-0.6432353
59	0xbebbee4e	-0.3670525
60	0xbf30fa5c	-0.6913202
61	0xbf8266fd	-1.018768
62	0xbefe339c	-0.4964875
63	0x3ffed441	1.9908525

bn1.running_var f4 [64]
0	0x3f330e4d	0.69943696
1	0x3f86bc53	1.0526222
2	0x4200f940	32.24341
3	0x3f9ad845	1.209725
4	0x3f41b6e3	0.7566969
5	0x431990b1	153.5652
6	0x45063f23	2147.946
7	0x3fbed3ff	1.4908446
8	0x3fe36730	1.7765865
9	0x3fa02369	1.2510806
10	0x3fb69b74	1.426619
11	0x3f63ba3a	0.88956034
12	0x3f917a82	1.1365511
13	0x4041f4b7	3.0305612
14	0x3f99f3cc	1.2027526
15	0x40170495	2.3596547
16	0x3ffb4785	1.9631201
17	0x444ca00b	818.5007
18	0x43bcc60e	377.5473
19	0x3f91828a	1.1367962
20	0x42cc81b7	102.25335
21	0x3f4c089e	0.7970065
22	0x3fbb22e0	1.4620018
23	0x3fabf39f	1.3433722
24	0x44882c60	1089.3867
25	0x3fc8ddc1	1.5692674
26	0x3fd5032d	1.6641594
27	0x3f91d77a	1.1393883
28	0x3f7d60d8	0.98975897
29	0x3f332ecd	0.6999329
30	0x3f5cd8b5	0.8626817
31	0x42364b2a	45.573402
32	0x3f57d260	0.8430538
33	0x3f72b316	0.94804513
34	0x3fbbf85e	1.4685171
35	0x3f9ffae0	1.2498436
36	0x3f9196e4	1.1374173
37	0x44f127d8	1929.2451
38	0x46a5554a	21162.645
39	0x41837e6a	16.436726
40	0x4669ef47	14971.819
41	0x40299d72	2.6502347
42	0x3f472384	0.7778857
43	0x3f82e429	1.0225879
44	0x400376d1	2.054127
45	0x3f997157	1.1987714
46	0x3fe845f3	1.8146347
47	0x4484964d	1060.6969
48	0x3f556b45	0.83366805
49	0x3f59c3d0	0.8506441
50	0x3fc8790f	1.5661944
51	0x3f4b2f6e	0.79369247
52	0x3f9733dd	1.1812702
53	0x3feb5bae	1.8387353
54	0x3fb77240	1.4331741
55	0x402b915a	2.6807466
56	0x3f886dd0	1.0658512
57	0x3fac2196	1.344775
58	0x402f6721	2.7406695
59	0x3f588274	0.84574056
60	0x3f46f429	0.7771631
61	0x402b9a89	2.681307
62	0x3f533927	0.8250908
63	0x4052f54b	3.2962215
