intent_classifier/intent_classifier.model (torch, 72722 bytes, 8 tensors)

fc1.weight f4 [64, 256]
0	0x3f11acb0	0.56904125
1	0xbeb2c849	-0.3491843
2	0x3de9bb28	0.1141265
3	0x3d163f6a	0.03668157
4	0xbedf7f8c	-0.43651998
5	0xbea4ad01	-0.32163242
6	0x3db352ec	0.087560505
7	0x3dbfa1a7	0.093570046
8	0xbde216e5	-0.11039523
9	0x3d79e901	0.061013225
10	0x3e410372	0.1884897
11	0xbe0817d5	-0.13290341
12	0xbe53a19c	-0.20667118
13	0x3e5238e8	0.2052952
14	0x3d8fa39f	0.0701363
15	0x3c171243	0.0092206625
16	0xbed60511	-0.4180074
17	0xbe8e9f8f	-0.2785611
18	0xbe9a3a87	-0.30122778
19	0xbe591fed	-0.21203585
20	0x3dee97c2	0.11650039
21	0x3e828907	0.2549517
22	0xbebe27e5	-0.37139812
23	0x3dee9c9f	0.11650967
24	0xbd139a30	-0.036035717
25	0x3e6de14d	0.23230477
26	0xbe13554b	-0.14388005
27	0x3e8e4efb	0.27794632
28	0xbcf0931a	-0.029367018
29	0x3e24c541	0.16090871
30	0xbe60dfbc	-0.21960348
31	0xbd89e3c9	-0.067329
32	0x3e6c1add	0.23057123
33	0xbe8726ab	-0.2639669
34	0x3dfd00ae	0.12353645
35	0xbb9a8c91	-0.004716464
36	0x3d96efb3	0.07369938
37	0xbe017f4d	-0.12646218
38	0xbeb5e0e5	-0.35523143
39	0xbe2fbf71	-0.17162873
40	0xbe915135	-0.2838227
41	0xbca9970c	-0.020701908
42	0x3deeea0f	0.11665737
43	0xbe34805e	-0.17627093
44	0xbdac4cf7	-0.084131174
45	0xbeb088e2	-0.34479433
46	0xbe3a41b6	-0.18189129
47	0xbe20a258	-0.15686929
48	0x3e2b86e5	0.16750677
49	0x3ef2d743	0.47429857
50	0x3dda7f82	0.106688514
51	0x3e924eea	0.28575832
52	0x3dd84151	0.10559333
53	0xbac5dff4	-0.001509665
54	0x3e8bd68c	0.27312124
55	0xbecb8d12	-0.39756066
56	0x3da3a371	0.07990158
57	0xbd2e1570	-0.042500913
58	0x3d53e051	0.051727597
59	0xbbfd78e3	-0.007735358
60	0x3da823f8	0.082099855
61	0xbe917073	-0.28406104
62	0xbcb2f7dc	-0.021846704
63	0x3dac562b	0.08414873
64	0xbeb799b8	-0.35859466
65	0xbede8185	-0.4345819
66	0xbe19b086	-0.15008745
67	0xbcc6d278	-0.024270281
68	0xbd820047	-0.06347709
69	0x3ea60414	0.32424986
70	0xbc710900	-0.014711618
71	0x3ee3f9eb	0.4452661
72	0x3c3dd679	0.011586779
73	0x3dbc9f8a	0.09210117
74	0x3c9bd110	0.019020587
75	0x3e725c1e	0.23667952
76	0xbe2b1116	-0.16705737
77	0xbdeebc56	-0.11657016
78	0x3d4477e5	0.047965903
79	0xbe608bb1	-0.21928288
80	0x3e4a95ae	0.19783661
81	0xbe30c947	-0.17264281
82	0xbe553c3d	-0.2082376
83	0x3e7af6cb	0.24508207
84	0x3cf2ce5d	0.029639417
85	0xbc1d5372	-0.009602414
86	0xbe09e914	-0.13467818
87	0xbed899a0	-0.42304707
88	0x3e839854	0.25702155
89	0xbe70558d	-0.23470135
90	0x3e37cc56	0.17949042
91	0x3d89b5e9	0.0672415
92	0x3db58988	0.08864123
93	0x3e5bacd4	0.21452647
94	0xbe086fc9	-0.13323893
95	0x3e32941c	0.17439312
96	0x3df2f574	0.11863223
97	0x3d571432	0.052509494
98	0x3d3f17d5	0.046653587
99	0x3f17ae8e	0.59250724
100	0xbeba363a	-0.36369497
101	0x3e5a2128	0.2130171
102	0xbdb34e88	-0.08755213
103	0x3cf8d6d6	0.03037588
104	0xbe3ee4be	-0.18641946
105	0xbd19c034	-0.037536815
106	0xbd6de078	-0.0580754
107	0xbdb1367e	-0.08652972
108	0xbcda0236	-0.026612382
109	0x3e7860a6	0.24255618
110	0xbd3a77bf	-0.045524355
111	0xbdf03e91	-0.117306836
112	0xbd8b2f75	-0.06796161
113	0xbd865454	-0.06559053
114	0xbe5a6395	-0.2132705
115	0x3dfefb40	0.12450266
116	0xbe0dc69a	-0.13845292
117	0xbd0363bc	-0.032077536
118	0x3e831ddc	0.25608718
119	0x3e3eec2f	0.18644784
120	0xbd4c1ea5	-0.049833912
121	0xbe28dddf	-0.16490887
122	0x3dc01bbe	0.093802914
123	0x3d361db3	0.044461917
124	0x3ea24d90	0.316998
125	0xbd9314e9	-0.07181723
126	0xbd71a15f	-0.058991786
127	0x3e8aa29a	0.2707718
128	0xbd94b176	-0.072604105
129	0x3dba0e97	0.09084814
130	0xbdec1824	-0.11528042
131	0x3e1d30d9	0.15350665
132	0xbd280b71	-0.041026536
133	0x3e17cc54	0.14824039
134	0xbe94a921	-0.29035285
135	0xbd938af1	-0.07204235
136	0x3c749347	0.014927692
137	0xbe1c950f	-0.15291236
138	0xbe86e89e	-0.26349348
139	0x3f2114d8	0.6292243
140	0xbe35f83f	-0.1777048
141	0x3d0a600d	0.033783007
142	0xbe70c63d	-0.23513122
143	0x3e825243	0.25453386
144	0xbd6cd2c4	-0.05781819
145	0x3e16e202	0.14734653
146	0x3de18dfb	0.11013409
147	0xbd94d380	-0.07266903
148	0xbe2d71e7	-0.16937982
149	0xbee21f9a	-0.44164735
150	0xbdacbe37	-0.08434718
151	0xbeb9e0a6	-0.36304206
152	0x3b95674d	0.0045594336
153	0xbea6de8f	-0.32591674
154	0x3e85ef0d	0.26158944
155	0x3e062ea7	0.13103734
156	0xbe477c31	-0.19480969
157	0xbea2bf70	-0.3178668
158	0xbd9b5cc4	-0.07586053
159	0xbe420681	-0.18947794
160	0x3c095ede	0.0083844345
161	0xbc8b068a	-0.016970892
162	0x3da8967d	0.08231828
163	0xbe77b84b	-0.24191396
164	0xbd08bd18	-0.03338346
165	0x3e033fe7	0.12817346
166	0x3e512765	0.20425184
167	0x3db28167	0.08716088
168	0x3db7eafa	0.08980365
169	0xbe7904dc	-0.2431826
170	0xbdc5e254	-0.09662309
171	0x3e108154	0.14111835
172	0xbd6a0dce	-0.05714207
173	0xbdcb92fe	-0.09940146
174	0xbd44a42d	-0.048008133
175	0x3e3f8683	0.18703656
176	0x3d6f2115	0.05838116
177	0xbd7e4f0f	-0.062087115
178	0xbe8aaf8e	-0.27087063
179	0xbec5122c	-0.38490427
180	0xbe71e33f	-0.23621844
181	0xbe45986d	-0.19296427
182	0x3e2e5ae3	0.17026858
183	0x3da78441	0.08179522
184	0x3e1e51e9	0.15460934
185	0x3d92f95c	0.07176468
186	0x3e2c2205	0.16809852
187	0x3e24aa62	0.16080621
188	0x3e316278	0.17322719
189	0x3df84425	0.121223725
190	0xbed26180	-0.41090012
191	0x3e9a8f9a	0.30187684
192	0x3d9462e0	0.072454214
193	0x3dba04fe	0.090829834
194	0xbd24f861	-0.040275935
195	0xbd26d2f9	-0.040728543
196	0x3b679dbb	0.0035341817
197	0xbd51ba74	-0.051203206
198	0x3cbe86cf	0.023257641
199	0xbf0a4025	-0.54004127
200	0x3eb3fa1e	0.35151762
201	0x3e8d8a82	0.27644736
202	0xbdce7e86	-0.10082726
203	0x3cc3d2d7	0.023904247
204	0xbd3b15cd	-0.045675088
205	0xbe19ebfd	-0.15031429
206	0x3db4407a	0.088013604
207	0x3eab5016	0.33459538
208	0xbd41dbce	-0.047328763
209	0x3ccb7ead	0.024840677
210	0xbea03f90	-0.31298494
211	0x3d718b17	0.058970537
212	0xbea5b9ed	-0.32368413
213	0x3d452cbf	0.048138376
214	0x3e85c408	0.26126122
215	0x3e7a5bc8	0.24449074
216	0x3ad918e3	0.0016563203
217	0xbd4d4976	-0.050118886
218	0xbdd2692f	-0.102739684
219	0x3e26e8c9	0.16299738
220	0x3ce33cf5	0.027739028
221	0xbe7b5108	-0.2454263
222	0xbe101bd6	-0.14073119
223	0x3c9d1efb	0.019179812
224	0xbe3dff0e	-0.18554327
225	0x3d8ab602	0.067729965
226	0x3e12b970	0.14328551
227	0x3d481b94	0.048854426
228	0x3ea1093c	0.31452358
229	0x3caeefcb	0.021354577
230	0xbe657926	-0.22409496
231	0x3d2200e4	0.03955163
232	0xbd6cb33e	-0.057788126
233	0xbd9aa44f	-0.075508706
234	0x3d8a8b1a	0.06764813
235	0x3eab1ff3	0.33422813
236	0x3e81297b	0.2522696
237	0x3c782511	0.015145556
238	0xbe6b7062	-0.2299209
239	0xbe3d3930	-0.18478847
240	0x3e186851	0.14883544
241	0xbd923f5b	-0.0714099
242	0xbdfd36ee	-0.12363993
243	0xbcb1d273	-0.021706795
244	0x3e1ef621	0.15523578
245	0x3e6619bd	0.22470756
246	0xbc0afea9	-0.008483567
247	0x3da14417	0.07874315
248	0x3e278471	0.16359116
249	0xbc153d37	-0.009108833
250	0xbd87e7c8	-0.06636006
251	0xbd2b6342	-0.041842707
252	0xbc85ea3d	-0.016347045
253	0x3eac5885	0.33661285
254	0xbcec7d80	-0.028868437
255	0xb8a53c5f	-7.879058e-05

fc1.bias f4 [64]
0	0xbc914777	-0.017734272
1	0xbcf1eef1	-0.029532881
2	0xbd601a58	-0.054712623
3	0x3be9edd0	0.007138945
4	0x3b9667c7	0.004590008
5	0xbd2ff692	-0.042959757
6	0x3c9f9fe9	0.01948543
7	0xbc02b974	-0.007978786
8	0x3c5e4f60	0.013568729
9	0xbd23902b	-0.03993241
10	0xbc8ff467	-0.017572595
11	0xba0b9efa	-0.00053261186
12	0x3c980a46	0.018559586
13	0x3cfe164f	0.031016497
14	0xbcd98a9d	-0.026555354
15	0x3cbb580a	0.022869129
16	0xbcb78f14	-0.022407092
17	0xbd11714c	-0.03550844
18	0x3d6d1318	0.057879537
19	0x3d4b02c8	0.0495632
20	0x3d45fba2	0.04833568
21	0xbc07aa5e	-0.008280365
22	0xbc9f514a	-0.019447941
23	0x3be550a6	0.0069981394
24	0x3ce37fff	0.027770994
25	0xbc5cc522	-0.0134747345
26	0x3ceb575e	0.028728183
27	0x3c9eaf72	0.019370768
28	0x3d086e85	0.033308525
29	0x3d1fa462	0.038975127
30	0x3d780b04	0.06055738
31	0xbcf97ecf	-0.030455975
32	0xbd0e5f9e	-0.034759156
33	0x3cc07314	0.023492374
34	0xbba64316	-0.0050739152
35	0x3c95d960	0.018292129
36	0xbc6b5fcf	-0.014366104
37	0xbd452d4e	-0.04813891
38	0x3d05677d	0.032569397
39	0xbd4c4945	-0.049874563
40	0xbcdff326	-0.027337622
41	0xbd59c1b3	-0.05316324
42	0xbd6edcd2	-0.05831606
43	0x3d6c65be	0.057714216
44	0x3d2bcf54	0.04194577
45	0x3ac84175	0.0015278297
46	0x3d655279	0.055986855
47	0xbd5b4a80	-0.053537846
48	0xbd1964e5	-0.037449736
49	0xbc3a824c	-0.011383604
50	0xbd04d62a	-0.032430805
51	0xbcc18967	-0.023625089
52	0xbcba6100	-0.022751331
53	0xbcf3e760	-0.029773414
54	0xbd664f7a	-0.05622814
55	0xbd2f3057	-0.04277071
56	0x3d00b326	0.03142085
57	0xbb7c16c2	-0.0038465713
58	0xbcaf846e	-0.021425452
59	0xbc5cf379	-0.013485783
60	0x3d6d7af2	0.057978578
61	0x3d0263a2	0.0318333
62	0x3cc1449b	0.023592284
63	0xbc1b087a	-0.00946247

fc2.weight f4 [11, 64]
0	0x3e8ba550	0.2727456
1	0x3db23d52	0.08703102
2	0x3d37c204	0.044862762
3	0x3f1f23d6	0.62164056
4	0x3f5b7870	0.8573065
5	0x3f4e3882	0.80554974
6	0x3eea6e3e	0.45787233
7	0x3ecec76c	0.40386522
8	0xbe5498b6	-0.2076138
9	0x3f904d79	1.1273643
10	0xbe29de34	-0.1658867
11	0x3e8e56d3	0.27800617
12	0x3dd1a251	0.102360375
13	0x3fb9d07c	1.4516749
14	0x3d2baa27	0.041910317
15	0xbf5baaaa	-0.8580729
16	0x3f8851a2	1.0649912
17	0xbd3adb18	-0.0456191
18	0x3f21f3f1	0.6326285
19	0x3e82face	0.25581974
20	0xbe93c715	-0.28862825
21	0x3e4d429c	0.2004494
22	0x3ec7ea8b	0.3904613
23	0x3f0ad1c8	0.5422635
24	0x3f910a26	1.1331222
25	0x3ee0995d	0.43867007
26	0x3fbc2b68	1.4700747
27	0x3d233169	0.039842043
28	0x3f8d2072	1.1025527
29	0x3f04c979	0.5186992
30	0xbe180c98	-0.14848554
31	0x3f46ddb3	0.77682036
32	0x3f55ed66	0.83565366
33	0x3f0bd803	0.5462648
34	0x3ec46df7	0.38365147
35	0x3f0f85d1	0.5606356
36	0xbf4f72f7	-0.810348
37	0x3f8e5ba6	1.1121719
38	0x3ed7224f	0.42018363
39	0xbe3357db	-0.17513983
40	0x3fc2235f	1.5167044
41	0x3e74f100	0.23920059
42	0xbe42ca4b	-0.19022481
43	0x3f454f74	0.7707436
44	0x3f45a271	0.7720099
45	0x3f2289a5	0.6349128
46	0x3f9a1c4b	1.2039884
47	0x3f9cf7fa	1.2263176
48	0x3ec2b9f5	0.380325
49	0x3e45c9d6	0.19315276
50	0xbe3bd633	-0.1834343
51	0x3f105dd9	0.563932
52	0x3e6db494	0.23213416
53	0x3f20734b	0.62675923
54	0x3fda89cd	1.7073303
55	0x3f45864d	0.7715805
56	0x3f0da654	0.5533192
57	0xbde7ddfb	-0.11321636
58	0x3d3a50df	0.04548728
59	0xbf34f573	-0.70687026
60	0x3ec0b545	0.37638298
61	0x3fa61d42	1.2977679
62	0x3e851791	0.25994542
63	0xbd286b30	-0.041117847
64	0xbe15a22b	-0.14612643
65	0x3dfaeabc	0.12251803
66	0x3f9feeca	1.2494748
67	0x3e44723f	0.19184206
68	0xbf0023c4	-0.50054574
69	0x3d769426	0.06019988
70	0xbe455ab9	-0.19272889
71	0xbe96829a	-0.29396516
72	0x3f4eb774	0.8074868
73	0x3de6772f	0.11253201
74	0xbef7a98c	-0.48371542
75	0x3ea667ed	0.32501164
76	0x3e77350d	0.24141331
77	0xbe715a0a	-0.23569503
78	0xbf3a2c60	-0.7272396
79	0xbd43e6f5	-0.04782768
80	0xbe320dd0	-0.17388082
81	0x3f745415	0.954408
82	0x3e3e814e	0.18604013
83	0x3de291df	0.11062979
84	0xbe8019bb	-0.2501963
85	0xbe6e4b6f	-0.23270963
86	0xbd808d58	-0.06276959
87	0xbe5cfbbd	-0.21580406
88	0x3de92d3e	0.113855824
89	0xbebe326a	-0.37147838
90	0xbe80b8ac	-0.25140893
91	0xbf0a8392	-0.5410701
92	0xbe2eb7ac	-0.17062253
93	0x3c4d4827	0.0125294095
94	0x3f9b2995	1.2122065
95	0x3ec4adab	0.38413748
96	0xbe89117f	-0.2677116
97	0xbe0cc41e	-0.13746688
98	0xbed4e7ea	-0.41583186
99	0xbed6332a	-0.4183591
100	0xbd97df15	-0.074155964
101	0xbe6a04e4	-0.22853428
102	0xbedad86c	-0.42743242
103	0xbd4a62a7	-0.04941049
104	0x3bf89c05	0.0075869584
105	0x3ec33951	0.38129666
106	0xbebb9c52	-0.366427
107	0xbc8db2c5	-0.017297158
108	0xbe1aabf6	-0.1510466
109	0xbeab8337	-0.33498546
110	0x3e263269	0.16230167
111	0xbe1e65f4	-0.1546858
112	0xbe973b20	-0.29537296
113	0xbf067888	-0.52527666
114	0xbea747ac	-0.3267187
115	0xbd233c43	-0.039852392
116	0xbeb14c2b	-0.34628424
117	0xbdabed40	-0.08394861
118	0x3d030b58	0.03199324
119	0xbe4c06e6	-0.19924507
120	0xbdc400a2	-0.09570433
121	0xbef1a211	-0.4719396
122	0x3ef08b9d	0.46981516
123	0x3ee78cd6	0.45224637
124	0xba2fc7e2	-0.0006705505
125	0xbd5901b3	-0.052980136
126	0xbe417690	-0.18892884
127	0xbed00b88	-0.40633798
128	0xbf74a2c4	-0.9556086
129	0xbf8487e4	-1.035397
130	0x3f3e596e	0.7435521
131	0xbed06b44	-0.40706837
132	0xbefb08f3	-0.49030265
133	0xbf1521f6	-0.58254945
134	0x3d532718	0.051550955
135	0x3f52631a	0.82182467
136	0xbcaa8f7d	-0.020820374
137	0xbd577031	-0.05259723
138	0xbd2a2992	-0.04154355
139	0xbe9f6871	-0.3113437
140	0xbcf3de14	-0.029768981
141	0x3c82dabb	0.01597344
142	0x3fa18f4a	1.2621853
143	0xbe0daa42	-0.1383448
144	0xbeffe5b1	-0.49979928
145	0xbefe6404	-0.4968568
146	0xbebe165d	-0.37126437
147	0x3f89be1f	1.0761145
148	0xbea5f90a	-0.32416564
149	0xbe99bd25	-0.30027118
150	0x3e8d5ef9	0.2761152
151	0xbe179be1	-0.14805557
152	0xbdf67d70	-0.12035644
153	0x3e6a13a4	0.22859055
154	0xbdb0b18a	-0.08627613
155	0x3e13dc7a	0.14439574
156	0xbe8609db	-0.26179394
157	0xbe949ade	-0.29024404
158	0x3f7a2f25	0.97728187
159	0xbe11e7ff	-0.14248656
160	0x3d10676d	0.035254885
161	0xbe650651	-0.22365691
162	0xbec358e7	-0.38153765
163	0xbf235218	-0.6379714
164	0xbe5b5171	-0.21417786
165	0xbeca1c14	-0.39474547
166	0xbf4177c3	-0.75573367
167	0xbe6071d6	-0.21918425
168	0xbd5635fe	-0.052297585
169	0xbed5563a	-0.41667348
170	0xbdf08e10	-0.11745846
171	0x3e786543	0.24257378
172	0xbedd3961	-0.4320784
173	0xbf2b34be	-0.66877353
174	0xbbc2c2ad	-0.0059436173
175	0x3cff58b3	0.031170225
176	0xbeb0a873	-0.34503517
177	0x3da81933	0.08207931
178	0xbea4e02e	-0.32202286
179	0xbea22f98	-0.31676936
180	0xbd8df4f9	-0.069314905
181	0xbdc63d7a	-0.096796945
182	0xbeab23c8	-0.33425736
183	0xbe854368	-0.2602799
184	0xbe7cadd7	-0.2467569
185	0x3f8c9781	1.0983735
186	0xbf33ad4a	-0.70186293
187	0xbe5d7595	-0.21626885
188	0xbe216615	-0.15761597
189	0xbe79ea39	-0.24405755
190	0xbd919686	-0.07108788
191	0xbedab428	-0.42715573
192	0x3e124564	0.14284283
193	0x3fadb11a	1.3569672
194	0xbf45a309	-0.77201897
195	0x3e851234	0.2599045
196	0xbe313874	-0.17306691
197	0x3e17e9a4	0.1483522
198	0xbe0a38b2	-0.1349819
199	0xbe509b92	-0.20371845
200	0xbde9d277	-0.11417096
201	0x3dc72aff	0.09724998
202	0x3f395c67	0.7240662
203	0xbf008d23	-0.5021536
204	0xbf2253cb	-0.6340911
205	0xbebc3914	-0.36762297
206	0x3f98ba27	1.1931809
207	0xbe43d6d5	-0.1912492
208	0xbe02c86b	-0.12771766
209	0xbea20d9e	-0.31651014
210	0xbe954431	-0.29153588
211	0x3f16d53c	0.5891912
212	0x3e8dd860	0.27704144
213	0xbf066ac4	-0.5250666
214	0x3c567b47	0.013090915
215	0x3e9ba6d7	0.30400726
216	0xbe10bb2e	-0.14133903
217	0x3dfd2124	0.12359837
218	0xbdab2d21	-0.08358217
219	0xbf5e634e	-0.86870277
220	0xbe7f978e	-0.24960157
221	0xbeebcd94	-0.4605528
222	0xbdb107ac	-0.086440414
223	0xbe193b25	-0.14963968
224	0xbf5ff6c9	-0.8748594
225	0xbea575f0	-0.32316542
226	0xbca79437	-0.020456417
227	0xbf3a6691	-0.72812754
228	0xbed4f001	-0.41589358
229	0xbeec1e91	-0.4611707
230	0xbf0cb429	-0.549624
231	0x3e522477	0.20521723
232	0xbea07352	-0.31337982
233	0xbe164199	-0.14673461
234	0xbf0df499	-0.5545135
235	0xbf191558	-0.5979819
236	0x3e34b384	0.17646605
237	0xbf1884c1	-0.59577566
238	0xbf15cc28	-0.5851464
239	0x3c9f246b	0.019426545
240	0xbf3a0ad6	-0.72672784
241	0x3f0b6ea5	0.54465705
242	0xbf18d885	-0.5970538
243	0x3d4808a3	0.04883636
244	0xbf39b475	-0.7254098
245	0xbc111999	-0.008856201
246	0xbeb4947a	-0.3526953
247	0xbeaad8bc	-0.3336848
248	0xbc5ec222	-0.01359609
249	0x3f330f9c	0.69945693
250	0x3f580dc2	0.8439599
251	0x3dc99645	0.09843115
252	0x3beee38e	0.00729031
253	0x3bd6e968	0.006558586
254	0xbf1efc3b	-0.62103623
255	0xbe93507f	-0.2877235

fc2.bias f4 [11]
0	0x3fc606da	1.5470841
1	0xbdfd0eb6	-0.123563215
2	0x3c8b6453	0.017015612
3	0xbe958459	-0.29202536
4	0xbe25ced0	-0.16192174
5	0xbe70a697	-0.23501049
6	0x3e7b26c3	0.24526505
7	0xbe17b41a	-0.14814797
8	0xbebfd8f0	-0.37470198
9	0xbed11e62	-0.40843493
10	0x3dfeb327	0.12436514

bn1.weight f4 [64]
0	0x3fb3a301	1.403412
1	0x4000f271	2.0147974
2	0x3fe614a1	1.7975045
3	0x3f994d65	1.1976744
4	0x3f9ec57a	1.2404015
5	0x3fa6e56c	1.3038764
6	0x3f841ff4	1.0322251
7	0x3f93dbdd	1.1551472
8	0x3fae4ac9	1.3616573
9	0x3fd83800	1.689209
10	0x3fb1553a	1.3854134
11	0x3f75d17d	0.9602278
12	0x3fa2b70a	1.2712109
13	0x3fc4d491	1.537737
14	0x3fe7bc6a	1.8104374
15	0x3fd6f4e5	1.6793486
16	0x3fbfe507	1.4991769
17	0x4009d6f7	2.1537454
18	0x3f841c25	1.0321089
19	0x3f997fd8	1.199214
20	0x3fa74753	1.3068641
21	0x3fd4f519	1.6637298
22	0x3f636c8c	0.88837504
23	0x3f880559	1.0626632
24	0x3fb0207d	1.3759915
25	0x3fb4a8bc	1.4113994
26	0x3fd41665	1.6569334
27	0x3f9c4353	1.2208046
28	0x3fbc89e5	1.4729582
29	0x3faeaf87	1.3647317
30	0x3feaa962	1.8332942
31	0x3f935603	1.1510624
32	0x3fd02e62	1.6264155
33	0x3f7e0f74	0.9924233
34	0x3fb224bc	1.391746
35	0x3fc32a85	1.5247351
36	0x3fce1c61	1.610241
37	0x3faf2679	1.3683616
38	0x3f8b8a81	1.0901643
39	0x40003a5d	2.0035622
40	0x3fdef079	1.7417136
41	0x3fdfc5e2	1.7482264
42	0x3f99f39c	1.2027469
43	0x3fb73086	1.4311683
44	0x3f956769	1.1672183
45	0x3fae0dc0	1.3597946
46	0x3fb48502	1.4103091
47	0x3fb53051	1.415537
48	0x3f82c555	1.0216471
49	0x3f7cfb2c	0.9882076
50	0x3fccbe40	1.599556
51	0x3f90a834	1.1301332
52	0x3fc8f586	1.5699928
53	0x3f46270e	0.7740334
54	0x3fe2670c	1.7687697
55	0x3fb27b9a	1.394397
56	0x3f9aa3d2	1.2081244
57	0x3fd7e705	1.6867377
58	0x400a7f1d	2.1640084
59	0x3fb9499b	1.4475588
60	0x3f875c50	1.0575047
61	0x3fc2df33	1.5224365
62	0x3fba3107	1.4546212
63	0x3fee17f5	1.8601061

bn1.bias f4 [64]
0	0xbe548bee	-0.20756504
1	0x3e5a7f7d	0.21337695
2	0xbd506d8b	-0.05088572
3	0xbd0e3ef4	-0.034728006
4	0xbe1c4adf	-0.15262936
5	0x3eca3735	0.39495245
6	0xbe06c183	-0.13159756
7	0xbc5262fd	-0.012840983
8	0xbb7099e5	-0.0036712822
9	0x3f2a0534	0.6641419
10	0xbf274c4e	-0.65350807
11	0xbcc13f97	-0.023589892
12	0xbd4a8901	-0.049447063
13	0x3f93f2d8	1.1558485
14	0xbe90ae27	-0.28257868
15	0xbedc5148	-0.43030763
16	0x3f050a87	0.5196919
17	0x3dda1516	0.10648553
18	0x3ed88f6c	0.42296922
19	0xbea9e3a0	-0.33181477
20	0xbf0db121	-0.553484
21	0x3eb7addb	0.3587483
22	0xbdc7a1c3	-0.097476505
23	0x3c30f668	0.010800935
24	0x3f1ace59	0.6047111
25	0xbe894497	-0.26810142
26	0x3f6631b3	0.89919585
27	0xbf0dd559	-0.5540367
28	0x3f179c53	0.59222907
29	0x3e986a62	0.29768664
30	0x3d8f9a4a	0.0701185
31	0x3ece6c76	0.40317124
32	0x3f689218	0.9084792
33	0x3e1d5c01	0.15367128
34	0xbf2189d2	-0.6310092
35	0xbd48dd8f	-0.04903942
36	0x3ea88e58	0.329211
37	0x3f5a460e	0.85263145
38	0x3e22c783	0.1589642
39	0xbdf51aaf	-0.1196798
40	0x3f552494	0.8325894
41	0x3ec4cd57	0.38437912
42	0x3ded92eb	0.11600288
43	0x3f1bfcee	0.60932815
44	0x3ecd9b2e	0.40157455
45	0xbe083d58	-0.13304651
46	0x3f5bb461	0.8582211
47	0x3f316045	0.6928752
48	0x3e38bbe8	0.1804043
49	0xbc837133	-0.016045189
50	0x3e892b37	0.26790783
51	0x3ea08598	0.31351924
52	0x3d777de2	0.060422786
53	0x3e479bc4	0.19493014
54	0x3f9d89ff	1.2307738
55	0x3ecd7415	0.40127626
56	0x3ed01559	0.40641287
57	0xbeb626ef	-0.3557658
58	0x3e682f8a	0.22674385
59	0x3dd6cbef	0.10488116
60	0xbe66e8b7	-0.22549711
61	0x3f2edb14	0.68303037
62	0x3e9dcd0e	0.30820507
63	0xbeae0ce7	-0.3399422

bn1.running_mean f4 [64]
0	0xbfeca522	-1.8487895
1	0x3db65082	0.089020744
2	0xbe2da8f4	-0.16958982
3	0x3eb207e6	0.3477165
4	0xc0222943	-2.5337684
5	0x3fa2126f	1.2661875
6	0x3eac87f2	0.33697468
7	0xbf01ae78	-0.50656843
8	0x3f5b234a	0.8560072
9	0x3f8e5259	1.111888
10	0xc0076e8b	-2.116122
11	0xbfc2f97d	-1.5232388
12	0xbe95b8a3	-0.2924243
13	0x4058e9c4	3.389268
14	0x3dea5063	0.11441114
15	0x401e4c8c	2.473422
16	0x3fac0229	1.3438159
17	0x3f9d8f30	1.2309322
18	0x3f149383	0.58037585
19	0xc00de210	-2.2169228
20	0x3d834e39	0.06411404
21	0x3f9a7f88	1.207017
22	0xbfb8975b	-1.442119
23	0x3e6472ef	0.22309469
24	0x3fe2863d	1.7697216
25	0xbffab45f	-1.9586295
26	0x4026b3da	2.6047273
27	0xbfb9f86b	-1.4528936
28	0x3fb4188d	1.4069992
29	0x3f284e33	0.6574432
30	0x3eb1faf2	0.3476177
31	0x3f9c1b4c	1.219583
32	0x3fda9ce0	1.7079124
33	0x3db10b35	0.08644716
34	0xbfb1992d	-1.387487
35	0xbf91d1ea	-1.1392186
36	0x4084e93f	4.1534724
37	0x3fdc4399	1.7208129
38	0xbf06e2d3	-0.52689856
39	0x3e6ac9ca	0.22928539
40	0x400a5237	2.161268
41	0x3f5b9952	0.85780823
42	0x3edfefeb	0.4373773
43	0x3fd58bdf	1.668331
44	0x3f90ef02	1.1322939
45	0xbfc18b8f	-1.5120715
46	0x3fd50281	1.6641389
47	0x3f97b7f3	1.1853012
48	0xbf4aa8e1	-0.7916394
49	0xbec3f07d	-0.38269415
50	0x3f55b178	0.8347392
51	0x3f7b5d9d	0.9818972
52	0x3eb78fd5	0.35851923
53	0xbf839491	-1.0279714
54	0x403be9ff	2.936157
55	0x3f6db58a	0.9285513
56	0x3f85bab0	1.0447598
57	0xbf681132	-0.9065124
58	0x3f7d9c49	0.990666
59	0x407b16b5	3.923261
60	0x3d8352ae	0.06412254
61	0x3ff28149	1.8945705
62	0x3f31aa0c	0.69400096
63	0x3ed194ac	0.4093374

bn1.running_var f4 [64]
0	0x40673936	3.6128669
1	0x3fd3f664	1.6559567
2	0x40215887	2.5210283
3	0x40094813	2.145024
4	0x40d64ffa	6.697263
5	0x4012478a	2.2856164
6	0x40c5bf41	6.1795964
7	0x3fa8b573	1.3180374
8	0x3f84c219	1.0371734
9	0x4064bbed	3.57397
10	0x4053d2cc	3.309741
11	0x41ca4e64	25.288277
12	0x4034e19f	2.8262708
13	0x414ce30d	12.805432
14	0x3f8ea544	1.1144185
15	0x40aa5c2d	5.323752
16	0x40874e6d	4.2283235
17	0x40158564	2.3362665
18	0x404934c3	3.1438453
19	0x40ac93bd	5.3930345
20	0x3f9d7c9f	1.2303656
21	0x4075a3c0	3.8381195
22	0x40e35ccb	7.1050773
23	0x3ff38983	1.902634
24	0x40bc6af4	5.888056
25	0x40aa6811	5.3252034
26	0x411004dc	9.001186
27	0x401ca541	2.4475863
28	0x408bade6	4.364978
29	0x3f9ed6d7	1.2409314
30	0x3fd9be60	1.7011223
31	0x409d6df4	4.919672
32	0x40857c7a	4.171445
33	0x4014287e	2.3149714
34	0x4038f84f	2.8901556
35	0x4019838d	2.3986542
36	0x4164ad01	14.292237
37	0x40a07ec2	5.0154734
38	0x3fa98200	1.3242798
39	0x3fcc2a3b	1.5950388
40	0x410642ed	8.391339
41	0x406bbc27	3.683359
42	0x4077654f	3.8655584
43	0x408c74ae	4.389243
44	0x4066b94c	3.6050596
45	0x407f4669	3.9886725
46	0x40814d49	4.040684
47	0x403b25b8	2.9241772
48	0x4041ab17	3.0260675
49	0x4003f5bc	2.0618734
50	0x404ac7a7	3.1684358
51	0x3fe9ba7a	1.8260033
52	0x3f8885d1	1.0665838
53	0x4082e5fe	4.090575
54	0x4132958f	11.161513
55	0x402e2d9e	2.7215343
56	0x3fdbf368	1.7183657
57	0x40000ed8	2.000906
58	0x401149e8	2.2701359
59	0x41185dab	9.522868
60	0x41485944	12.521793
61	0x40b1145b	5.533735
62	0x4005eb81	2.092499
63	0x3fa61728	1.2975817
