intent_classifier/intent_classifier.model (torch, 43341 bytes, 8 tensors)

fc1.weight f4 [64, 128]
00000000: 76ee 1941 02ec 47bf eeda 8a40 59c8 2640
00000010: 1787 8540 cbfb b9c0 d49b bdc0 10c4 1141
00000020: 0c2a 48c0 e5c7 98c0 2f60 a340 a77e 283e
00000030: eaee 193f 607f b640 b33b 51c0 9a3a ea3f
00000040: e5b2 b840 c440 5cc0 81a2 3ec0 db82 c040
00000050: 112b 24c0 80b3 9d40 7007 0bc1 907c 6840
00000060: ca9b 10be 45b5 9bbe f333 09c0 e9fd 8c3f
00000070: af66 5ac0 b2b3 4740 03a1 b440 c02f 19c0
00000080: 4822 20c1 5711 9fc0 9e99 c1c0 881a 9dc0
00000090: 30e7 b3bf 4e2d 4840 2655 9b40 6ce8 0040
000000a0: 2c1c 8bc0 7174 b2c0 c374 dd40 1377 8f40
000000b0: c2f4 0d41 acb4 243f 830b d140 a1a0 6ec0
000000c0: 571a b140 e27d 83bf 09e8 9bc0 38d4 b2bf
000000d0: 73f8 d340 4287 d43f 6cd0 1540 0822 d640
000000e0: be48 58c0 2c0d 5d40 b0cb f840 f215 ce40
000000f0: 5686 ec40 e94e 3ebf c077 c4c0 8c59 d640
00000100: 6573 22c1 d5c8 bdc0 e51a 0cc1 c28a 8640
00000110: 05eb e240 0be7 e340 0dd4 1fc0 ec54 a03d
00000120: e040 4bc0 0c0b a0bf ef76 e440 9034 aec0
00000130: 79f7 1541 a119 9cc0 3e93 9c3f ced1 56c0
00000140: 7b9b 85c0 090e b9c0 4ad3 1241 5eab ddbf
00000150: ec7a a2c0 f6b2 7b40 a924 afc0 1ae2 e13f
00000160: 8096 6840 7575 c5bf e22b b4c0 5f0e 62c0
00000170: 77b2 a4c0 0244 e4c0 bdf4 3940 0b0e 7f3f
00000180: fbd7 763f 444a 6d3f 2cac 86c0 7167 1241
00000190: 7fb4 82bf 35d9 acbe 5295 f540 b23f c0be
000001a0: 3c83 6340 5166 94c0 c2d4 3bc1 d07a 9840
000001b0: 3715 a840 6adf adbe e0b2 8840 5de3 4941
000001c0: d80f 08c1 7495 6fc0 cb56 8a40 9e1e 76c0
000001d0: a4b7 83c0 822b 1140 812d 81be 4f1f a4c0
000001e0: 2582 9dbf ebf9 6cbf 4136 ad40 21b7 18c0
000001f0: 7f5c b140 5960 4640 2ee0 2ec0 43a9 ed40
00000200: 5600 dc40 0221 b6be c67a 4a40 8137 d63f
00000210: 8d6c 3e40 ec7c 87c0 55e6 8cc0 cb7a c640
00000220: 8a62 0fc0 f05e 58c0 3f89 7e40 a180 853c
00000230: a62d c93e 6b5a 7940 06c8 11c0 29d6 963f
00000240: 9048 7a40 5777 2ac0 045b f3bf a278 8a40
00000250: 6b4f e4bf 46da 5040 2d92 c1c0 135f 2940
00000260: b37b a43e 0b91 1f3a 72ba afbf f22c 063f
00000270: f27e 18c0 0b73 0540 123b 7e40 e768 d9bf
00000280: ca45 e5c0 7b62 65c0 5950 85c0 796b 57c0
00000290: 6cb1 77bf 13ca 0b40 ae41 7640 269d b33f
000002a0: b63a 38c0 166d 83c0 13df 9540 f4f2 4340
000002b0: 414e ca40 bcd0 093f 70fa 9340 9b50 26c0
000002c0: 694e 6740 bf8c 2cbf f287 4dc0 7690 60bf
000002d0: d7d5 8640 1bb8 813f f1e5 cc3f d363 9740
000002e0: f813 06c0 9387 1a40 1e0b b240 04dc 9540
000002f0: 2cb6 a940 3f60 80be c1da 89c0 4f8d 9b40
00000300: badc e4c0 ea68 86c0 8725 b4c0 ce35 3440
00000310: f7bf 9b40 e525 a740 213a dfbf aacc 0c3e
00000320: 56d8 12c0 d9a3 70bf 4796 a140 c67c 81c0
00000330: 56de cd40 5f10 49c0 70ba 643f 6b92 17c0
00000340: ec8f 3dc0 6043 7ec0 a02f c740 65c9 4cbf
00000350: 2b38 6cc0 e2e3 2740 5a78 7ac0 2e8b 863f
00000360: 3d68 2a40 ae6b afbf 7a13 6ec0 e4df 2cc0
00000370: 2328 82c0 67f1 98c0 3f9f 0440 9d6c 793f
00000380: 7f1d fc3e 3a4b bf3e f755 3bc0 dfb1 d540
00000390: 24f0 3fbf 7863 48bd 0ff9 a940 5441 3fbe
000003a0: cc04 1440 70dd 53c0 6a01 03c1 2ef3 5940
000003b0: 9c0a 6840 29bc 7ebd 0ba9 3640 88ea 1041
000003c0: 8cc4 c3c0 8e8f 20c0 2f71 4940 abc9 33c0
000003d0: 1840 2dc0 96be f23f 0014 81be c83a 57c0
000003e0: 9225 5ebf 1c86 02bf 9f8e 7540 2c12 b9bf
000003f0: c2b2 7d40 32c8 0740 3d1d e6bf 1a7b a340
9.620718 -0.78094494 4.339225 2.6059783 4.1727405 -5.8119864 -5.925272 9.110367
-3.1275663 -4.774401 5.105491 0.16454564 0.6013018 5.7030487 -3.2692688 1.8299134
5.7718377 -3.441453 -2.9786685 6.0159736 -2.5651286 4.9281616 -8.689316 3.6326027
-0.14121929 -0.30411735 -2.1437957 1.1014987 -3.4125173 3.1203427 5.6446548 -2.3935394
-10.008369 -4.9708667 -6.050002 -4.9094887 -1.4054928 3.1277652 4.854144 2.014186
-4.347189 -5.576714 6.920503 4.4832854 8.872255 0.64338183 6.5326552 -3.728554
5.5344653 -1.0272791 -4.8720746 -1.3971014 6.6240783 1.6603777 2.340846 6.691654
-3.3794398 3.453929 7.774864 6.440179 7.3913984 -0.7433916 -6.139618 6.698431
-10.1531725 -5.9307656 -8.756566 4.204438 7.091189 7.1219535 -2.4973176 0.078286976
-3.1758347 -1.2503371 7.1395183 -5.4439163 9.372918 -4.8781285 1.2232435 -3.3565555
-4.1752295 -5.7829633 9.176584 -1.7317922 -5.077505 3.932798 -5.473225 1.7647126
3.6341858 -1.542647 -5.630357 -3.5321271 -5.1467853 -7.1333017 2.9055626 0.996308
0.9642331 0.92691445 -4.208517 9.150254 -1.0211333 -0.33759466 7.6744776 -0.37548596
3.554885 -4.63749 -11.739443 4.7649918 5.2525897 -0.33959514 4.2718353 12.618009
-8.503868 -3.743497 4.323095 -3.8456187 -4.116167 2.2682805 -0.2523003 -5.128822
-1.2305342 -0.92568845 5.412873 -2.3861773 5.542541 3.0996306 -2.7324328 7.426912
6.875041 -0.35572058 3.1637435 1.6735688 2.9753754 -4.2339993 -4.4031167 6.2024894
-2.2403893 -3.3807945 3.9771268 0.016296687 0.3929264 3.8961437 -2.2778335 1.1784106
3.9106789 -2.663534 -1.9012151 4.3272257 -1.7836736 3.2633224 -6.0490937 2.6464279
0.32125625 0.0006086982 -1.3728774 0.5241233 -2.3827481 2.0851467 3.9723554 -1.6985139
-7.164769 -3.5841358 -4.166058 -3.3659346 -0.967551 2.1842086 3.8477588 1.4032333
-2.8785834 -4.107066 4.6834807 3.0617037 6.3220525 0.5383413 4.624321 -2.5986698
3.6141608 -0.6740226 -3.2114224 -0.8772043 4.2136035 1.013431 1.6007673 4.7309356
-2.0949688 2.4145248 5.563857 4.6831074 5.303488 -0.2507343 -4.3079534 4.8609996
-7.151944 -4.200307 -5.629581 2.815784 4.867183 5.223376 -1.7439615 0.13749948
-2.294454 -0.9400001 5.0495944 -4.046481 6.4333906 -3.1416242 0.8934698 -2.3683116
-2.9619093 -3.9728622 6.2245636 -0.79994804 -3.6909282 2.6232839 -3.9135957 1.0511224
2.6626122 -1.3704736 -3.7199388 -2.7011652 -4.0673995 -4.779468 2.0722196 0.97431356
0.49241254 0.3736208 -2.9271219 6.677963 -0.749758 -0.048922986 5.3116527 -0.18677264
2.3127928 -3.3103905 -8.187845 3.4054675 3.6256475 -0.062191162 2.8540676 9.057259
-6.1177425 -2.508762 3.1475332 -2.8091838 -2.707037 1.8964412 -0.2521057 -3.3629627
-0.8677608 -0.50985885 3.83683 -1.4458671 3.9640355 2.121594 -1.7977673 5.108777

fc1.bias f4 [64]
00000000: 1ec7 bbbc e545 9b3d 5329 8dbd 48fe a63d
00000010: ff56 c93c ca91 99bd 393b 1dbd 4ff1 4f3c
00000020: c808 523d 9a9b 96bc f5e4 753d 8c53 233d
00000030: 19d2 593d 7cac 06bc 555c a1bc 3008 8abd
00000040: fa58 b3bd be47 68bd ffa0 3abd 7222 6f3c
00000050: 87ba 773d 7ff2 34bc 0847 9ebc b7d8 c5bc
00000060: ee25 a33d 6043 713d b51f 9dbd 6c08 4c3d
00000070: 9867 92bc 9270 57bd ce79 0e3d cc03 4c3d
00000080: a713 af3d 3682 803a 959c 113d 4c44 e23b
00000090: 60b8 893d 90a5 7abd 01e2 b1bd b99f d73c
000000a0: 17a0 573c bacd 0d3d 905a 4d3d a2ce 9dbc
000000b0: 715c 8fbd da88 f1bc d30c 9ebb 599a 85bd
000000c0: 1230 803c 783e 653d 1bed 70bc 70c7 0c3d
000000d0: b4ee 2c3d 237c ae3d 9f60 bbba ccea 5dbc
000000e0: a515 0d3c 5a74 0ebd 823d 8c3d cdff c43b
000000f0: f102 97bd 1c78 67bd 8cf2 16bd 6320 433c
-0.022922095 0.07581691 -0.068926476 0.08153969 0.024577616 -0.0749851 -0.038386557 0.01269181
0.051277906 -0.018384743 0.060032804 0.0398746 0.05317888 -0.008219834 -0.019697348 -0.06739843
-0.08757205 -0.056709044 -0.045563694 0.014595615 0.06048062 -0.011044144 -0.01932098 -0.02415119
0.07966219 0.058902144 -0.07672063 0.04981272 -0.017871663 -0.05259759 0.03478413 0.04980831
0.0854867 0.0009804431 0.03554972 0.0069051143 0.0672462 -0.06119305 -0.08685685 0.026321279
0.013160727 0.034620024 0.050135195 -0.01926357 -0.07000054 -0.029484201 -0.004823306 -0.0652358
0.015647922 0.055967778 -0.014704968 0.034369886 0.042219833 0.08519771 -0.0014295763 -0.0135447495
0.0086111175 -0.03477893 0.06847669 0.006011939 -0.07373608 -0.05651103 -0.036852404 0.011909577

fc2.weight f4 [24, 64]
00000000: 36fc 7cbe 0dfd 1fbf 09cf 823f c07f 323f
00000010: 990a 103f f2a2 8f3f 19fa 173f 8f21 193f
00000020: 41dc 3a3e 3437 f13e 3a01 413f 09d3 40be
00000030: 7e6b b63f 440f a73f d0a6 53be 062e 033f
00000040: f791 2a3f 294e 553f 2556 cb3f ed8b d03e
00000050: 1ffb 8abd 4284 c53f 639a 8a3e 7294 6e3f
00000060: 7b0d 803f a326 3e3f 62ca c53f dc35 ce3e
00000070: 835a 203e 5413 263f 3762 023f 4ab0 b23f
00000080: 9ccc af3f fda7 f13e 2308 c13f 48e0 963f
00000090: 4453 b83d cc9d 4e3e 8c4a 753d 3e9e 92be
000000a0: 8847 8a3d 348f 453e c1a5 13bf b5d9 0d3f
000000b0: 5b9d d1be 1454 a73f 6882 c73e 6f6d bf3f
000000c0: 50b4 113f 8167 a63f 561c 043e 23e0 883e
000000d0: 11f3 f93e 96cb 7f3e 4491 243f df7c be3e
000000e0: a912 823f 43d2 f43f acb1 febf 1b1f 933f
000000f0: 8e98 663f b875 88be 43cc 3e3f 0168 e93d
00000100: 5051 1f3e e13f 313e 325e b0bd ca52 223e
00000110: f37b 933d e371 0cbf 7212 203e be62 523f
00000120: de66 983d bbf5 dabe f13d a43d 1de3 71be
00000130: c659 d13e cb30 00bf ad69 653f 8f4c 0ebf
00000140: 2f1f aabe abd3 ddbe 147e 673e a628 53be
00000150: 63f6 a03f f5e6 4bbf d3ad 4dbf 5e5c 85bf
00000160: fb72 eebe 7ca4 a4be 2116 023f 36de 28bf
00000170: b961 623d 26d2 a2be b7d9 15bf 9f4a a03e
00000180: 21d1 c73e 899f 7c3f 393e 783e 4262 a2be
00000190: 1008 88bf 00d8 f6be 6d1d ac3c 6264 633e
000001a0: e4ce 653f 8f82 fc3f 1d1f 6f3f 24f1 01bf
000001b0: 2b71 733c 6a5d 203d 9866 293d 0fd2 c73e
000001c0: 4765 c53f 658e 8e3e 4841 1bbf 4399 01bf
000001d0: 5c5c 68bf df48 143f 9120 fb3e dda1 15bf
000001e0: dd20 ce3d 9baa 0b3d 8b4a 4e3d b6cf ccbe
000001f0: ecfa d5be b74a acbe 4d2c 8cbe bb59 943d
00000200: 8ad2 9e3d d586 37bf 79a4 3ebe cb91 c8be
00000210: 6c4a a23e dc82 b03d 895a 04bf 2ef6 0bbf
00000220: 4d7d 433e 6b76 0abf b2f8 003f 12a6 9dbe
00000230: 9111 e5be cfb2 64bf 4f35 24bd 3a8b e8be
00000240: 994b 8dbc 25c9 0340 5f56 9bbe b8dc 323f
00000250: 57c2 e53e 5e53 90bf eb1d 2f3f 4adf 503f
00000260: f6fa cfbe 7805 d6bf 2f10 55bd 60c5 45be
00000270: 71bb 25be ab97 14bf 3b8d b0bf dc3e 0abf
00000280: e50c 863e f0d7 b3bf ce98 b0bf 75a7 48bf
00000290: 9142 9a3e 5e95 e3be fca1 4dbf 24c8 57bf
000002a0: 303f aabc 73ad e1bd cea4 0c3d 0f84 38be
000002b0: 0586 69bf df3f a7bd 0292 483f 53ef 363f
000002c0: a63f b9bd 2e65 833d eaef b13f 0d28 0840
000002d0: a373 1dbf 5a02 8b3e e10a 023d 8bd7 0ebc
000002e0: 226f cfbe 993a 3dbd 8997 cd3e 2e4b a7be
000002f0: bcf3 793e ac1e 96be 058d bebe 5256 00bf
00000300: 7ddf 323e 3c2f 54be 6940 743e 438f 90be
00000310: c5dc b0bf 3c55 73be 29c9 b1be 23a8 2bbe
00000320: 0119 c03e 4e85 c5be 279e c0be d4ea 90bf
00000330: fa7d aabd 418a b03e 0f56 193f 1bad 83be
00000340: c7ef 96be 5271 ce3f ccef 1abf cf40 103f
00000350: fab3 9cbe 3873 213e 24e5 48bf c55b 883d
00000360: a636 3ebe 012d 3cbf 5cc8 a5be aa16 c53c
00000370: 0d93 1940 6ab3 82bd 1885 acbf b55e 91be
00000380: 7e85 11be bbc8 b3bf 35d2 eb3e a002 92bd
00000390: 8ad3 453d b81b b3be 537d 37bf 7cc5 43bf
000003a0: e5f4 0dbe cef4 65bf 9deb 153f 3a5c 0c3f
000003b0: 854f 85bf ad2a fabe f0cb 37be bf05 2dbf
000003c0: 971c 3d3f c0e7 05bf d41b 423f 16fb 57bf
000003d0: 3cd8 61bf 0308 0740 4f19 f3be d8b2 60be
000003e0: da1a 27bf d5a4 223e 8aa4 143e 6a9f 6fbe
000003f0: eeaf c03d 9c96 0f3a 4b7e 18bf ab70 debe
-0.24705586 -0.624955 1.0219432 0.6972618 0.5626617 1.1221602 0.59365994 0.5981683
0.18248083 0.4711243 0.75392497 -0.18830504 1.4251554 1.3051534 -0.20669103 0.512421
0.66628975 0.8332239 1.5885664 0.40731755 -0.06786179 1.5430987 0.27070913 0.9319526
1.0004114 0.74277705 1.5452387 0.40275466 0.15659527 0.6487324 0.50931114 1.3960049
1.3734317 0.47198477 1.5080608 1.1787195 0.09000257 0.20177382 0.059885547 -0.28636354
0.06751925 0.19292909 -0.57674795 0.5541032 -0.40940365 1.3072534 0.3896668 1.4955271
0.5691576 1.3000337 0.12901434 0.26733503 0.48818257 0.24980006 0.6428416 0.37204644
1.0161945 1.9126667 -1.9897971 1.1493868 0.9007653 -0.26652312 0.7453043 0.1139679
0.15558362 0.17309524 -0.08611716 0.15851894 0.07201376 -0.5486128 0.15632036 0.8218192
0.07441495 -0.42765602 0.08019627 -0.23621793 0.40888804 -0.5007445 0.89614373 -0.5558557
-0.33226916 -0.43325552 0.22606689 -0.20620975 1.2575191 -0.7964929 -0.8034336 -1.0418813
-0.46572098 -0.32156742 0.50815016 -0.65964067 0.055268977 -0.31800956 -0.5853533 0.3130693
0.3902674 0.9868093 0.24242486 -0.3171559 -1.062746 -0.4821167 0.021010125 0.22206262
0.89768815 1.9727343 0.9340685 -0.50758576 0.014858524 0.039151587 0.041357607 0.3902745
1.5421532 0.27843013 -0.60646486 -0.50624484 -0.9076593 0.5792369 0.49048284 -0.5845011
0.10064862 0.03409825 0.05036406 -0.4000222 -0.41793 -0.33650753 -0.2737755 0.07243677
0.07755001 -0.7169011 -0.18617429 -0.3917373 0.31697404 0.086187094 -0.51700646 -0.54672515
0.19090767 -0.5408694 0.5037948 -0.30790764 -0.44739965 -0.8933534 -0.0400899 -0.4541872
-0.017247962 2.059152 -0.30339333 0.6986804 0.44874832 -1.1275442 0.68405026 0.8159071
-0.40621156 -1.6720419 -0.052017387 -0.19313574 -0.16184784 -0.58043927 -1.37931 -0.54002166
0.26181713 -1.4050274 -1.3796632 -0.7838052 0.3012891 -0.44449896 -0.80325294 -0.84289765
-0.020782083 -0.11019411 0.034336857 -0.18019126 -0.9122012 -0.08166479 0.7834779 0.7145893
-0.09045343 0.06415783 1.3901341 2.1274445 -0.6150457 0.27150232 0.031748656 -0.008718382
-0.40514475 -0.04619846 0.40154675 -0.32674545 0.24409384 -0.29320276 -0.37216964 -0.50131714
0.17468067 -0.20721143 0.23852696 -0.282343 -1.3817374 -0.23762983 -0.34723786 -0.16763358
0.37519076 -0.38578266 -0.3762066 -1.1321664 -0.08324809 0.3448048 0.5989694 -0.25718006
-0.2947981 1.6128333 -0.6052215 0.5634889 -0.3060606 0.15766609 -0.7847464 0.06658129
-0.18575534 -0.7350617 -0.32379425 0.024058659 2.3996003 -0.06381877 -1.3478117 -0.28392568
-0.1421108 -1.4045633 0.46058813 -0.07129407 0.048297442 -0.34982085 -0.71675605 -0.7647321
-0.13862951 -0.8982667 0.5856264 0.54828227 -1.0414892 -0.48860684 -0.1794889 -0.6758689
0.7387175 -0.5230675 0.7582371 -0.843675 -0.8822057 2.109864 -0.47480246 -0.21943223
-0.6527535 0.15883191 0.14515892 -0.23400655 0.09408556 0.00054774596 -0.5956771 -0.43445334

fc2.bias f4 [24]
00000000: 715d 0040 4766 33be dcc3 7f3e 8e3d 4fbe
00000010: 7e39 2cbf c16c 53bf 1959 b63f 49aa ce3e
00000020: e0fe 0c3f edb5 963e e66b 7bbf 86c6 873f
00000030: 248d 8fbe d73e 23bf 23f6 c7bd 2019 69bf
00000040: b57c 873f fb3e 08be 4f2d 0abf e983 42bf
00000050: 91f4 3abd 281b 78bf 93b6 35bf 45ac 243f
2.0057032 -0.17519484 0.24977058 -0.20238325 -0.67275226 -0.8258782 1.424594 0.40364292
0.5507641 0.29435673 -0.98211515 1.060746 -0.2803737 -0.6376776 -0.09763744 -0.9105396
1.0584933 -0.13305275 -0.53975385 -0.7598253 -0.045643393 -0.9691644 -0.7098171 0.6432536

bn1.weight f4 [64]
00000000: 4385 743f 896d d43f cf5e 4340 e394 523f
00000010: 81b7 d43f 2b9d 5140 81da 3640 7827 3c40
00000020: 0037 453e 046c ca3e 860e 9d3f ff93 2a40
00000030: 87db 2b40 60d9 3e40 91a1 003f eee7 fe3f
00000040: 2edd f93f 612a 5240 117c 2b40 01ea 3a40
00000050: db63 0b40 092c 4b40 3c7d 0d40 8ac9 0840
00000060: 6fe5 0c40 ef90 763f f0d2 5940 fc00 0940
00000070: ab45 3c40 83f3 7c3f 53cd 573f fadd 3c40
00000080: e476 5140 2a8f b23f 63cb 5b40 ae68 1740
00000090: 79a5 5e40 2e44 163f 2909 da3f 2184 1c40
000000a0: 8250 fd3f 584f 3440 02a3 3e40 4355 4c40
000000b0: 36c7 6340 cb56 3340 cd65 923f 40ab 4940
000000c0: 6840 2d40 a32c 2b40 cb83 963f f7b8 3c40
000000d0: 09fa 3440 51f3 3b40 5287 5140 5eb4 0440
000000e0: 991a 4d40 100b 3240 8a9c 0740 b47a 2b40
000000f0: e5c2 813f f798 fa3f fa36 3e40 4326 3340
0.9551584 1.6595927 3.0526617 0.82258433 1.6618501 3.2752178 2.8570864 2.939909
0.19259262 0.39535534 1.2270057 2.665283 2.685274 2.9820175 0.5024653 1.9914529
1.9520624 3.2838366 2.6794474 2.9205325 2.1779697 3.1745627 2.2107687 2.137301
2.2015035 0.963149 3.4034996 2.140685 2.9417522 0.9880907 0.84297675 2.9510484
3.2728815 1.394994 3.4342887 2.3657641 3.4788496 0.58697784 1.7034045 2.4455645
1.9790194 2.8173428 2.9786992 3.192704 3.5590339 2.8021724 1.1437317 3.1510773
2.707056 2.6745994 1.175897 2.9487894 2.827761 2.9367259 3.2738843 2.0735087
3.2047484 2.7819252 2.1189294 2.6793642 1.0137602 1.9577931 2.9721055 2.7992103

bn1.bias f4 [64]
00000000: 312e a23e 8603 c2bd 149c 2e3f 0392 75be
00000010: 90a7 e63d fa6c 9c3e a9c2 f13e 1488 1e3f
00000020: 81cb e4be 5185 f5be a2d0 16be 4643 743f
00000030: fb58 cb3e 5d42 c33e a91b 8cbf cfb5 3c3f
00000040: 51e1 0a3f a6c5 863e aea3 ca3e 2c38 143f
00000050: e69b 0d3f 2979 d63e e25f d83f 2314 603f
00000060: 7575 f33e 809b b53b 89f5 fe3e 62c5 4bbe
00000070: 23c2 8e3f 83db cdbe c3ff 08be 01fb b13e
00000080: d85e 293f c250 dabd 4f99 d03e ae69 703e
00000090: 95df 743f c602 8fbf f7df 783f 1e82 173f
000000a0: 1a91 433f 2512 333e dbe4 603f 8a64 893d
000000b0: fb38 8a3f f585 073f 573e 29bf 715a 813d
000000c0: fd33 bc3e 5bce b43e 98ce 17bf 3095 3ebd
000000d0: 4183 113f df50 2abe 2e30 543f e765 e33e
000000e0: 4149 c43e a89e 233e d234 c23f 8a1b be3e
000000f0: e58e 78be b207 d4be d6bc c43e 0bb0 a53f
0.31675866 -0.09473328 0.68206906 -0.2398148 0.11262429 0.30551893 0.47218826 0.6192639
-0.4468651 -0.47953275 -0.14728025 0.9541515 0.39716324 0.3813657 -1.0945941 0.7371492
0.54250056 0.2632267 0.39578003 0.5789821 0.5531601 0.41889313 1.6904261 0.87530726
0.4755055 0.0055422187 0.49796703 -0.19899514 1.1152996 -0.40206537 -0.13378815 0.34761813
0.66160345 -0.106599346 0.40741965 0.23477814 0.9565366 -1.1172721 0.97216743 0.5918292
0.7639328 0.1748739 0.87849206 0.067086294 1.0798639 0.5293878 -0.6611075 0.063160785
0.36758414 0.35313687 -0.5929961 -0.046528995 0.568409 -0.16632412 0.82886016 0.44413683
0.38337138 0.15978491 1.517237 0.37130386 -0.2427326 -0.4141212 0.3842532 1.2944349

bn1.running_mean f4 [64]
00000000: d426 8f43 41b2 4843 1f44 a33f 98af 22c0
00000010: d0f7 e83f 9cdd d63f 8fa0 d03f a5e9 4340
00000020: 7c01 88c1 c724 5dc1 e04b 36c0 490f 0140
00000030: e366 b13f 4b6a b53f ca87 3ec1 ceb1 763f
00000040: 91de 893f 49f3 d03f 45f8 0140 d593 1140
00000050: d124 3e40 4b3c 0a40 d2f1 a340 3283 f83f
00000060: 3c54 f53f 8d16 f3bf f6f1 a83f a429 6741
00000070: a9ac 2540 4607 1bc0 9559 0cc0 32cb 0140
00000080: 661e 2540 b30b 15c0 fb43 1a40 102e a53f
00000090: 4362 fd3f 9242 acc1 43b3 3840 ecd9 1a40
000000a0: 6e86 4c40 016e bc3f 69ee 0140 7d2c 533f
000000b0: 1588 4340 2d9e e03f d79f 16c0 6ba5 b63f
000000c0: fa74 ae3f caf4 a43f 1269 8abe 8b34 753f
000000d0: ee28 bb3f 5e95 bf3f 1eab 0d40 ab92 db3f
000000e0: 2a62 d53f 3cff d83f 3213 8e40 24d8 c43f
000000f0: b97c 6ac0 6abf b53d fa3a 963f 0099 3340
286.30334 200.6963 1.2755164 -2.5419674 1.8200626 1.678638 1.6298999 3.0611355
-17.000725 -13.821479 -2.848381 2.016558 1.3859524 1.4173063 -11.908152 0.9636506
1.0771047 1.6324245 2.0307782 2.274648 2.970997 2.15993 5.123269 1.9415038
1.9166331 -1.8991257 1.3198841 14.447666 2.5886633 -2.422319 -2.1929677 2.028027
2.5799804 -2.328839 2.4103992 1.2904682 1.9795612 -21.532505 2.8859413 2.419551
3.195705 1.472107 2.0301764 0.8248976 3.0551808 1.7548271 -2.3535058 1.4269232
1.3629448 1.2887204 -0.27033287 0.957833 1.4621866 1.4967458 2.2135692 1.7154135
1.6670582 1.6952891 4.439843 1.5378461 -3.6638625 0.088744 1.1736748 2.8062134

bn1.running_var f4 [64]
00000000: 514f 0d47 3eba 8a46 dcbc 2641 adce 2b41
00000010: e29f 0e41 19b1 0f41 fbe7 0e41 5315 5e41
00000020: d267 ff42 c527 c142 c7e5 2641 dbd4 5041
00000030: ca3f 4041 269b 1841 1fd7 8e42 25d6 2e41
00000040: e445 b440 79d5 2f41 f63e 2d41 763b 0841
00000050: 0db6 2d41 5a24 3941 87cd c541 8a43 0741
00000060: 5272 d340 7ee7 1141 2568 4341 5294 bc42
00000070: 4bc9 2e41 1a5d c840 1a80 3941 42bb 3b41
00000080: 21c1 5f41 8d6e 5741 bd16 8241 58ce 2b41
00000090: 262e 2941 2b66 5c43 aecc 4541 128e f240
000000a0: 09ec 2141 6aad c840 36b7 6841 17ce f640
000000b0: b5c3 3941 6ca9 3941 1f39 ac40 6d98 3941
000000c0: f357 df40 c469 f940 8022 0241 8c31 3241
000000d0: fb26 3d41 df4f 0441 6924 6c41 6e71 1b41
000000e0: f821 0d41 3070 0c41 dc75 8041 8f42 0341
000000f0: 3eac b641 f4d6 c740 e80f fe40 aa7a 2f41
36175.316 17757.121 10.421108 10.737958 8.914034 8.980737 8.931636 13.880206
127.702774 96.577675 10.431098 13.051967 12.0155735 9.537878 71.42016 10.927281
5.6335316 10.989617 10.827871 8.514517 10.856946 11.571375 24.725355 8.453989
6.607705 9.119017 12.212926 94.28969 10.924144 6.261365 11.593775 11.733217
13.984651 13.46449 16.261103 10.737877 10.573767 220.3991 12.362471 7.5798426
10.120126 6.2711687 14.544729 7.7126575 11.61028 11.603863 5.381973 11.599713
6.979486 7.794161 8.133423 11.137096 11.822017 8.2695 14.758889 9.715193
8.820793 8.77739 16.057549 8.20375 22.834103 6.2449894 7.9394417 10.967447
